channelpara.ckpt (torch, 545891 bytes, 22 tensors)

ob_encoder.0.weight f4 [64, 1000]
0.073929146 -0.036246274 0.045818686 -0.023904964 -0.009227278 0.037785664 0.019588321 0.034236282
-0.0198553 -0.0028230809 -0.060374513 0.00029140463 -0.021568403 -0.01257915 0.074584566 -0.03754996
-0.028484464 0.006952503 -0.020812843 0.0365524 0.01297902 -0.004774425 0.033828385 0.021455051
-0.076190285 -0.020433703 0.017220821 0.049735524 0.016319845 0.02207452 -0.025660338 -0.0147253
-0.00061844976 -0.024941282 0.03159159 0.012675927 -0.06791894 -0.038747847 -0.021313947 0.02770803
-0.006080461 0.017672217 -0.010190769 -0.06587706 0.0048977965 -0.0059281513 0.003674695 -0.03582348
-0.018610433 0.004783742 0.026399303 -0.033162396 -0.042952385 0.01440163 0.04766205 -0.00024752747
-0.044519044 0.025649033 -0.021989292 0.0209996 -0.09058178 -0.020949272 -0.03565866 -0.033786945
0.03438426 -0.015338937 -0.022400124 0.048570987 -0.00018079336 0.012490967 -0.06618378 -0.013569114
-0.021554155 -0.041843645 0.0057559363 0.030516533 -0.0147966 -0.0011434181 0.028624084 -0.012014138
0.025749842 0.010037672 -0.00814798 -0.059913762 -0.026125468 0.04303157 0.03862836 0.012664847
-0.06218293 -0.03680082 -0.025802728 -0.027766425 0.054432616 0.031788208 -0.018663801 -0.024016766
-0.04796465 0.003401628 0.050544664 0.036710083 0.022777263 0.016785096 -0.008056025 -0.051083528
0.036459457 0.029961634 0.012266513 -0.03509753 0.013039348 0.024198176 -0.036238283 -0.017138582
0.00407085 0.028544584 0.010042803 -0.029852763 0.050804216 -0.02449908 0.0023150076 0.012812743
-0.004970751 0.024403475 0.01340809 0.03371368 0.038909066 -0.0002727109 -0.010095068 -0.025396166
0.044177786 0.033852715 0.013356009 -0.004001505 0.0357414 -0.010302033 -0.067487724 -0.027878432
-0.055919986 0.04184451 -0.039517652 0.016540252 0.0014426754 0.0072292206 0.06994022 -0.07154649
0.05807481 -0.011629427 0.034569446 0.063823536 -0.009861945 0.024916178 -0.043918196 0.013793837
0.0052140625 0.01664415 -0.06907344 -0.04634293 0.018852912 0.0037217601 -0.03200389 0.023260817
0.028528277 -0.03550555 0.025176857 -0.020911636 0.01293819 0.11804196 0.01323917 0.0408048
0.05236088 0.010049084 -0.05692736 0.016729515 -0.07354087 -0.048617397 -0.029262405 -0.02275769
0.063689195 0.006516174 0.009021959 -0.02609885 0.010260023 0.028062185 0.031358372 0.020413667
-0.025882505 -0.04150397 -0.0059818574 -0.013827845 -0.035480056 -0.019708097 0.023492672 -0.010089593
0.037240177 0.02259751 -0.0044178404 0.013632114 -0.00428758 0.028851483 -0.003355351 0.082877375
-0.02912927 0.036213417 0.0055433735 -0.06816904 -0.006088402 -0.0040478157 -0.03238347 -0.013844405
0.013033534 0.022320688 0.014311194 0.051312346 0.004824198 -0.0061171395 0.029797567 -0.012085416
-0.029717596 0.029882804 -0.038729895 -0.04747646 0.023723094 -0.0053744493 -0.03159978 -0.04721971
0.0054161227 -0.01233075 -0.013462079 0.025236981 0.027256878 0.0067820144 -0.00036354046 -0.007144436
0.027234713 -0.046441786 -0.047369536 -0.0008528367 -0.048137218 -0.024071949 -0.00053071225 -0.018438332
0.02574849 0.026668193 0.033889808 0.0021036356 0.032513008 0.04993226 -0.03186023 0.019997088
-0.013183052 0.03095538 -0.011381936 0.011603227 0.0049009444 -0.036316376 -0.038346197 -0.045741424
00000000: 2a68 973d f976 14bd 60ac 3b3d 58d4 c3bc
00000010: 022e 17bc 24c5 1a3d b077 a03c 583b 0c3d
00000020: 95a7 a2bc 7003 39bb 444b 77bd abc7 9839
00000030: 38b0 b0bc c718 4ebc cbbf 983d fdcd 19bd
00000040: 4058 e9bc d3d1 e33b b27f aabc f8b7 153d
00000050: f5a5 543c c872 9cbb a28f 0a3d 81c2 af3c
00000060: a709 9cbd 9564 a7bc ae12 8d3c 7ab7 4b3d
00000070: 32b1 853c a0d5 b43c a135 d2bc 6242 71bc
00000080: 761f 22ba a951 ccbc 2f66 013d b1ae 4f3c
00000090: 1619 8bbd 10b6 1ebd 969a aebc f3fb e23c
000000a0: 9b3e c7bb 53c5 903c 2ff7 26bc 8dea 86bd
000000b0: b27d a03b f040 c2bb 27d3 703b a4bb 12bd
000000c0: e874 98bc f0c0 9c3b 5a43 d83c 4bd5 07bd
000000d0: d7ee 2fbd d0f4 6b3c 4839 433d 93c6 81b9
000000e0: 9a59 36bd ec1d d23c e322 b4bc 5a07 ac3c
000000f0: f182 b9bd cf9d abbc d10e 12bd 2e64 0abd
00000100: 83d6 0c3d 2a50 7bbc 7780 b7bc 5ff2 463d
00000110: 5993 3db9 eaa6 4c3c 5d8b 87bd fd50 5ebc
00000120: 5792 b0bc 3e64 2bbd 4b9c bc3b cffd f93c
00000130: 706d 72bc bfde 95ba 0e7d ea3c f2d6 44bc
00000140: 55f1 d23c 0c75 243c 1b7f 05bc 2268 75bd
00000150: 1405 d6bc df41 303d c538 1e3d 3880 4f3c
00000160: 87b3 7ebd 75bc 16bd 3e60 d3bc 6a76 e3bc
00000170: bcf4 5e3d 5a34 023d d4e4 98bc cfbe c4bc
00000180: 9576 44bd d9ed 5e3b ec07 4f3d 505d 163d
00000190: 6297 ba3c e680 893c 6bfd 03bc f63c 51bd
000001a0: 8356 153d 1a72 f53c 7cf9 483c 6dc2 0fbd
000001b0: fda2 553c 413b c63c 986e 14bd 3666 8cbc
000001c0: c464 853b 55d6 e93c 928a 243c c88d f4bc
000001d0: 1518 503d 4bb2 c8bc 62b7 173b 8aec 513c
000001e0: aee1 a2bb cce9 c73c 9bad 5b3c 5b17 0a3d
000001f0: 1d5f 1f3d a3fa 8eb9 c965 25bc 9f0b d0bc
00000200: c4f3 343d 25a9 0a3d 29d3 5a3c 0f1f 83bb
00000210: 9365 123d dcc9 28bc 0137 8abd 4f61 e4bc
00000220: 5b0c 65bd 2665 2b3d 43dd 21bd 6c7f 873c
00000230: 2718 bd3a 19e3 ec3b d13c 8f3d f786 92bd
00000240: dadf 6d3d 5a89 3ebc b198 0d3d eab5 823d
00000250: ff93 21bc 031d cc3c 91e3 33bd 8cff 613c
00000260: bada aa3b 5059 883c 6076 8dbd 16d2 3dbd
00000270: 6c71 9a3c c6e8 733b 8316 03bd 788d be3c
00000280: 22b4 e93c 456e 11bd b23f ce3c e14e abbc
00000290: b4fa 533c fcbf f13d 1be9 583c ef22 273d
000002a0: 5d78 563d eaa4 243c aa2c 69bd 560c 893c
000002b0: 989c 96bd 0923 47bd b6b7 efbc 566e babc
000002c0: 7b6f 823d a185 d53b d7d0 133c 41cd d5bc
000002d0: a819 283c abe2 e53c a371 003d 903a a73c
000002e0: 8c07 d4bc 1100 2abd 7503 c4bb 308e 62bc
000002f0: 8953 11bd e072 a1bc b473 c03c d24e 25bc
00000300: 2889 183d 6a1e b93c 88c3 90bb 3b59 5f3c
00000310: d47e 8cbb f259 ec3c 73e5 5bbb 9dbb a93d
00000320: 82a0 eebc 8554 143d 30a5 b53b 369c 8bbd
00000330: 3881 c7bb 8aa3 84bb 88a4 04bd a5d3 62bc
00000340: 9b8a 553c e0d9 b63c 8079 6a3c e52c 523d
00000350: 4e14 9e3b 4972 c8bb 071a f43c e901 46bc
00000360: 5172 f3bc c8cc f43c 3da3 1ebd ad76 42bd
00000370: ef56 c23c 261c b0bb c56e 01bd 7469 41bd
00000380: bb79 b13b ea06 4abc 0d90 5cbc c9bd ce3c
00000390: d149 df3c a93b de3b 9399 beb9 df1b eabb
000003a0: 551b df3c be39 3ebd 8f06 42bd e790 5fba
000003b0: 882b 45bd 8932 c5bc 7f1f 0bba fc0b 97bc
000003c0: 7fee d23c 4177 da3c 0ad0 0a3d 26dd 093b
000003d0: 5c2c 053d c585 4c3d df7f 02bd efd0 a33c
000003e0: bafd 57bc 2396 fd3c 4d7b 3abc 761b 3e3c
000003f0: 1a98 a03b 7bc0 14bd e710 1dbd 5c5b 3bbd

ob_encoder.0.bias f4 [64]
-0.09377168 0.0008707851 0.096247785 -0.06705355 -0.10722712 -0.09834836 -0.074308656 0.039360445
-0.008083126 0.09228963 0.0672103 -0.07183836 -0.09982967 0.004869061 0.030720735 0.19881989
0.10241745 0.24574836 -0.083135635 0.13058858 -0.099004984 0.08085686 0.0064206137 0.12313057
0.06251107 -0.067002214 0.019057745 -0.019767575 -0.08601627 0.048193026 0.021491213 -0.052394297
-0.05117941 0.12599476 0.006155415 0.04169948 -0.022967264 0.19225931 0.18128943 -0.081288114
0.01628978 0.1077867 0.028588273 0.06920045 -0.005420665 0.05729701 -0.04707934 -0.0034327302
0.046616517 -0.0033562528 -0.042835876 -0.052669562 0.004365971 0.06742072 0.07853265 0.021695929
0.03944788 0.07651252 -0.032318756 0.047919437 -0.04895651 -0.008308045 0.0034681442 0.038644765
00000000: 5e0b c0bd 6645 643a 8f1d c53d 5f53 89bd
00000010: e499 dbbd dd6a c9bd 232f 98bd 6b38 213d
00000020: 166f 04bc 5802 bd3d 8ea5 893d fd1f 93bd
00000030: 7f73 ccbd a58c 9f3b 0daa fb3c 7197 4b3e
00000040: 3dc0 d13d 75a5 7b3e 0443 aabd 03b9 053e
00000050: 20c3 cabd 4898 a53d 0364 d23b e12b fc3d
00000060: ce05 803d 7538 89bd fd1e 9c3c 9cef a1bc
00000070: 4c29 b0bd 0d66 453d 570e b03c 679b 56bd
00000080: 80a1 51bd c504 013e 5db3 c93b 13cd 2a3d
00000090: d825 bcbc a0df 443e f0a3 393e 627a a6bd
000000a0: 2572 853c 46bf dc3d f431 ea3c f7b8 8d3d
000000b0: d59f b1bb 45b0 6a3d 44d6 40bd a8f7 60bb
000000c0: f6f0 3e3d 94f4 5bbb ac74 2fbd 0abc 57bd
000000d0: 6b10 8f3b e013 8a3d bad5 a03d a9bb b13c
000000e0: 1a94 213d 99b2 9c3d ac60 04bd 2c47 443d
000000f0: 9f86 48bd 771e 08bc ce49 633b f949 1e3d

ob_encoder.2.weight f4 [16, 64]
-0.085065305 0.005017695 -0.0962907 -0.09294181 0.011169333 0.051937904 -0.12638667 -0.15554826
-0.12176453 -0.102132626 -0.029497353 -0.004231799 0.04266828 0.0919019 -0.10439281 -0.054190315
-0.09410766 -0.31829807 -0.12020268 0.086676106 0.0923146 -0.17910156 0.08043564 -0.027795842
-0.079679966 -0.047961533 0.022220654 -0.018238664 -0.033884455 0.08974528 -0.04109239 -0.06576777
-0.09900239 -0.13249725 -0.07593501 -0.1336863 0.0032704438 0.090486616 0.007969257 0.056089777
-0.07175743 -0.048311327 0.056492943 0.094912164 -0.047930602 0.08668007 0.04681168 -0.13338797
0.025983475 0.0015993405 0.11598883 0.08088378 0.13294299 0.017824229 -0.0014744231 -0.21631846
0.00032809417 -0.09220204 -0.092156865 -0.0640556 -0.04428072 -0.080713965 0.05852781 -0.09840922
0.096424885 0.023376895 0.16881022 -0.10415288 -0.1380318 0.07337186 0.017230932 -0.13397266
-0.066853605 0.05176003 -0.10464255 -0.016632909 0.12880309 0.011377948 0.063952446 -0.17576398
0.1502271 -0.38675466 0.021029228 0.06578889 0.004323579 0.15224138 0.010930071 0.065893956
0.07496649 -0.06672855 0.006057296 0.05557177 0.13006787 0.08427952 -0.14781573 -0.0308479
0.011302413 0.16532394 -0.017108763 0.03855608 0.06096102 -0.26157886 0.26727408 0.045881696
-0.08047226 -0.068232 -0.0546858 0.070649445 0.073934786 -0.20205416 -3.166701e-05 0.08962111
0.14947066 0.18444788 -0.105087414 0.022167008 -0.046864644 0.009459132 0.061542086 0.053113688
-0.049037017 0.141249 -0.033272654 0.0839794 0.09535209 0.045759298 -0.02684408 0.026677648
-0.12386949 0.1079319 0.0042998847 -0.071266405 -0.0056464556 -0.018411309 0.095034465 -0.18499467
0.028110016 0.017279563 -0.096579865 0.11316372 0.047549527 0.042068217 0.046683736 -0.089539714
0.08061524 -0.37088177 0.055225663 -0.095141806 -0.053170137 -0.18682332 -0.009565736 0.04386881
-0.12300275 -0.052362323 0.112577066 0.06334417 -0.092132345 -0.034744296 0.029588863 0.01611435
-0.039734725 -0.17695512 0.02664026 0.0025615955 -0.046614733 -0.029758617 0.02553419 0.013235584
-0.0059245783 -0.048750017 -0.0967691 -0.030623557 0.062750734 0.027533067 -0.16661228 -0.048432156
-0.0017595931 0.01917272 -0.023475064 -0.123560056 -0.04825862 -0.011540135 -0.13266066 -0.025036277
-0.1056608 0.04176781 0.033263776 0.04311353 -0.09908585 -0.07698625 -0.0055283615 0.1084053
0.03474205 -0.012757864 0.1256369 -0.044673514 -0.05380505 -0.07617499 0.0010341385 -0.12486617
-0.07374783 -0.0013282871 -0.08871032 -0.13443378 -0.20180295 0.05758775 -0.08085783 -0.026449317
-0.026932009 -0.010414513 -0.12958017 -0.0952442 0.030932264 0.0065143113 -0.086325444 -0.24000825
0.10497402 0.108079955 0.1274484 0.027823197 -0.037958436 -0.04916298 -0.12979934 0.070040435
-0.10810925 -0.06533889 -0.100871794 0.00024243498 0.095590115 -0.107435085 0.043604814 -0.010281291
0.017595155 -0.19822128 -0.027563155 -0.0042229965 -0.015460832 -0.20078263 0.037798367 -0.02432829
-0.1330009 -0.0763982 -0.2040738 -0.042798504 -0.03161496 -0.06075046 -0.054872137 -0.003917267
-0.08821108 -0.18600094 0.06221592 -0.019609582 -0.080688894 -0.021610314 -0.10189991 -0.060797896
00000000: b836 aebd 7a6b a43b 0f34 c5bd 4758 bebd
00000010: 94ff 363c d7bc 543d 826b 01be 0b48 1fbe
00000020: af5f f9bd e92a d1bd 6fa4 f1bc e7aa 8abb
00000030: efc4 2e3d 1037 bc3d e6cb d5bd aaf6 5dbd
00000040: 84bb c0bd f7f7 a2be d32c f6bd 3e83 b13d
00000050: 700f bd3d 6666 37be 71bb a43d 1bb4 e3bc
00000060: 402f a3bd 5073 44bd 1708 b63c 4069 95bc
00000070: 6dca 0abd 60cc b73d 7e50 28bd 41b1 86bd
00000080: c4c1 cabd 5cad 07be d183 9bbd 10e5 08be
00000090: f154 563b 0c51 b93d 7d91 023c 65be 653d
000000a0: 8ff5 92bd 19e2 45bd 2565 673d 4f61 c23d
000000b0: e152 44bd 5285 b13d 9bbd 3f3d db96 08be
000000c0: 4cdb d43c f6a0 d13a 8d8b ed3d 65a6 a53d
000000d0: 3522 083e 1e04 923c 6e41 c1ba 9682 5dbe
000000e0: 0e04 ac39 6cd4 bcbd bdbc bcbd 952f 83bd
000000f0: b35f 35bd 5d4d a5bd dbba 6f3d c68a c9bd
00000100: 697a c53d e780 bf3c 96dc 2c3e 1b4e d5bd
00000110: 3558 0dbe fc43 963d e227 8d3c 2130 09be
00000120: 8bea 88bd 5302 543d d54e d6bd bd41 88bc
00000130: f5e4 033e 936a 3a3c 80f9 823d 79fb 33be
00000140: 22d5 193e b504 c6be 7d45 ac3c 53bc 863d
00000150: cfac 8d3b 2ae5 1b3e 0a14 333c 69f3 863d
00000160: 0888 993d faa8 88bd 487c c63b 399f 633d
00000170: 8330 053e be9a ac3d 025d 17be bcb4 fcbc
00000180: c22d 393c ae4a 293e ad27 8cbc fbec 1d3d
00000190: 43b2 793d aaed 85be 26d8 883e 72ee 3b3d
000001a0: a4ce a4bd 38bd 8bbd 38fe 5fbd a8b0 903d
000001b0: 1f6b 973d 49e7 4ebe 31d2 04b8 468b b73d
000001c0: d60e 193e e8df 3c3e 1238 d7bd 9697 b53c
000001d0: 24f5 3fbd 7afa 1a3c 8e13 7c3d bd8d 593d
000001e0: 0adb 48bd 94a3 103e e848 08bd 64fd ab3d
000001f0: f547 c33d 1a6e 3b3d 1ee8 dbbc 158b da3c
00000200: 4aaf fdbd 660b dd3d 0ce6 8c3b 1ff4 91bd
00000210: e705 b9bb 50d3 96bc 6ea1 c23d 3e6f 3dbe
00000220: fa46 e63c df8d 8d3c aacb c5bd 61c2 e73d
00000230: 4bc3 423d b94f 2c3d 7237 3f3d 9960 b7bd
00000240: 9a19 a53d 37e4 bdbe 4e34 623d b5d9 c2bd
00000250: eec8 59bd 9d4e 3fbe 9bb9 1cbc c8af 333d
00000260: dee8 fbbd e079 56bd ce8e e63d 97ba 813d
00000270: e2af bcbd 0950 0ebd 5864 f23c 3e02 843c
00000280: e1c0 22bd b933 35be ad3c da3c 71e0 273b
00000290: 17ef 3ebd 58c8 f3bc 142d d13c 10da 583c
000002a0: f722 c2bb 19ae 47bd e12e c6bd 41de fabc
000002b0: 7583 803d 078d e13c 699c 2abe cc60 46bd
000002c0: 26a2 e6ba 1c10 9d3c c74e c0bc 0e0d fdbd
000002d0: d5aa 45bd d612 3dbc 32d8 07be e118 cdbc
000002e0: b164 d8bd b914 2b3d 993f 083d d097 303d
000002f0: 86ed cabd f8aa 9dbd 4227 b5bb 9903 de3d
00000300: ae4d 0e3d 5c06 51bc f6a6 003e 93fb 36bd
00000310: af62 5cbd a201 9cbd ee8b 873a d6b9 ffbd
00000320: 1a09 97bd eb19 aeba c2ad b5bd 02a9 09be
00000330: 6fa5 4ebe 22e1 6b3d ca98 a5bd 3dac d8bc
00000340: 84a0 dcbc a2a1 2abc aab0 04be 640f c3bd
00000350: a965 fd3c 0176 d53b 65cb b0bd b9c4 75be
00000360: 9efc d63d 0659 dd3d d581 023e 79ed e33c
00000370: 4e7a 1bbd 1f5f 49bd 1eea 04be 5c71 8f3d
00000380: 6268 ddbd 65d0 85bd df95 cebd 2536 7e39
00000390: c0c4 c33d ed06 dcbd f69a 323d dc72 28bc
000003a0: b723 903c 85fa 4abe 20cc e1bc 1061 8abb
000003b0: 6e4f 7dbc f699 4dbe 76d2 1a3d 1f4c c7bc
000003c0: 6331 08be a976 9cbd b9f8 50be 7c4d 2fbd
000003d0: b07e 01bd 79d5 78bd 9bc1 60bd 6b5c 80bb
000003e0: 03a8 b4bd 0877 3ebe 1fd6 7e3d 46a4 a0bc
000003f0: 3840 a5bd 1d08 b1bc e6b0 d0bd 3707 79bd

ob_encoder.2.bias f4 [16]
-0.025843771 0.08824243 -0.10512201 0.06322075 0.0031955468 0.08890735 0.17968333 0.21251847
-0.11350744 -0.07309159 -0.1535139 0.18085377 -0.062521465 0.15994972 -0.068951726 -0.11431694
00000000: 51b6 d3bc 72b8 b43d 354a d7bd e179 813d
00000010: 616c 513b 0f15 b63d e8fe 373e 719e 593e
00000020: 9776 e8bd 0bb1 95bd bf32 1dbe bb31 393e
00000030: 410b 80bd dcc9 233e 9036 8dbd 001f eabd

ob_encoder.4.weight f4 [2, 16]
0.09727239 -0.2716887 0.05024845 -0.031852335 -0.18822607 -0.12461771 0.371732 0.28497288
0.040682938 -0.04779926 0.043449912 0.21558762 0.17020118 0.11297631 -0.06670812 -0.11639878
0.18969437 -0.23474333 0.101131685 -0.0781984 0.18183032 -0.22262178 0.17746909 -0.07434952
0.020095812 0.218249 0.1519743 -0.110246584 -0.0860715 -0.08936477 0.24658318 0.2524724
00000000: bf36 c73d c81a 8bbe 52d1 4d3d 9877 02bd
00000010: 56be 40be 9237 ffbd a853 be3e f7e7 913e
00000020: 27a3 263d 28c9 43bd 89f8 313d 00c3 5c3e
00000030: 3849 2e3e 2060 e73d 449e 88bd 7c62 eebd
00000040: 3e3f 423e 8e60 70be 211e cf3d 7c26 a0bd
00000050: ba31 3a3e f7f6 63be 75ba 353e 9044 98bd
00000060: f99f a43c aa7c 5f3e 279f 1b3e f6c8 e1bd
00000070: 4146 b0bd e004 b7bd 4d80 7c3e 1044 813e

ob_encoder.4.bias f4 [2]
0.1640091 -0.13047753
00000000: 00f2 273e e79b 05be

ob_decoder.0.weight f4 [64, 1000]
-0.042627838 -0.042744927 -0.027905367 0.044873573 -0.018196872 0.031052446 0.08485991 -0.068868935
0.045930035 0.039157987 0.03916814 -0.056861565 -0.0434729 0.067103684 -0.014916099 0.008167049
-0.055983577 0.009757683 -0.04306981 -0.021820094 -0.04195774 -0.051788848 -0.0020552168 -0.044510603
0.024420787 -0.0069409674 0.09610963 0.036995158 -0.0025727018 0.021270417 0.04875918 0.01417197
0.028215216 0.014638117 -0.054852117 0.0440546 -0.0098735625 -0.02613252 0.015205222 -0.049645156
0.086716786 0.016884979 0.04767554 0.030031597 0.02168531 0.05660396 0.03472576 0.09223788
0.01552133 0.077883385 -0.07905389 -0.04906036 -0.05624917 0.048026334 0.056146666 -0.048228577
0.029181546 -0.08607522 0.049638495 0.089555986 -0.026598487 0.0116249425 -0.012109923 0.061567016
0.0016597932 -0.0024675233 -0.07993761 -0.056895174 -0.08551628 -0.036019538 0.01124685 -0.033030014
0.019185722 -0.041308768 0.07263063 0.01781464 0.0629893 0.08046605 0.033542644 -0.019732619
-0.035129115 0.018920675 -0.07894846 -0.013814264 -0.0389041 -0.018137204 0.004698566 -0.010057397
-0.014135092 -0.03559684 0.054505162 0.091919854 -0.0028748012 0.04399183 0.06853844 0.058678918
-0.019522186 0.0128088165 -0.07594111 -0.019713966 -0.030354695 -0.06219127 -0.030246427 -0.0074635954
0.08192066 0.032281946 0.02385053 -0.031242622 -0.027890276 -0.03046517 -0.018940492 0.0059883688
-0.03750372 0.072015 -0.057173852 -0.028467476 -0.00014194321 -0.051119033 0.08646239 0.016377015
0.086344935 0.017972011 0.034705628 -0.03854706 -0.04642986 -0.030971192 -0.0808851 0.080993116
0.020423595 -0.036227915 0.041609433 0.052854203 0.06357598 0.024328329 0.014894374 0.105142064
-0.055260204 0.045891084 -0.06627966 0.015935648 -0.03414267 -0.041030772 0.0037978587 -0.027153881
0.0035112032 0.005955359 0.015159092 -0.010389128 0.033092547 -0.031782392 -0.0005897944 -0.0044927197
-0.0402836 0.005987202 -0.0061310884 -0.026827784 -0.011900354 -0.046379846 0.03637165 -0.101002954
0.05528478 -0.0099719465 0.03594554 -0.00031077876 0.06486282 0.042342227 -0.05727602 -0.0076166005
0.01770913 -0.047578808 0.024650892 -0.081292324 -0.03726628 -0.042818204 -0.019119335 -0.05639008
0.0508752 -0.024279049 0.021554286 -0.12362826 0.01280139 0.028454196 0.04122805 0.055042032
0.034951076 0.05866326 -0.050376337 0.01871136 0.031267468 0.04871102 -0.033293422 -0.04202989
0.0028845535 -0.018383827 0.009154293 0.003935103 0.050152797 0.0047911066 -0.029281462 0.05098592
0.025803197 0.05403889 0.009033829 0.05542247 -0.020492395 -0.009409808 -0.012259745 -0.05814827
-0.015045209 -0.042319696 0.06743846 -0.026986789 -0.0014271318 0.007350801 0.06381507 -0.029789727
0.015370659 -0.023088157 -0.045160882 0.0071964688 -0.004189962 0.016801167 0.04767984 -0.03180472
0.063912325 0.016390167 0.026960691 -0.03860448 0.030370949 0.014162832 -0.032978665 -0.019804042
-0.036823783 0.04062811 -0.006374035 0.00072917895 0.013556609 0.073841535 -0.009125194 -0.0029577813
0.042371932 0.059929866 0.013546812 -0.0024752042 0.017024793 -0.048044182 -0.0022694585 -0.02106006
0.017946795 0.0047310027 0.011222988 -0.012646084 0.0040023304 -5.889038e-05 -0.049783964 -0.0109467795
00000000: 879a 2ebd 4e15 2fbd cc99 e4bc 5acd 373d
00000010: 9b11 95bc b361 fe3c 08cb ad3d 280b 8dbd
00000020: 2221 3c3d 2064 203d c66e 203d ace7 68bd
00000030: a410 32bd a86d 893d a762 74bc 16cf 053c
00000040: 094f 65bd b0de 1f3c f869 30bd 0ec0 b2bc
00000050: e1db 2bbd 8b20 54bd d1b0 06bb c050 36bd
00000060: 1a0e c83c 0e71 e3bb 20d5 c43d 3c88 173d
00000070: c69a 28bb 4c3f ae3c b5b7 473d 8d31 683c
00000080: 9923 e73c b6d4 6f3c 9dac 60bd 9972 343d
00000090: b9c4 21bc de13 d6bc 531f 793c b858 4bbd
000000a0: 9298 b13d 5e52 8a3c 6d47 433d d304 f63c
000000b0: 64a5 b13c 8ed9 673d 993c 0e3d 37e7 bc3d
000000c0: 2d4d 7e3c 5381 9f3d 02e7 a1bd 84f3 48bd
000000d0: 8865 66bd 43b7 443d 0cfa 653d 548b 45bd
000000e0: 230e ef3c 3448 b0bd bc51 4b3d 2169 b73d
000000f0: 12e5 d9bc 8b76 3e3c b368 46bc b22d 7c3d
00000100: 6b8d d93a 2cb6 21bb 54b6 a3bd ea0a 69bd
00000110: 2923 afbd 3989 13bd b544 383c 7b4a 07bd
00000120: 602b 9d3c 6233 29bd 5ebf 943d 02f0 913c
00000130: 8900 813d 62cb a43d 0364 093d 4da6 a1bc
00000140: 8ce3 0fbd 88ff 9a3c bbaf a1bd 3955 62bc
00000150: e859 1fbd 7994 94bc 6ef6 993b c8c7 24bc
00000160: df96 67bc fecd 11bd ce40 5f3d 7a40 bc3d
00000170: 2967 3cbb c730 343d e25d 8c3d 4e59 703d
00000180: feec 9fbc 12dc 513c 0387 9bbd 2f7f a1bc
00000190: 69aa f8bc 46bc 7ebd 5bc7 f7bc 2d91 f4bb
000001a0: 05c6 a73d 133a 043d 3062 c33c 87f0 ffbc
000001b0: 267a e4bc 1892 f9bc 1729 9bbc 143a c43b
000001c0: 809d 19bd 9a7c 933d 212f 6abd a034 e9bc
000001d0: 97d6 14b9 3162 51bd 3213 b13d 1729 863c
000001e0: 9dd5 b03d 0a3a 933c 7d27 0e3d 86e3 1dbd
000001f0: 3d2d 3ebd 4cb7 fdbc 16a7 a5bd b8df a53d
00000200: 624f a73c b963 14bd a76e 2a3d a67d 583d
00000210: 2034 823d 344c c73c 8807 743c b954 d73d
00000220: 8658 62bd 4af8 3b3d a1bd 87bd 7a8b 823c
00000230: 2fd9 0bbd e20f 28bd 7fe5 783b d171 debc
00000240: 371c 663b 2c25 c33b d75d 783c 2937 2abc
00000250: 0d8c 073d 412e 02bd 6f9c 1aba aa37 93bb
00000260: 6b00 25bd 4a30 c43b 4ce7 c8bb f1c5 dbbc
00000270: b4f9 42bc cbf8 3dbd 70fa 143d a3da cebd
00000280: 4b72 623d 6061 23bc a13b 133d 05f0 a2b9
00000290: ccd6 843d 0b6f 2d3d 439a 6abd ad94 f9bb
000002a0: bd12 913c ffe1 42bd abf0 c93c 977c a6bd
000002b0: 87a4 18bd 2462 2fbd 27a0 9cbc 49f9 66bd
000002c0: 8462 503d dbe4 c6bc 9d92 b03c d030 fdbd
000002d0: ecbc 513c c618 e93c bede 283d c173 613d
000002e0: dc28 0f3d e348 703d 6b57 4ebd 9148 993c
000002f0: 5112 003d 3585 473d af5e 08bd 8927 2cbd
00000300: c70a 3d3b ae99 96bc e3fb 153c 09f2 803b
00000310: 056d 4d3d b7fe 9c3b addf efbc 9dd6 503d
00000320: 3a61 d33c e257 5d3d a002 143c ac02 633d
00000330: abdf a7bc 982b 1abc 19dd 48bc e12c 6ebd
00000340: 2e80 76bc 6b57 2dbd 2d1d 8a3d 6613 ddbc
00000350: 990e bbba fdde f03b 7ab1 823d 9609 f4bc
00000360: 37d5 7b3c 6023 bdbc 9efa 38bd 5bd0 eb3b
00000370: f34b 89bb 9aa2 893c f04b 433d ab45 02bd
00000380: 77e4 823d ac44 863c abdc dc3c bb1f 1ebd
00000390: 7fcc f83c 390b 683c a314 07bd 163c a2bc
000003a0: 89d4 16bd a969 263d 48dd d0bb 5f26 3f3a
000003b0: 8a1c 5e3c 3b3a 973d d681 15bc 56d7 41bb
000003c0: 318e 2d3d 0579 753d 73f3 5d3c 0937 22bb
000003d0: 9477 8b3c fac9 44bd 32bb 14bb 2686 acbc
000003e0: 2805 933c 8706 9b3b a0e0 373c 8531 4fbc
000003f0: fb25 833b 1001 77b8 45ea 4bbd 1f5a 33bc

ob_decoder.0.bias f4 [64]
0.1302376 0.03839911 0.16150703 0.124552086 0.14221947 0.021369742 0.15658088 0.24359132
0.34057313 0.16649045 -0.30411664 0.03205816 0.17403418 -0.057818625 -0.13459006 0.020765599
0.15533526 -0.18995333 0.21503516 0.060897443 0.16425763 0.324854 0.08555485 0.1398707
0.18026713 0.013543708 0.14473714 0.32632264 -0.38846555 -0.20680256 0.27095526 0.17898902
-0.09165092 0.24039586 0.06134002 0.049836546 0.04417105 0.07848005 0.2621993 0.052763212
0.0671398 0.21884966 0.10165045 0.22765848 0.2732542 -0.017887639 0.23004484 0.02580248
0.20351978 0.1754491 0.24363375 0.12654032 0.11856071 0.07135405 0.197467 0.010691554
-0.09817469 0.122483656 0.35419595 -0.17379725 -0.28427455 0.050982393 0.06889156 0.17284156
00000000: 015d 053e 6348 1d3d 1962 253e 2a15 ff3d
00000010: fba1 113e 990f af3c bd56 203e 0170 793e
00000020: 9a5f ae3e 797c 2a3e 2db5 9bbe 6b4f 033d
00000030: 0436 323e 39d3 6cbd fad1 09be 9e1c aa3c
00000040: 3510 1f3e 2083 42be 2d32 5c3e 996f 793d
00000050: 2733 283e 4353 a63e 6237 af3d 443a 0f3e
00000060: f297 383e 6ee6 5d3c f935 143e c313 a73e
00000070: f5e4 c6be 0dc4 53be a6ba 8a3e e648 373e
00000080: 7ab3 bbbd 552a 763e ac3f 7b3d 6821 4c3d
00000090: b4ec 343d 26ba a03d fd3e 863e 3d1e 583d
000000a0: 9780 893d 201a 603e 1c2e d03d 4e1f 693e
000000b0: f9e7 8b3e 1989 92bc e090 6b3e b95f d33c
000000c0: 7d67 503e eea8 333e 207b 793e c993 013e
000000d0: f5cf f23d 1222 923d ca34 4a3e a12b 2f3c
000000e0: d00f c9bd b6d8 fa3d 2c59 b53e e8f7 31be
000000f0: 6f8c 91be ead2 503d 0517 8d3d 61fd 303e

ob_decoder.2.weight f4 [16, 64]
-0.002247676 -0.028891707 0.06629869 0.04687938 -0.12893385 0.045802925 -0.07142993 0.10272983
-0.035323452 -0.013271327 -0.00013415732 -0.11930919 -0.08641662 -0.04910733 -0.07681294 0.017802823
0.015950318 0.07731804 -0.04320889 0.10843012 -0.062967665 -0.14489089 0.07178522 0.0506916
0.013663161 -0.020386994 0.06003346 -0.017502517 0.08080314 0.024125367 -0.122885495 0.0681021
0.08292559 -0.07576082 -0.074200265 0.0913079 -0.12413038 -0.03544875 -0.11945262 0.03201754
-0.056885183 -0.0523699 0.09296629 -0.047258124 -0.016376004 0.05298091 -0.02921483 -0.048900742
0.0762261 -0.09490188 0.06841364 0.04214656 -0.0508182 -0.029438682 0.048062216 -0.023958355
-0.043197177 -0.07353555 -0.017709753 0.07909099 -0.10506973 0.09000745 0.06697967 0.088374995
0.03717707 -0.10297966 -0.123172544 -0.07213352 -0.058063984 0.020126088 -0.01731316 -0.09561925
0.064914 0.088812694 0.07246538 0.11314582 -0.06552953 -0.098376125 0.08152537 -0.10552608
0.007838544 0.07374601 0.0038392209 0.027389515 -0.015347006 -0.14118008 -0.062441785 0.0028284725
-0.06840036 -0.08050724 -0.0399021 -0.15111549 0.090150975 -0.041893423 0.040282227 -0.034162596
0.004871083 -0.12202115 -0.084715486 -0.0956029 -0.038533002 -0.112698235 0.047223806 -0.042900387
-0.085502386 0.07817013 0.053508285 -0.041796375 0.006433006 0.033241507 0.08416609 -0.124834694
0.07340024 0.026283652 0.0004763297 -0.03731474 0.030421779 -0.055167273 0.06683567 0.06173427
0.009659418 0.081006184 0.07074768 -0.12583907 0.08788309 -0.12680866 0.07840491 0.04272598
-0.05172488 -0.14602396 0.051097 -0.14549361 -0.0720185 -0.011204145 0.024201088 0.08952313
0.052027617 0.059246764 0.08926002 0.035074092 -0.06328428 -0.09782787 -0.066448 -0.014065012
-0.13977732 -0.032403365 0.016168658 -0.01452301 -0.1465464 0.040482514 0.07554348 -0.08536678
0.0033864419 -0.10518663 0.046207048 -0.076363996 -0.0048479466 -0.012758502 -0.12554936 -0.16546303
0.061749455 0.042109147 -0.14151706 -0.12486576 -0.073421314 0.05311782 0.041025043 -0.06141008
-0.030688971 0.019890552 -0.06685957 -0.110221624 0.07904854 -0.024965126 -0.0010637612 -0.043539368
-0.11806662 -0.048532862 -0.010245331 -0.088148735 -0.013977758 -0.00240227 0.04961417 -0.089834474
-0.07019226 0.072435915 0.034229286 -0.13037457 0.0074864156 -0.03098082 0.010970684 -0.05670722
-0.02918042 -0.10377734 0.04009698 -0.0007296459 0.0012312598 -0.13806635 -0.027190797 -0.18300883
-0.031135822 -0.08349291 -0.40289146 -0.065400064 -0.28329936 -0.101903185 -0.11313061 0.0049888296
-0.032306105 0.007831693 -0.030166665 -0.38440108 -0.10329817 0.07358787 0.03771669 -0.14479885
0.06414646 -0.06286631 0.12732641 0.042546365 -0.30100438 0.09316177 0.044104323 -0.12539156
-0.090540096 0.09043245 0.052975323 -0.075402625 -0.11280409 0.0027587407 -0.036274225 -0.09591272
0.0794327 -0.029348707 0.0023605959 0.03427661 0.040630843 -0.03031462 -0.0050371303 -0.06592499
-0.20908149 -0.053354006 -0.017363248 0.0054902 0.02475213 0.08470543 0.02350792 0.0676246
-0.28285524 -0.12441553 0.13126983 0.106407985 -0.008677975 0.039604817 0.13996872 0.013428594
00000000: bf4d 13bb 4dae ecbc 9cc7 873d 9804 403d
00000010: 3c07 04be d99b 3b3d db49 92bd 0464 d23d
00000020: 53af 10bd fb6f 59bc 95ac 0cb9 6058 f4bd
00000030: 32fb b0bd c524 49bd 1a50 9dbd 3ad7 913c
00000040: 3eaa 823c ec58 9e3d cefb 30bd 9c10 de3d
00000050: 31f5 80bd 475e 14be 2104 933d ffa1 4f3d
00000060: 73db 5f3c a002 a7bc a5e5 753d 7061 8fbc
00000070: 1e7c a53d 90a2 c53c 64ab fbbd 1d79 8b3d
00000080: e4d4 a93d 7d28 9bbd 4ff6 97bd a3ff ba3d
00000090: 1238 febd b532 11bd 93a3 f4bd d324 033d
000000a0: 7000 69bd d281 56bd 1c65 be3d bc91 41bd
000000b0: f826 86bc 8302 593d f053 efbc 254c 48bd
000000c0: 6e1c 9c3d eb5b c2bd 731c 8c3d dfa1 2c3d
000000d0: bf26 50bd 6429 f1bc e3dc 443d 5044 c4bc
000000e0: 86ef 30bd ce99 96bd 0b14 91bc 75fa a13d
000000f0: cc2e d7bd d355 b83d a32c 893d f3fd b43d
00000100: fc46 183d 00e7 d2bd e341 fcbd bdba 93bd
00000110: 80d4 6dbd 77df a43c 54d4 8dbc 06d4 c3bd
00000120: a2f1 843d 6ee3 b53d bb68 943d ffb8 e73d
00000130: 5934 86bd 6c79 c9bd c6f6 a63d 0f1e d8bd
00000140: 3d6d 003c 2608 973d 709b 7b3b fa5f e03c
00000150: 0272 7bbc 8391 10be f5c2 7fbd e55d 393b
00000160: 7d15 8cbd fbe0 a4bd 6270 23bd 05be 1abe
00000170: 13a1 b83d 7098 2bbd fafe 243d 14ee 0bbd
00000180: 9b9d 9f3b 3ae6 f9bd 507f adbd 74cb c3bd
00000190: c8d4 1dbd 55ce e6bd c06d 413d 51b8 2fbd
000001a0: e01b afbd a917 a03d 812b 5b3d ad32 2bbd
000001b0: f7cb d23b 3f28 083d 455f ac3d 55a9 ffbd
000001c0: dd52 963d d050 d73c e4bb f939 57d7 18bd
000001d0: 1837 f93c 14f7 61bd 24e1 883d 13dd 7c3d
000001e0: 8942 1e3c 92e6 a53d 29e4 903d f5db 00be
000001f0: 0dfc b33d 21da 01be c192 a03d 7001 2f3d
00000200: 78dd 53bd 4e87 15be 164b 513d 47fc 14be
00000210: 6f7e 93bd 9791 37bc 5c41 c63c e757 b73d
00000220: e91a 553d bcac 723d f5cd b63d daa9 0f3d
00000230: 309b 81bd fa59 c8bd e415 88bd f070 66bc
00000240: c921 0fbe 64b9 04bd 2274 843c ebf1 6dbc
00000250: 4210 16be fed0 253d 8ab6 9a3d c7d4 aebd
00000260: 11ef 5d3b 166c d7bd 9a43 3d3d ba64 9cbd
00000270: 86db 9ebb 0909 51bc 0390 00be 246f 29be
00000280: ffec 7c3d a47a 2c3d d9e9 10be 9fb9 ffbd
00000290: ea5d 96bd 1292 593d e009 283d 2389 7bbd
000002a0: 7067 fbbc 83f1 a23c aced 88bd e0bb e1bd
000002b0: 33e4 a13d aa83 ccbc e76d 8bba 5656 32bd
000002c0: e9cc f1bd 65ca 46bd 08dc 27bc 5387 b4bd
000002d0: f702 65bc 676f 1dbb 3a38 4b3d 23fb b7bd
000002e0: f6c0 8fbd 4859 943d 0234 0c3d e980 05be
000002f0: 9b50 f53b 7dcb fdbc 62be 333c d445 68bd
00000300: c70b efbc 3789 d4bd bb3c 243d b545 3fba
00000310: 3962 a13a 4461 0dbe 3cbf debc ab66 3bbe
00000320: 8d10 ffbc 55fe aabd ca47 cebe 78f0 85bd
00000330: 9d0c 91be 9eb2 d0bd 05b1 e7bd 5679 a33b
00000340: 6853 04bd 8050 003c 1520 f7bc 38d0 c4be
00000350: fe8d d3bd 3db5 963d d17c 1a3d 2646 14be
00000360: 385f 833d 0dc0 80bd db61 023e 1945 2e3d
00000370: 3f1d 9abe 99cb be3d bca6 343d a566 00be
00000380: 166d b9bd a634 b93d a7fc 583d b16c 9abd
00000390: d505 e7bd fdcb 343b 4894 14bd e36d c4bd
000003a0: 9dad a23d b36c f0bc 3ab4 1a3b a165 0c3d
000003b0: 876c 263d 5e56 f8bc 830e a5bb ae03 87bd
000003c0: 7519 56be bb89 5abd 5f3d 8ebc 23e7 b33b
000003d0: fbc4 ca3c 0a7a ad3d ae93 c03c c47e 8a3d
000003e0: 67d2 90be 92cd febd 996b 063e 6eec d93d
000003f0: 112e 0ebc a938 223d f653 0f3e 9b03 5c3c

ob_decoder.2.bias f4 [16]
-0.13734944 -0.14063586 0.013697392 0.26681748 0.22136122 0.33316186 0.33963636 -0.08652115
-0.14979364 0.26325858 0.31456771 -0.12984748 0.23785052 -0.14629461 0.3137401 0.27231672
00000000: 55a5 0cbe d902 10be 076b 603c 4d9c 883e
00000010: 84ac 623e 3194 aa3e d1e4 ad3e 0032 b1bd
00000020: 8163 19be d4c9 863e 050f a13e bdf6 04be
00000030: 168f 733e 41ce 15be 8ba2 a03e 196d 8b3e

ob_decoder.4.weight f4 [2, 16]
-0.109416716 -0.10098003 0.15471798 -0.10477255 -0.16116656 0.009496191 -0.009469299 0.08971303
-0.24330823 0.15369307 0.2179217 -0.0920173 0.18167108 0.08814473 0.13913436 0.07471613
0.19043235 0.12300459 -0.08642272 -0.00023716422 -0.07868235 -0.14125156 0.21172245 0.14177956
0.19481128 0.07297824 0.26892835 0.047235444 0.0808038 0.19770457 0.274585 -0.20287433
00000000: df15 e0bd 9ece cebd 646e 1e3e fe92 d6bd
00000010: d908 25be e995 1b3c 1e25 1bbc 77bb b73d
00000020: cb25 79be b761 1d3e de26 5f3e 9173 bcbd
00000030: fc07 3a3e 3985 b43d 3d79 0e3e c504 993d
00000040: b300 433e d5e9 fb3d 65fe b0bd 49af 78b9
00000050: 3624 a1bd 40a4 10be c5cd 583e a92e 113e
00000060: 9c7c 473e 9e75 953d fab0 893e f479 413d
00000070: 767c a53d 1173 4a3e 6896 8c3e 4abe 4fbe

ob_decoder.4.bias f4 [2]
-0.26584268 -0.13251738
00000000: 881c 88be a3b2 07be

encoder.0.weight f4 [8, 4]
0.4599928 -0.20581563 -0.22651395 0.44110554 -0.44756654 -0.42753544 -0.10673994 0.12154452
-0.1664634 0.35482386 0.4184566 0.05689364 -0.2935914 0.46736738 0.10682532 0.29210997
0.12656978 0.2527332 0.25148162 0.17148113 -0.46220985 -0.42842627 0.073988296 0.038839184
0.5330296 0.047933657 0.32201672 -0.3396427 0.6337048 -0.021808214 0.6779074 -0.65210295
00000000: 2d84 eb3e 55c1 52be 46f3 67be 96d8 e13e
00000010: 7127 e5be ede5 dabe 789a dabd 55ec f83d
00000020: 6275 2abe 79ab b53e f23f d63e 4e09 693d
00000030: 9d51 96be c74a ef3e 3cc7 da3d 708f 953e
00000040: 829b 013e 3f66 813e 33c2 803e c098 2f3e
00000050: c5a6 ecbe b05a dbbe 2d87 973d d615 1f3d
00000060: a174 083f 1556 443d 60df a43e a6e5 adbe
00000070: 7a3a 223f 24a7 b2bc 578b 2d3f 38f0 26bf

encoder.0.bias f4 [8]
0.08772828 -0.38127416 0.21060516 -0.16404334 0.33584407 -0.35862303 0.08318357 0.17009723
00000000: e2aa b33d 5e36 c3be e1a8 573e fafa 27be
00000010: c1f3 ab3e 709d b7be 265c aa3d f82d 2e3e

encoder.2.weight f4 [2, 8]
0.16148576 0.14351603 -0.30219066 -0.104855925 0.31483513 0.09361292 -0.03322257 -0.47005898
0.37395683 0.301199 -0.24321884 0.24815108 0.043778468 -0.14957137 -0.3880824 -0.08377182
00000000: 865c 253e def5 123e bcb8 9abe b4be d6bd
00000010: 1232 a13e 21b8 bf3d 6414 08bd 92ab f0be
00000020: 4577 bf3e c136 9a3e 5c0e 79be 511b 7e3e
00000030: 0d51 333d 3d29 19be bdb2 c6be 8f90 abbd

encoder.2.bias f4 [2]
0.036978543 0.010704976
00000000: d076 173d ec63 2f3c

decoder.0.weight f4 [32, 130]
0.007797025 0.044955306 0.015956072 -0.042827006 0.007337507 -0.026650747 -0.015444841 0.014742445
-0.019890163 -0.021419385 0.04313763 -0.009720452 0.009220456 0.0030533203 -0.04046428 0.010249997
-0.027244877 -0.010433689 0.06365332 -0.0024923196 0.033630867 0.033082772 -0.10687782 -0.01260501
-0.059159286 0.018144842 0.05463059 0.016712815 0.025695905 -0.01625593 0.011809214 -0.011196132
0.0033922854 0.042779073 0.044540405 -0.025481768 0.017067662 -0.016723346 -0.024119684 0.01636886
-0.01794408 0.014133647 -0.02398407 -0.075892925 0.042165462 -0.02134686 -0.075827 0.007615179
-0.026760425 0.00014373932 0.07094823 0.017130872 -0.027519343 0.052124135 -0.022772856 -0.03335473
0.015843313 -0.039096918 0.056030698 0.02568837 0.024341762 0.021533586 -0.030713143 0.055748146
-0.042824563 0.0101129515 0.025843538 0.0033994608 0.077001184 0.018767143 -0.008876205 0.01921687
-0.0829924 0.005358906 -0.039508346 -0.017188588 0.01626695 0.024016276 0.029436864 -0.02638118
-0.028860321 0.028049914 -0.063170396 0.012022157 -0.0057004984 -0.01442064 0.046473667 -0.030610401
-0.093232624 -0.0024712533 -0.050083872 0.057626862 0.01664568 -0.02648807 0.003672325 0.027553517
-0.10700531 0.04776801 0.023473883 -0.007107289 0.07503202 -0.049198058 0.03641418 -0.02377162
-0.057069853 -0.003865547 -0.010930219 0.030233495 0.04211332 0.029726896 0.008817154 0.026952714
-0.072817564 0.0052494043 -0.022036595 0.028557945 -0.0060704886 -0.014350529 0.08581074 -0.039629597
-0.062116373 -0.023439676 -0.02587668 0.024558285 0.047011454 0.0067103403 -0.022194153 0.027526027
0.18877229 0.29719076 -0.028536383 0.051968813 0.08892733 0.22804417 0.13605301 -0.052231994
-0.14020155 -0.21427752 -0.02609869 0.05393284 0.1646489 0.14417876 0.09625526 -0.018357597
-0.27123475 -0.28486866 -0.046042405 0.06733267 0.20648265 0.2535792 0.046973784 -0.041250303
-0.1935528 -0.24178615 -0.05212724 0.06006405 0.12881564 0.20824525 0.0443648 -0.0103491265
-0.20096175 -0.2087791 -0.12508386 -0.039995197 0.12463329 0.27560782 0.111949556 -0.0075371056
-0.12589863 -0.27833265 -0.053367056 0.038352326 0.19206947 0.17714031 0.07054129 -0.0057909284
-0.1420346 -0.17733511 -0.1155378 0.029319007 0.13543318 0.23363443 0.114054315 -0.111902244
-0.14666629 -0.19757146 -0.008642907 0.032991726 0.1680803 0.25295293 0.1144114 -0.13654895
-0.07732005 -0.20040716 -0.18539475 -0.19472325 -0.09391223 0.010243207 0.12942348 0.2707343
0.094386086 -0.15895896 -0.15581731 -0.19601339 -0.07839233 0.059078302 0.16426885 0.22968957
0.08465256 -0.056585174 -0.118664935 -0.14504611 -0.014522592 0.00086183136 0.19114843 0.3057071
0.087435625 -0.03783574 -0.11586443 -0.19612454 -0.071436 -0.009292819 0.14639892 0.12790187
0.08089677 -0.042628378 -0.07548798 -0.21315147 -0.08010021 0.03803149 0.16584338 0.21839975
0.1154202 -0.013335478 -0.21376602 -0.23958386 -0.050157346 0.019630058 0.16973503 0.1711151
0.18544674 -0.117630064 -0.19117162 -0.20711163 -0.07612271 0.06470884 0.1266755 0.22847502
0.06738104 -0.0951443 -0.15446469 -0.25654507 -0.07167102 -0.032216594 0.05597708 0.2140813
00000000: 307e ff3b 0e23 383d 4fb6 823c 5f6b 2fbd
00000010: 786f f03b ab52 dabc 5c0c 7dbc 4c8a 713c
00000020: b2f0 a2bc b577 afbc 15b1 303d 8842 1fbc
00000030: 6511 173c 371a 483b dfbd 25bd 9aef 273c
00000040: a630 dfbc 10f2 2abc ac5c 823d 2f56 23bb
00000050: 85c0 093d cd81 073d c2e2 dabd 3e85 4ebc
00000060: 0251 72bd 7ea4 943c 53c4 5f3d 50e9 883c
00000070: 3880 d23c 282b 85bc 6f7b 413c fb6f 37bc
00000080: 1b51 5e3b 1c39 2f3d 0070 363d 24bf d0bc
00000090: 7bd1 8b3c 66ff 88bc a596 c5bc fd17 863c
000000a0: 77ff 92bc d090 673c 3e7a c4bc c06d 9bbd
000000b0: b1b5 2c3d 9cdf aebc 304b 9bbd c088 f93b
000000c0: ae38 dbbc bbb8 1639 4e4d 913d 0b56 8c3c
000000d0: 3f70 e1bc 1e80 553d 248e babc f89e 08bd
000000e0: d6c9 813c 1724 20bd 7280 653d 6b70 d23c
000000f0: 6068 c73c 3467 b03c 219a fbbc 2b58 643d
00000100: cf68 2fbd cbb0 253c d4b5 d33c 7dc9 5e3b
00000110: ccb2 9d3d 8dbd 993c 816d 11bc b36c 9d3c
00000120: ebf7 a9bd c399 af3b 81d3 21bd 15cf 8cbc
00000130: 4442 853c c8bd c43c 9425 f13c 581d d8bc
00000140: 7b6c ecbc efc8 e53c 7b5f 81bd 95f8 443c
00000150: 3fcb babb 8c44 6cbc 2c5b 3e3d aac2 fabc
00000160: bff0 bebd c0f4 21bb bf24 4dbd 250a 6c3d
00000170: 855c 883c 82fd d8bc 64ab 703b eab7 e13c
00000180: 9a25 dbbd 64a8 433d 4d4c c03c 43e4 e8bb
00000190: 63aa 993d e783 49bd 0927 153d b3bc c2bc
000001a0: 14c2 69bd 1e55 7dbb a914 33bc 3cac f73c
000001b0: 047f 2c3d d285 f33c d375 103c f0cb dc3c
000001c0: 6021 95bd 3203 ac3b 1786 b4bc 5af2 e93c
000001d0: f3ea c6bb 7b1e 6bbc 8bbd af3d a552 22bd
000001e0: bd6d 7ebd 9004 c0bc 55fb d3bc 752e c93c
000001f0: 158f 403d 6ae2 db3b 83d0 b5bc 437e e13c
00000200: 864d 413e 6329 983e 22c5 e9bc 40dd 543d
00000210: 881f b63d 6984 693e 7b51 0b3e 37f1 55bd
00000220: ff90 0fbe 916b 5bbe eccc d5bc aee8 5c3d
00000230: b999 283e 99a3 133e 7a21 c53d ac62 96bc
00000240: 48df 8abe 4eda 91be f696 3cbd b6e5 893d
00000250: 3070 533e 22d5 813e 9567 403d 14f6 28bd
00000260: b532 46be ca96 77be 5f83 55bd b905 763d
00000270: 3fe8 033e 3e3e 553e ddb7 353d 628f 29bc
00000280: ebc8 4dbe 30ca 55be fc15 00be 01d2 23bd
00000290: bd3f ff3d 781c 8d3e cf45 e53d d3f9 f6bb
000002a0: 92eb 00be 9e81 8ebe 6a97 5abd 5417 1d3d
000002b0: dcad 443e 4564 353e f477 903d d4c1 bdbb
000002c0: 8571 11be 5697 35be 159f ecbd 6a2e f03c
000002d0: ffae 0a3e dd3d 6f3e 4f95 e93d 012d e5bd
000002e0: b02f 16be 2c50 4abe fb9a 0dbc 5522 073d
000002f0: 3e1d 2c3e 0c83 813e 8650 ea3d 7dd3 0bbe
00000300: f959 9ebd 8937 4dbe 1fd8 3dbe 8865 47be
00000310: 0e55 c0bd 20d3 273c 9787 043e b09d 8a3e
00000320: 7e4d c13d 23c6 22be 938e 1fbe bcb7 48be
00000330: 288c a0bd 17fc 713d 1836 283e be33 6b3e
00000340: 525e ad3d dbc5 67bd 9a06 f3bd f886 14be
00000350: 2af0 6dbc 86ec 613a 6abc 433e a485 9c3e
00000360: 7311 b33d a6f9 1abd 554a edbd dfd4 48be
00000370: 0a4d 92bd e840 18bc 99e9 153e b5f8 023e
00000380: 35ad a53d 189b 2ebd 7199 9abd 6144 5abe
00000390: 940b a4bd e8c6 1b3d d9d2 293e 2fa4 5f3e
000003a0: 6d61 ec3d 0c7d 5abc 7be5 5abe 7955 75be
000003b0: ca71 4dbd 37cf a03c 05cf 2d3e cc38 2f3e
000003c0: c0e5 3d3e 08e8 f0bd 7ec2 43be 1215 54be
000003d0: 39e6 9bbd 1186 843d 39b7 013e 5bf5 693e
000003e0: 12ff 893d 04db c2bd fe2b 1ebe e059 83be
000003f0: 41c8 92bd 8cf5 03bd 3948 653d 2138 5b3e

decoder.0.bias f4 [32]
0.118503444 0.16996051 0.1658858 -0.030169198 -0.09756162 0.350747 0.11909454 0.17708951
0.005128661 0.24370827 0.08036441 0.050145328 0.11539017 0.078305274 -0.09969309 -0.119576626
0.28830826 -0.07233012 -0.0042546648 0.31246942 -0.09625881 0.39289865 -0.07490473 0.007263335
-0.079865694 0.049109492 0.26894102 0.123456225 -0.19516544 0.0135699455 -0.09323572 -0.022017308
00000000: efb1 f23d 210a 2e3e f8dd 293e 6525 f7bc
00000010: 63ce c7bd 1c95 b33e d7e7 f33d f456 353e
00000020: 540e a83b a98e 793e 1996 a43d 3065 4d3d
00000030: ae51 ec3d 845e a03d e42b ccbd 97e4 f4bd
00000040: 249d 933e d021 94bd b76a 8bbb fefb 9f3e
00000050: 5723 c5bd 032a c93e a767 99bd 4501 ee3b
00000060: a090 a3bd 0927 493d a3b2 893e 9ed6 fc3d
00000070: 73d9 47be 7a54 5e3c 5ff2 bebd a45d b4bc

decoder.2.weight f4 [8, 32]
0.01318225 0.0945142 0.035877567 -0.2237394 -0.09130327 -0.18180686 -0.10387949 -0.12350277
0.12228577 -0.18016763 -0.084214665 -0.040273674 0.108627215 -0.13838205 -0.09836366 -0.04068436
-0.19864076 -0.09426277 0.12879531 -0.09991783 0.13599974 0.012965766 0.030900447 0.0098584825
-0.18341301 -0.1062044 -0.116034634 0.095920876 0.020885581 -0.14663947 0.12282552 -0.1867895
0.15033327 0.020431308 -0.10030426 0.1066439 -0.1258148 0.2606576 0.05912565 -0.17035623
-0.12551442 -0.091431156 0.22162205 0.017027263 0.17245616 0.07098358 0.15903094 0.07119184
0.19060695 -0.14565964 -0.2731124 0.15009934 -0.038024463 0.06848407 -0.12821563 -0.1366796
0.03202486 0.019379579 0.24671264 -0.055540267 -0.10752112 0.05848602 0.022382 -0.043957356
0.068193674 0.18891887 0.10050055 0.14546283 -0.122447886 0.097121544 0.09546108 -0.11093365
-0.5320907 0.11993097 -0.82819706 -0.6800169 0.33900547 -0.91902167 0.110932335 -0.046274908
0.2635124 -0.04263164 -0.18737313 0.027584141 -0.4904289 0.31880495 -0.05108189 -0.6662566
0.12354575 -0.7435532 0.42548612 0.24911167 -0.11834326 -0.9594585 -0.038406022 0.021606332
0.350107 0.2663207 0.36135906 0.11119637 -0.108907595 0.2887168 0.23199366 -0.1360155
0.059286684 0.22040673 0.13530765 0.1445818 -0.2231417 -0.08445461 0.057121173 -0.095284246
0.116523005 -0.041920602 0.13012205 0.33618787 0.62966275 0.26363447 0.14443958 0.12833115
0.015296344 0.03253559 0.021035653 0.21256495 0.08140129 -0.0358915 -0.024928318 -0.0046361177
0.22130786 -0.049909636 0.23380838 -0.13775888 0.08617918 0.11740055 0.12530982 0.05946985
-0.48125947 0.23751631 -0.56347936 -0.3881306 0.26630348 -0.5909837 0.11547193 0.12819928
0.03653756 -0.0047891093 -0.3024605 -0.18886544 -0.6910707 -0.046535723 -0.034649797 -0.32028645
-0.10294145 -0.38290754 0.23939113 0.21539359 0.07527865 -0.7299637 0.016053414 -0.26551127
-0.0660681 -0.022390723 -0.14884627 -0.020297902 -0.0521417 -0.19368482 -0.07973252 -0.059659116
0.07150487 -0.15085045 -0.12059583 0.14136286 -0.10853197 -0.013836832 0.09955827 -0.013492766
-0.19913097 0.115487546 -0.05419923 0.12554735 0.17448765 -0.020085368 -0.15674278 -0.12967958
-0.08906333 0.07405127 -0.097450994 0.16419542 -0.1466956 -0.074874885 -0.1280033 0.074075736
0.06512227 0.08264238 0.06637508 -0.06466541 -0.07316211 0.44620892 0.26582763 -2.041702
0.03219132 0.28883454 0.10799672 0.11832115 -0.5218338 0.11904337 0.04433254 -0.49269527
0.37401238 -0.05275997 0.093692504 0.20388618 -0.5066353 0.3411217 -0.1311466 0.069540374
-0.07579632 0.16442522 0.016406076 0.008456621 -0.31379348 -0.23638614 -0.08494777 0.029711463
-0.091157384 -0.24635945 -0.04846745 -0.18190324 -0.12076598 0.056330822 -0.018134113 -0.006762689
0.12572338 -0.22904041 -0.07483023 -0.12779404 0.049431138 -0.18250558 -0.014796957 -0.15501133
0.006116341 0.06482273 -0.027029159 0.057097528 0.08150166 -0.0921626 0.1434754 0.021096976
0.13806494 0.018707972 -0.038921196 0.009927683 -0.03779092 -0.0056904503 0.036408197 -0.022535913
00000000: 5dfa 573c a990 c13d 5bf4 123d f11b 65be
00000010: 35fd babd 942b 3abe c5be d4bd 05ef fcbd
00000020: f670 fa3d dd7d 38be bd78 acbd 02f6 24bd
00000030: f277 de3d 06b4 0dbe e372 c9bd a5a4 26bd
00000040: 7c68 4bbe d70c c1bd ebe2 033e b8a1 ccbd
00000050: 8443 0b3e 5d6e 543c ef22 fd3c 7985 213c
00000060: 9fd0 3bbe b181 d9bd 91a3 edbd 2a72 c43d
00000070: 3d18 ab3c a828 16be f28b fb3d bf45 3fbe
00000080: f7f0 193e 8f5f a73c 526c cdbd 1e68 da3d
00000090: 98d5 00be ea74 853e bd2d 723d dd71 2ebe
000000a0: da86 00be 4240 bbbd e4f0 623e c27c 8b3c
000000b0: 5998 303e d75f 913d 02d9 223e 07cd 913d
000000c0: 782e 433e cd27 15be 63d5 8bbe a4b3 193e
000000d0: 8abf 1bbd 6041 8c3d f54a 03be bdf5 0bbe
000000e0: 802c 033d ecc1 9e3c 3da2 7c3e 317e 63bd
000000f0: 0834 dcbd 098f 6f3d 755a b73c a10c 34bd
00000100: 20a9 8b3d f373 413e 3bd3 cd3d 35f4 143e
00000110: f5c5 fabd a9e7 c63d 1981 c33d 2e31 e3bd
00000120: 1937 08bf 5e9e f53d b904 54bf 9615 2ebf
00000130: 2092 ad3e 0145 6bbf 7e30 e33d c28a 3dbd
00000140: 19eb 863e 849e 2ebd bede 3fbe 23f8 e13c
00000150: 7f19 fbbe 673a a33e 3e3b 51bd cb8f 2abf
00000160: 8e05 fd3d 8159 3ebf 51d9 d93e 2117 7f3e
00000170: f35d f2bd 129f 75bf a24f 1dbd c3ff b03c
00000180: 3a41 b33e 305b 883e 0e04 b93e ecba e33d
00000190: f20a dfbd b0d2 933e bf8f 6d3e a647 0bbe
000001a0: 98d6 723d 4db2 613e 178e 0a3e 400d 143e
000001b0: 427f 64be 8af6 acbd e4f7 693d 6324 c3bd
000001c0: 9da3 ee3d f0b4 2bbd b73e 053e d120 ac3e
000001d0: 9431 213f 19fb 863e f8e7 133e 3e69 033e
000001e0: 849d 7a3c 0a44 053d f652 ac3c a0aa 593e
000001f0: b8b5 a63d f702 13bd 7936 ccbc 93ea 97bb
00000200: 879e 623e 0c6e 4cbd 776b 6f3e aa10 0dbe
00000210: b67e b03d b36f f03d 3851 003e a896 733d
00000220: a467 f6be 7a37 733e 2f40 10bf 0eb9 c6be
00000230: ee58 883e b54a 17bf 8c7c ec3d ac46 033e
00000240: 69a8 153d f6ed 9cbb 1adc 9abe f165 41be
00000250: 02ea 30bf 3e9c 3ebd f2ec 0dbd 96fc a3be
00000260: f8d2 d2bd 750c c4be f322 753e 2390 5c3e
00000270: b12b 9a3d e7de 3abf 7382 833c 18f1 87be
00000280: b64e 87bd c06c b7bc 286b 18be c947 a6bc
00000290: 8992 55bd 5055 46be ce4a a3bd 1e5d 74bd
000002a0: 2571 923d 8a78 1abe f2fa f6bd 6dc1 103e
000002b0: 0246 debd e1b3 62bc 35e5 cb3d c310 5dbc
000002c0: fde8 4bbe bc84 ec3d 0300 5ebd 7c8f 003e
000002d0: e4ac 323e 128a a4bc 2e81 20be b9ca 04be
000002e0: d666 b6bd 31a8 973d 6394 c7bd d822 283e
000002f0: 5f37 16be 0158 99bd 4c13 03be 05b5 973d
00000300: d35e 853d 6840 a93d a8ef 873d 4c6f 84bd
00000310: 04d6 95bd 7f75 e43e 8f1a 883e 3fab 02c0
00000320: 0cdb 033d 1fe2 933e 622d dd3d 5c52 f23d
00000330: e696 05bf 03cd f33d 0a96 353d 8e42 fcbe
00000340: 8d7e bf3e d71a 58bd dbe1 bf3d 8ac7 503e
00000350: dab2 01bf 81a7 ae3e 4b4b 06be 2f6b 8e3d
00000360: 1a3b 9bbd 165f 283e 0966 863c a48d 0a3c
00000370: 8aa9 a0be 350f 72be 19f9 adbd 7465 f33c
00000380: b9b0 babd a745 7cbe ce85 46bd d844 3abe
00000390: 2754 f7bd 26bb 663d fe8d 94bc 8c99 ddbb
000003a0: a1bd 003e 9289 6abe 9740 99bd 71dc 02be
000003b0: 4e78 4a3d bee2 3abe f06e 72bc 4abb 1ebe
000003c0: 966b c83b c8c1 843d 416c ddbc 19df 693d
000003d0: 58ea a63d bfbf bcbd 37eb 123e 91d3 ac3c
000003e0: e560 0d3e 7641 993c d56b 1fbd b8a7 223c
000003f0: a7ca 1abd f576 babb c320 153d 3c9d b8bc

decoder.2.bias f4 [8]
0.089223675 0.23481463 0.14722973 0.37012872 0.25471193 -0.17719203 0.23535672 -0.008265132
00000000: e7ba b63d 3f73 703e 64c3 163e 8381 bd3e
00000010: 9a69 823e d471 35be 5a01 713e 7a6a 07bc

decoder.4.weight f4 [2, 8]
-0.1265956 0.22740388 0.5934662 -0.12370285 0.61182415 -0.25573573 -0.2896695 -0.14853212
-0.26530313 0.33725622 -0.30586508 0.20135577 -0.45639697 0.1445103 0.60076886 -0.28617737
00000000: 47a2 01be 90dc 683e 67ed 173f eb57 fdbd
00000010: 82a0 1c3f cbef 82be 904f 94be ce18 18be
00000020: d0d5 87be d9ac ac3e 599a 9cbe 3530 4e3e
00000030: ddac e9be 82fa 133e fdcb 193f d785 92be

decoder.4.bias f4 [2]
0.24757044 0.12386016
00000000: 1b83 7d3e 65aa fd3d
