channelpara.ckpt (torch, 13703 bytes, 8 tensors)

transmitter.0.weight f4 [32, 8]
00000000: cb0d 6cbe c664 793e 794d a33e 2cb6 6bbe
00000010: 38a0 403e 97a0 23bd 7d7e 7ebd 5880 7e3e
00000020: 6abc 06be d338 2cbe 7289 c33e 93a4 85be
00000030: 6a00 ad3e 5d6e 4c3e 68a7 823e 781e 42be
00000040: 70e7 8b3c b904 543d a8c5 9e3d e6db ae3e
00000050: 08b7 8ebe 0b83 86bc 45d7 af3e 483d 2c3e
00000060: 3e8e 24be 0aad 8b3e 389d 823e f3cf 833e
00000070: ca92 67be e4ad 163e a513 843e eb1d 82be
00000080: 131c 9bbd 3d63 7c3c 3076 653d 9688 8c3e
00000090: 9254 983e 87d3 f23d 39ca fe3d 7d7e 943d
000000a0: d2f8 4bbe 181c 93be b663 92be 7780 7fbc
000000b0: bc24 82be 8c82 96be c0a4 2bbe 91e0 0b3d
000000c0: e6a7 403e 4155 64be a4f2 083e 4d67 893e
000000d0: 9f6f a03c 6f33 9dbd 3515 b73e 6aef b33e
000000e0: 4c71 34be 8e96 98be 9d90 ab3d f0fb 29be
000000f0: d117 edbd 68a7 45be b52a 11be 70a0 ba3d
00000100: 90d2 8dbe 09c4 df3d 363c 643e ed50 8d3d
00000110: 367c a1bd 57e8 22be 7718 47be 99d3 f1bd
00000120: 6d33 643e 0e53 59be a337 dcbd 00e6 75bd
00000130: 5fe0 7fbe 7486 b5be ca67 1ebe 15c6 0bbe
00000140: c498 333b cef1 2cbe 7e27 7bbe f349 ee3d
00000150: 913e 9abe c84b 70be 0fcd c9be cd8f 6ebe
00000160: aae5 afbd 46a1 bf3d b2b9 843e 49bd 0f3e
00000170: 79d4 82be f2e1 babe edd8 07be 4324 733e
00000180: c5a1 4d3e 0010 5cbe 169b a13e ce41 ac3d
00000190: 350a 903e 62a4 a73e 05db 53bc 9b6b 9abe
000001a0: 64b5 333e 7d4c b83e 8c70 f0bb 1b2a 8b3e
000001b0: 15fa 1a3e 67c7 9cbe b6a9 7b3d fa39 193e
000001c0: 49a9 203e 0050 2e3e ecde a53e bdc7 63be
000001d0: 2ebd 81be 46fa a93e 0362 ddbd 7bc2 4b3e
000001e0: 39d0 94be d55e b33d 7552 48be 693e 13be
000001f0: b342 a03d f1f7 88bd d2a0 b7be 9796 bdbd
00000200: 4026 363e d592 a5be 595d ccbe 3caf 86be
00000210: b863 6fba 78c0 fe3d 6bbf 8bbd e948 b4be
00000220: 25fc 4abe e913 dfbd 33d2 90be c4ee 7abe
00000230: 5f9d cb3e 3f7f bd3e ff24 8d3e ae0e 4bbe
00000240: 77a7 613e 5d9a bb3e 3d4d 01bd 2fc9 683e
00000250: 716c 8ebe abbf 68bd 9172 33be d94e a53d
00000260: c954 71be 6ffc 2bbe f67f 81bb 2f08 8abe
00000270: d43a 803e ada9 67be 9cab 843e 4a46 653e
00000280: 0d3d 533e d5bd b23e a216 36bc 9533 bf3d
00000290: 3637 40be c0ee 7ebe b31c 153d b963 95bd
000002a0: da26 b1be 47e4 a5be 59ed 433e 752f a4bd
000002b0: 531c f1bd 7bc5 1f3e fbff c8bd e554 963e
000002c0: 8dbf f13d 52a2 a03e c567 10be 5e9b 8b3e
000002d0: bcb4 8e3e 2aa6 653e c775 9d3d 3053 7c3e
000002e0: 45c9 83bd 63a7 a4be 2d8f 803e 1e3e 98be
000002f0: 7fad 313e 7e10 3bbe 22aa ea3d b9f3 c9be
00000300: e633 38be 3bf8 80be bc3c b9be d6a3 91be
00000310: 057f 9d3e 93c7 563e 42e3 16be 6c89 a6be
00000320: d6c7 9bbd ec23 253e f0fb 2d3e 0734 5d3d
00000330: 72c3 f9bd 709f b7bb ba79 933e ced6 a0be
00000340: bc3c 493e 8e68 b43e e18d 6dbe df33 3cbd
00000350: 81bd 3bbe 8eb7 0fbe 9514 f43c f01a 913e
00000360: 22ad b83d ffed 7bbe 7302 89be 8a86 ad3e
00000370: b2c2 93be e01b 5fbe 3158 90be 1484 3abe
00000380: d9f1 183e 93a9 bd3d 29ab a93e 9e1c 9f3d
00000390: 10d9 b23e 9d39 533d 24ec 603e fcd5 913d
000003a0: bc71 81be 7a74 6bbd c0b9 94be c1de a2be
000003b0: 8342 a6bd 6507 60be f68a abbe 3131 ad3d
000003c0: 5457 6bbe e775 8b3e bf24 2ebe eaf5 1b3e
000003d0: 77a4 093e 7330 e1bd b82d 3f3d 44e6 533e
000003e0: 983b 053e ba4d 34be e101 513d 2575 b9be
000003f0: f113 99be 9a56 d0be e186 fc3c ceb8 c63d
-0.23052137 0.24354848 0.31895044 -0.23018712 0.18811119 -0.039948072 -0.062132347 0.24853647
-0.13157812 -0.16818552 0.381908 -0.26102123 0.33789378 0.19963975 0.25518346 -0.18956935
0.017078131 0.051762316 0.07752544 0.34152144 -0.27874017 -0.016419908 0.34343925 0.16820252
-0.16069886 0.27280456 0.25510573 0.2574459 -0.2261459 0.14714772 0.25796238 -0.2541345
-0.07573714 0.01540452 0.056020916 0.27447957 0.29752022 0.11856752 0.12440915 0.07250688
-0.19919136 -0.2873237 -0.28591698 -0.015594593 -0.2541865 -0.29396474 -0.16762066 0.03414971
0.18814048 -0.22298147 0.1337381 0.26836625 0.019584475 -0.07675826 0.35758367 0.35143596
-0.17621344 -0.29802364 0.08377192 -0.16600013 -0.11576808 -0.19302142 -0.14176448 0.09112632
-0.2769971 0.109260626 0.22288594 0.06900201 -0.078850195 -0.15908943 -0.19442926 -0.11807937
0.22285242 -0.21223089 -0.10752799 -0.0600338 -0.24987935 -0.35454142 -0.1546928 -0.13649781
0.0027404288 -0.16889116 -0.24526784 0.116351984 -0.3012586 -0.23466408 -0.3941426 -0.23297043
-0.08588727 0.09356932 0.25922924 0.1403705 -0.2555273 -0.36500508 -0.13266344 0.23744301
0.20081241 -0.21490479 0.31563634 0.08410989 0.28132787 0.32742602 -0.012930636 -0.3016022
0.17549664 0.35995856 -0.0073376354 0.2718056 0.15134461 -0.30620882 0.061441146 0.14963523
0.15689577 0.17022705 0.32396638 -0.22244163 -0.25339645 0.33198756 -0.1080971 0.19898407
-0.2906511 0.08758322 -0.19562705 -0.14379276 0.07825222 -0.06687916 -0.35864884 -0.09257238
0.17788029 -0.32338586 -0.3991497 -0.26305568 -0.0009131986 0.12439054 -0.068236195 -0.35211876
-0.19822748 -0.108924694 -0.2828537 -0.24505144 0.39768502 0.37011144 0.27567288 -0.19829819
0.22036539 0.36641207 -0.0315678 0.22732995 -0.2781711 -0.056823414 -0.17524172 0.080716796
-0.23567499 -0.16795515 -0.0039520217 -0.2695937 0.25044882 -0.2262332 0.25912178 0.22390094
0.20628758 0.34910455 -0.0111137945 0.0933601 -0.18771061 -0.24895763 0.036404323 -0.07294411
-0.34599954 -0.32400724 0.1913351 -0.08016864 -0.117729805 0.15602677 -0.098144494 0.29361644
0.118041135 0.3137384 -0.14102085 0.27266973 0.27872264 0.22426668 0.0768848 0.24641109
-0.064348735 -0.32158956 0.25109234 -0.29734892 0.1735134 -0.1826801 0.114582315 -0.39443758
-0.17988548 -0.25189385 -0.3617915 -0.2844531 0.3076097 0.20974569 -0.1473513 -0.3252672
-0.07606475 0.16126984 0.16990638 0.054004695 -0.12195481 -0.005603723 0.28803807 -0.31413883
0.19652075 0.3523602 -0.23198654 -0.045947906 -0.18334009 -0.14034864 0.02979497 0.28340864
0.090173975 -0.24602507 -0.2675968 0.33891708 -0.28859478 -0.21787977 -0.28192285 -0.18214446
0.14936008 0.09260859 0.33138397 0.0776913 0.3493123 0.051568616 0.2196508 0.071208924
-0.25282085 -0.057484128 -0.29047966 -0.31810573 -0.08118155 -0.21877821 -0.33504456 0.08456648
-0.22982532 0.2723839 -0.17006205 0.15230528 0.13441645 -0.10995569 0.04667446 0.20693308
0.13011014 -0.17607775 0.051027182 -0.36222187 -0.29898027 -0.40691072 0.030826034 0.097032174

transmitter.0.bias f4 [32]
00000000: a67f 9c3e 0c27 ae3e 7a7c 9ebb d3db bb3b
00000010: 435a 513e 3b02 71be 9764 873d 2108 b83e
00000020: ed4c 083e 7352 8ebe 5ae8 e9bd ccfd cf3d
00000030: c227 9c3e c92c 3ebd bbfa 5ebe 7f52 9dbe
00000040: 0ad7 f83d 6e92 643d 35e5 ca3e 15c0 493e
00000050: d7ee a83e c6e2 ba3d ae00 8cbe ab14 2dbe
00000060: 0bd7 99bd c294 37be b58c a33e d5e7 70be
00000070: ddcf 973e fd63 ff3d 5853 aabe 52af d4bd
0.30566138 0.34014165 -0.004836616 0.005732992 0.20444588 -0.23536007 0.06610983 0.35943702
0.13310595 -0.2779728 -0.11421271 0.1015583 0.30499083 -0.04642943 -0.21775334 -0.30727002
0.121503904 0.05580371 0.39627996 0.1970218 0.3299472 0.09125285 -0.2734427 -0.16902415
-0.07511719 -0.1792784 0.31943288 -0.23525937 0.29650775 0.12470243 -0.3326671 -0.10385002

transmitter.2.weight f4 [32, 32]
00000000: 01bf 2f3e ef3b 4f3e daf6 1ebc 19e0 31bd
00000010: 1676 f13d 2364 82bd edee 50bd 50f1 ea3d
00000020: d30d 98bd f21c 34be ddbe a6bd 5448 61bd
00000030: 3884 cc3d 19f7 81bd ef36 943d 1832 0fbe
00000040: 1216 bcbd c95a d6bd 33ff 043e 981a 093e
00000050: a559 c8bd 2636 8abd f4ff 92bc 4c48 2f3c
00000060: b9b4 19be 52ae 2c3e 9040 083e eeed 7f3d
00000070: c396 fdbd df04 8cbd 773c 3c3e d938 20bd
00000080: b7cc 81bd 38a0 853d 43d5 fd3a 7102 1bbe
00000090: 664e bdb9 4ef2 a23d 7c9a 90bb 0781 1bbd
000000a0: f62b 1ebe 6975 2b3e 43ae de3d 74de 07be
000000b0: 4b57 afbd 9cad 69bd 9af4 36bd deee 12be
000000c0: 6f1a a8bc ac7c c0bd 5152 01be f844 b03d
000000d0: 1e2d 4fbc d8f3 bf3d a609 a0bd 6ca2 59bd
000000e0: 426f 1dbe 4aee e43d 799a 3dbe b26b 073e
000000f0: 4480 08be 2564 28bd 263b ef3d 7871 b13d
00000100: 3508 83bd e6a4 93bd ff5a b23a 3f7f b23d
00000110: a3e8 20bd ce75 12bd 6833 edbd 74cf fa3a
00000120: a064 90bd a657 c1bd e20f 11be 67e9 ffbd
00000130: f666 d83d a5a4 e73d 5b78 213e 64cf e5bc
00000140: 6f0e 3ebe 4335 e3bd 6509 c83d 57d1 eebd
00000150: f2ac ddbd 5865 ff3d 89c4 ed3c 5fbf 1abe
00000160: e59d 663d 4055 69bc afb2 29be 310f 50bd
00000170: 9f96 a73d c27e 573d 7582 6c3d 054a 983c
00000180: 788f 9fbd b8e0 81bb 5c03 0a3e 7653 d7bd
00000190: ace0 123e 14d5 283d 3d44 afbd 853a 47be
000001a0: 91b2 b7bc 4196 9a3d 3500 45bd 8a0f 15be
000001b0: d75f 633e ec81 2f3e f286 353e 7141 3fbe
000001c0: e5e1 ccbd 062c 71bd 54ec 583e 45de f23d
000001d0: 9f77 b63d c53f 2fbd adbd 263e c298 69be
000001e0: 6ad2 34bd b800 ee3d c584 ec3d ba90 21be
000001f0: 6ce4 603e 963f 173d a4b0 eabd 9c03 3abe
00000200: d9ea b93d ff86 623d f98f 9bbd cf6c b23d
00000210: 0553 013e da39 0fbd ca60 bb3d eabf 87bc
00000220: 1ae6 333d e942 103c 68d9 bcbc 9507 98bc
00000230: c7d7 c3bd 4083 e9bc 8370 513c 29ae 31be
00000240: 59cf 0cbe f33a 29bd 8f9f 473e d714 12be
00000250: f02e d73d 7c0d 093e c230 bb3d 143e 4abe
00000260: 304a f93d dada aebd 5903 09be 82e0 af3d
00000270: 8147 1c3e 8401 ddbd 367a 263e cccf 163d
00000280: 4bcc b6bd 755f 41bd 24e7 acbd 982a 903d
00000290: 7af7 fa3c 773e e8bd 3eb4 3c3e 4fab 3bbe
000002a0: cea0 c73b 0d05 163d 61c1 2dbe 89d9 06be
000002b0: 385b 3dbb ebe7 b4bd 0236 493e 5f35 54be
000002c0: f915 49be 7d8b 4e3e 68a7 1d3e aadd 393e
000002d0: 1211 9abc f909 dcbd 316f ad3d 9333 32be
000002e0: cedb 783c 0c3b 1ebc 893b d9bd 1321 a23d
000002f0: 2fe0 1f3d 5f8e 9c3d f60f 97bc 5608 2fbe
00000300: c5e2 2cbe ff63 48be 2a0b 8fbd 156a 1bbe
00000310: 585a ae3d ecf0 873c 376a f3bd f40c 363e
00000320: b3be 773d 4918 a63d 93ba efbb 8810 88bb
00000330: dfdb 9a3c 854c 823d 4aa2 123e 691e cc3c
00000340: 01fb 533e 3924 a4bd 8df9 753d 9d50 2bbe
00000350: 25b6 5bbd 8504 0a3e 39fc 1dbe d66c 1e3e
00000360: 4167 ce3d acda cfbd 24e1 0cbe 09b1 0f3e
00000370: bd6f 5dbc 6a62 a13c 8ebe ed3d c301 913d
00000380: 87ca c63d c4e2 0cbe be4e ccbd ad61 febc
00000390: 95c0 21bd 26d9 9f3d 3108 f33c 11ba 8c3d
000003a0: 2f9b 6dbd bcf5 a93d 8350 cf3b ed56 8a3d
000003b0: d7e7 c63a adc1 013e 7791 283d afcc 1d3d
000003c0: 8509 d33c 72fc 90bd 07cd 49be fcac 253d
000003d0: 1d9b b13c 2b9e 353d 22f1 e1bd d5ec 0c3d
000003e0: 3c1d 4b3e d943 3bbd a55c 53be ec59 48bd
000003f0: 2c06 b93d e2f8 5b3d 6fe0 c4bb 1a23 043d
0.17162706 0.20237707 -0.009702409 -0.043426607 0.11790101 -0.06366756 -0.051009107 0.11471808
-0.07424512 -0.17589167 -0.08141873 -0.055000618 0.09986156 -0.06345958 0.0723704 -0.13983953
-0.09183897 -0.10466535 0.12987976 0.13389051 -0.09782723 -0.06748609 -0.017944314 0.010698389
-0.15010346 0.16863373 0.13305879 0.062482767 -0.12382271 -0.068368666 0.1838244 -0.039116714
-0.063378744 0.065247 0.0019365925 -0.1513765 -0.000361073 0.07956372 -0.004412947 -0.037964847
-0.15446457 0.16744007 0.108730815 -0.13268453 -0.08561572 -0.057050332 -0.044666864 -0.14348933
-0.020520417 -0.09398779 -0.12629057 0.08606905 -0.012645034 0.093726814 -0.0781434 -0.053133413
-0.15374473 0.111782625 -0.18515958 0.13224676 -0.1333018 -0.04111113 0.116812035 0.086642206
-0.0639805 -0.07209186 0.0013607441 0.087156765 -0.03928436 -0.03575688 -0.115820706 0.0019135312
-0.07050443 -0.09440546 -0.14166215 -0.1249569 0.10566513 0.113107 0.15768568 -0.028052993
-0.18560193 -0.11094143 0.09767417 -0.11661022 -0.10824002 0.12470502 0.02902438 -0.15112065
0.056302924 -0.014241517 -0.16572069 -0.050795738 0.081830256 0.05261112 0.0577416 0.018589983
-0.07791036 -0.003963556 0.13477844 -0.10513966 0.14343518 0.041218832 -0.08557937 -0.19455917
-0.022424014 0.0754819 -0.0480959 -0.14556709 0.22204529 0.17139405 0.17727259 -0.18677308
-0.100040235 -0.058879875 0.21183902 0.11858801 0.08909535 -0.042785425 0.16283293 -0.22812179
-0.04414598 0.11621231 0.11548761 -0.15777865 0.21962136 0.036925875 -0.11459473 -0.1816544
0.09077997 0.055304524 -0.0759582 0.0871216 0.12629326 -0.03496728 0.091493204 -0.016571004
0.043920614 0.008805015 -0.023052886 -0.018558303 -0.09562641 -0.028504968 0.012783173 -0.17351593
-0.13750972 -0.041315984 0.1949446 -0.14265762 0.105069995 0.1338405 0.09140159 -0.19750243
0.12172353 -0.085378364 -0.13380183 0.08587743 0.15261652 -0.10791305 0.16257557 0.036819264
-0.089256845 -0.047210176 -0.08442524 0.07039374 0.030635584 -0.11340039 0.18428132 -0.18327068
0.0060921675 0.03662591 -0.169683 -0.1316892 -0.0028893482 -0.08833297 0.19649509 -0.20723484
-0.19637288 0.20170398 0.15395892 0.18150964 -0.018806968 -0.1074409 0.08468474 -0.17402487
0.015189124 -0.009657633 -0.106070586 0.07916465 0.039032158 0.07644343 -0.018440228 -0.17093024
-0.1688338 -0.19569395 -0.06984551 -0.15177186 0.085133255 0.016594373 -0.11885493 0.17778379
0.0604846 0.08110101 -0.0073159426 -0.0041523613 0.01890367 0.06362251 0.14319721 0.024916844
0.20701219 -0.080147214 0.060052443 -0.1672997 -0.053640503 0.13478287 -0.15428247 0.15471205
0.10078288 -0.1014913 -0.1375776 0.14032377 -0.01351541 0.019700248 0.11608611 0.07080414
0.09706598 -0.13758379 -0.099759564 -0.031052435 -0.0394903 0.0780509 0.029666992 0.06871427
-0.058009323 0.08298823 0.0063267364 0.06754861 0.0015175295 0.12671538 0.04115435 0.03852528
0.025761375 -0.070794 -0.19707118 0.040448174 0.02168041 0.044340294 -0.110323206 0.034405548
0.19835371 -0.045719 -0.2064081 -0.04891388 0.0903438 0.05370415 -0.0060082 0.032260038

transmitter.2.bias f4 [32]
00000000: 93a1 b73d 98e2 40be 3fec 18be 8d95 183e
00000010: b874 c43d 261c a6bd 125e 88bd 2ffb 85bd
00000020: 5a1a 873d 6a41 b1bd 1b7d d83b 9509 ec3d
00000030: 8ae3 11be d341 a33d 1d8f 31be b009 2d3e
00000040: 6348 05be 84b4 4abe bd60 efbd 4bcc 06be
00000050: 700e 4e3e 2d13 99bd 280d d33d ed29 f5bc
00000060: 1255 1bbe d1bf dc3c 6ae6 cc3d e6ee 93bc
00000070: de2b 8fbc e7b2 153d 85dc c73d dc82 e33c
0.08966365 -0.18836439 -0.1493387 0.14900799 0.09592575 -0.08110838 -0.066585675 -0.0654205
0.06596823 -0.08655055 0.0066067106 0.11525265 -0.14246956 0.07971539 -0.1733975 0.16898227
-0.13015895 -0.19795424 -0.11688373 -0.13163869 0.20122695 -0.074743606 0.10305244 -0.029927218
-0.1516917 0.026946934 0.100048855 -0.018058252 -0.017476972 0.036547568 0.09758858 0.02777236

receiver.0.weight f4 [32, 32]
00000000: 7f71 4cbd 73e8 853d 124d b7bc 9cf4 973c
00000010: 6030 a0bd 58ea 8ebd e082 26bd 77b6 d03d
00000020: ed06 9f3d 813c edbd bbbd 56bd 2bf5 163d
00000030: b8d5 a23d a0ab 49bc 6d89 29bd eaa7 2fbc
00000040: e968 873d ae6f 90bd 4bf7 963d eeb0 b73d
00000050: ad35 e2bd 5a15 d53d f82c fb3c 89bb 3dbd
00000060: 543c 4abc 285b f83c 4af1 8c3d b38d 5fbd
00000070: 50f8 023d d23b c23d 5d24 b3bd 2e09 143d
00000080: 7ffc 11bd f4f3 57bc cc4d fdba 8382 acbd
00000090: 616d 6bbd f102 103e 0873 68bd 2ddc e6bc
000000a0: ea91 063c 1962 333d b987 9a3d 5991 0e3e
000000b0: d6fa e53d e8eb a8bc 551d bcbd 94fe d9bd
000000c0: 0df1 42bd b86a 103d 27c3 8bbd dfc4 8fba
000000d0: c3a3 71bd 7bae 653d 99a7 c2bd 2f2e a83d
000000e0: df5c ed3d 062a 193e 0b30 363d 036f 7abc
000000f0: 6609 7a3d 2e3c e33d 3803 14bc 82fb 9bbd
00000100: 0522 b93c eb6b 67bd a8d5 5d3d 5138 38bd
00000110: 4e32 8c3c 5a9a a0bd a0e2 36bb 012a f1bc
00000120: 9721 293c ba8b 9c3d 2529 dc3b 63e6 4f3d
00000130: c1e3 cabd 2cda 6e3d fe88 2a3b a36d 783a
00000140: d899 48bd 9656 873d 22d2 5a3c a286 fa3d
00000150: c19c dbbc 7917 8d3b f101 bc3d e89c 86bd
00000160: b657 bfbd 15c4 ed3c fa01 ee3c a9a2 7bbd
00000170: f8d9 c43c e644 cf3c 219e 863d c4ab d13c
00000180: 3742 ad3c d641 0bbc 38fc 7e3d 712f 31bd
00000190: df0d dc3c d3cd 913d 9a40 ebbb a3be f7bc
000001a0: 8ac4 83bb 0d68 27bd f211 273b 830d 983d
000001b0: a247 eebc 6af2 a6ba 9551 413d e1be 1bbd
000001c0: 6e8f 3e3c 833c 49bd 61c9 733d d4ce 743d
000001d0: f1a9 4e3d 8c81 5cbd 10bf 343d 25fd 663d
000001e0: 0de4 93bc b46b e93c f3e5 1e3d 3122 89bd
000001f0: cd72 a8bc 7d59 193c a261 f1bb a07e d23c
00000200: d120 bd3d 2c66 d4bd 5ce6 aa3c de45 183d
00000210: 5a4a 923d 7b05 353d 553e 6dbd 29fd 9d3d
00000220: a081 d83c 9f66 113d 3b16 b93d 0659 b93d
00000230: f96a c43c d969 e7bd 9e29 353c ee03 3ebd
00000240: 3f90 15bb 5236 b73c ee5e f63d 52b4 063e
00000250: 0b07 b03d 419b bf3d c4c5 42bd 6dd8 9e3d
00000260: 8864 453d 7d82 71bd d8d6 3b3c 8672 0fbd
00000270: 509b 253b 42dc bd3d d757 a6ba 6ebb 063d
00000280: 9d1e 043d a768 4abc 1e86 ef3c 33ce 39bd
00000290: 9b98 773d bdd1 ab3c 704b b63d 35da c3bd
000002a0: b5ae 063d 29b7 853d 3a72 8abd bd5d c13d
000002b0: 7caf 03bd c1f9 2abc ecb8 fb3c 78ed d7bb
000002c0: 0ff9 44bd e0af f43c 229f d63c 9395 a33d
000002d0: 7d0c 90bc 60c9 efbd 6109 b93d 5280 a1bd
000002e0: 99ef af3b 53cb a63d 3e6c 7bb8 ce71 a13d
000002f0: a419 b83d 6e25 81bd c916 493d 195f a73d
00000300: 5bd2 99bd fbb8 eebd 1dec 2abc 1fcc d4bd
00000310: 1302 4d3d 2d6e 5a3d b701 ec3b 8e05 6f3d
00000320: bbbf 023d 9bb6 963d aa6c b3bc 4114 193d
00000330: 6788 82bd d1fb c8bd a91c 23bd 0e6f 79bd
00000340: ece2 9ebd 44b8 053e ef62 493d 8244 033d
00000350: 5c81 883d 9aa3 8dbd a83c b1bd 73eb d13b
00000360: 2820 513d 006f b53c 1331 06be acb7 183e
00000370: 94b4 0c3d 3116 393d 96f5 8d3c 9282 4d3d
00000380: 4cc2 b03d e02c 97bd 6928 c63d 83dc df3d
00000390: bd65 be3c cdae 223d d2c3 043d 3d7b 0c3e
000003a0: 4cdc 47ba 567c ae3d c7a6 4a3d fe9c bf3d
000003b0: 7cf7 76bd 3f8f 273d 7663 df3d f99c 8abc
000003c0: 1293 b6bd 125b 9c3c 0a90 b13d dc2c 3f3e
000003d0: 3b3e 733d 7573 073d 52ab 1b3c c354 79bd
000003e0: 68b7 09bd a2bb 44bb f0fe 8d3d edd6 9ebd
000003f0: 9e8c b53c d087 7e3d 24f6 153e b474 a5bb
-0.049912926 0.06538477 -0.022375617 0.018549256 -0.07821727 -0.06978291 -0.040652156 0.101910524
0.07764993 -0.11583806 -0.052427035 0.036854904 0.0795092 -0.012308985 -0.041390825 -0.010721186
0.06611807 -0.07052551 0.07371386 0.089692935 -0.11045394 0.10404463 0.030661091 -0.046321426
-0.012343485 0.030316904 0.0688196 -0.054578494 0.03197509 0.09484066 -0.0874717 0.036141567
-0.03564119 -0.013180722 -0.0019325553 -0.08423331 -0.05747736 0.14063622 -0.056750327 -0.02818116
0.0082135 0.043794725 0.07545418 0.13922633 0.11229484 -0.020620301 -0.09185282 -0.1064426
-0.047593165 0.035258025 -0.06824332 -0.0010968706 -0.058994066 0.0560746 -0.09504623 0.08211934
0.115899794 0.14957437 0.04447941 -0.015285256 0.06104412 0.11095463 -0.009033971 -0.07616331
0.02259923 -0.056499403 0.054158837 -0.044975583 0.01711383 -0.0784194 -0.0027906075 -0.029438974
0.01032295 0.07643838 0.006718772 0.050756823 -0.09906722 0.058313534 0.0026021595 0.00094767864
-0.04897484 0.06608312 0.013355764 0.122327104 -0.026808145 0.0043057767 0.09180058 -0.06572896
-0.093429014 0.029024163 0.029053677 -0.06143442 0.024029717 0.025301408 0.065731294 0.0255946
0.021149738 -0.008499583 0.062252253 -0.043258134 0.026862083 0.07119336 -0.007179332 -0.03024227
-0.004021232 -0.040870715 0.0025492874 0.07424452 -0.029086892 -0.001273704 0.047196943 -0.038023833
0.011630876 -0.049129974 0.05951822 0.05976756 0.050455038 -0.053834483 0.044127524 0.05639376
-0.018053079 0.02849374 0.038793515 -0.066959746 -0.020562554 0.009359715 -0.007366375 0.025695145
0.09234775 -0.1037105 0.020861797 0.037176006 0.07143088 0.04419468 -0.057920773 0.07714302
0.026428998 0.035498258 0.09037443 0.09050183 0.02397679 -0.11299486 0.011057286 -0.046390466
-0.0022821573 0.02236477 0.12029825 0.13154724 0.08595093 0.09355784 -0.047551885 0.07756124
0.048191577 -0.058962334 0.011464797 -0.035021327 0.0025269575 0.092705265 -0.0012690973 0.03289359
0.032255758 -0.012354053 0.029238757 -0.045362663 0.06044827 0.020974034 0.08901107 -0.09563104
0.032881457 0.06529076 -0.06760068 0.09441707 -0.032149777 -0.0104355225 0.030727826 -0.006589588
-0.048089083 0.02986902 0.026198927 0.079875134 -0.01758408 -0.11708331 0.09034992 -0.07885803
0.0053691384 0.0814425 -5.994387e-05 0.07883035 0.089892656 -0.06305967 0.049093995 0.08172435
-0.07510825 -0.11656376 -0.01043227 -0.103904955 0.050050806 0.053327728 0.007202353 0.058354907
0.03192113 0.07359048 -0.021902401 0.03737283 -0.06373673 -0.09813655 -0.039822254 -0.060896926
-0.07758126 0.13058573 0.049166616 0.032047756 0.06665298 -0.0691597 -0.086541474 0.0064062416
0.051056057 0.022147655 -0.13104658 0.14913815 0.0343519 0.04518718 0.017329019 0.05017335
0.08630809 -0.07381606 0.096756764 0.10930731 0.023241872 0.039717484 0.03241331 0.13718887
-0.00076240744 0.08519809 0.049475458 0.09356116 -0.060294613 0.040908094 0.109076425 -0.016920554
-0.0891477 0.019086394 0.086700514 0.18669456 0.05938552 0.033069093 0.009501295 -0.06087185
-0.033622175 -0.0030019064 0.06933391 -0.077558376 0.022161778 0.06214124 0.14644676 -0.0050493125

receiver.0.bias f4 [32]
00000000: 8d77 9ebd f910 52be e98f 26be d03d 533d
00000010: 915e 06bd f14d 0abd a070 08be bbd1 9dbd
00000020: 0011 303e c29a 193e 37d9 7c3e 7b58 1cbd
00000030: 00a9 98ba 27be 5dbe 3602 a63d 1841 77be
00000040: d90c ca3d 3e81 b13e 9b83 e83d 465f 973e
00000050: 1e35 dd3b af9a bfbd 8ad7 633d ac87 803e
00000060: 4cfd e93d 8729 653e 9b41 ab3b 686d dbbe
00000070: 8d31 a33c be23 80bd 1f9e 78be 494b 1b3c
-0.07737646 -0.20514287 -0.16265835 0.05157262 -0.03280503 -0.033765737 -0.13324213 -0.077060185
0.17193985 0.15000442 0.24692236 -0.03817032 -0.0011647046 -0.21654569 0.081058905 -0.24145925
0.09865732 0.34668916 0.11353227 0.29564875 0.006750717 -0.093556754 0.055625476 0.2510351
0.11425266 0.22379123 0.0052263266 -0.42856908 0.019921089 -0.06256817 -0.24279068 0.009478399

receiver.2.weight f4 [8, 32]
00000000: 0f39 43ba 5df8 d23b da7a 40bb b355 b43a
00000010: 2194 9bba a26a 8dbc 605b 833a cb5d c93a
00000020: 99fd 8ebb 228c 413b 325c 8a3a 0def cf3a
00000030: e0c6 4e3d 6ddf 603b 5c45 6e3d bba9 1d3b
00000040: be94 84bc 1bef 833b d047 0cbc b352 a83a
00000050: b495 85bb 34be 9b3b 0599 c73b f6e0 ae3b
00000060: f109 9b3b 50cc 1fbb 053b ae3c 1ef2 91bd
00000070: 2621 93bb 260c 71bb adbd 09bd c620 8dba
00000080: 2dff 623c f560 70bb cbaa 30ba 3403 acbc
00000090: 8b98 54bc 2333 25bd 1d52 a7ba 9204 93bb
000000a0: f0ce e43c cff6 8d3c f896 393b 3d1c 103c
000000b0: 67a9 05bc 8af7 11bd cbac 503d f154 57bc
000000c0: 78de aebc 93b2 743c 5dcf 063c 412a 7b3c
000000d0: 6ac3 a03c 81a3 35bd b890 a8bc c50d 9a3b
000000e0: ddf6 4b3b 48d5 ae3c d1b7 523c 4e8b 85bd
000000f0: e8f3 933c 5b5d 563c f4d4 b63b 48cb f33c
00000100: 3d7a 58bc a7eb e2bb 7ec9 5fbb 9bf7 b5bb
00000110: fe62 06bb 7f3d 9e3a f66c dbba ca4f fdb8
00000120: 2919 5abb aba3 623b f859 57b9 a893 8a3b
00000130: 2e8a 983c 193b dd3c 567a 7cbd dfac 90bb
00000140: d06c 50bb 6242 1e3a 9f66 433c 9684 5d3a
00000150: 0e58 babc 6b07 4b3c 7336 833c 9481 f33b
00000160: da51 9c3a f88f 7cbb dc05 143a 919c a33d
00000170: 6ae8 40bc 5859 45bc bfdd 4ebc 01d3 e73b
00000180: 2652 6cba 4871 1dbd 107c 85bb 6a26 f6bb
00000190: 2fcd 1cbc 229e 863c 56c4 4abb 88b7 273a
000001a0: 8021 a1bb ba67 733c 46c1 8c3a 235e 773c
000001b0: 0163 283d 57aa b1b9 f098 0d3d 6236 93bc
000001c0: 5e54 633b 3c6a ae3a d905 693d dd51 913b
000001d0: 7183 a0bb b61e db3a 2365 8f3c 1171 933b
000001e0: 4cc9 653a 80a4 0f3b 0248 b6bb 2a56 2ebd
000001f0: 8257 00bc 0d13 84bc c410 e1bc df32 5b3c
00000200: 442e 363b 972d bcbc ebb9 8c37 4ed9 03bb
00000210: b961 47bb 54ff 10ba 08b2 123a 6331 d839
00000220: 7918 b23a 8d63 9f3b d94d d83a 71c6 733b
00000230: 4552 9c3c 3cbf 4abb 5d7d 2ebd f84c 8fbb
00000240: 2a0c 54bb f6b7 1f3b c066 0c3d 4305 4c3b
00000250: 5f3e 033b 6e96 fbba 622e cb3a 444d b63a
00000260: dcaf 513a 31cc aa3a 50ce 97b9 f1b3 503d
00000270: 3556 d23a 15f6 393a 7743 5cbc df19 aa3b
00000280: b4fe ecbc b4f2 f03c 0a5d efb9 c2e9 9c3b
00000290: 01cb ae39 067b 113d 8470 bcba e3fc dbba
000002a0: 47ba 66bc 7589 ac3a e3dc 3cba 2e19 c83b
000002b0: b6d1 e73c f0c2 633d de17 a33d 5d41 e3bb
000002c0: 1021 863c 4b82 acbb 7641 2cbd 74cc b43a
000002d0: 1f17 3dbd c903 a53c 5d90 e03c 7708 6e3c
000002e0: ff90 23bb 1fbd 36bb 75bb 91bc 9132 cbbd
000002f0: 9a64 8cbc c06f a6bc ac07 a1bc 9feb 8d3a
00000300: 644d c93b 61df fcbc a45d 843b a527 b93a
00000310: 073b 683a c95c 663c c906 76b9 df7d 93ba
00000320: 6c26 443b 0994 2dba f84c 76ba b38d 673a
00000330: 3366 8ebc 1193 50bc 504d 6cbc c1a5 9bbb
00000340: e3d4 743c 2554 dbba e386 353d 3686 8d37
00000350: 4bd5 1c3c cc4f e0bb e0b1 69bc 2623 3abb
00000360: b3ae 45bb b59e 1f3b 98f1 98bc 6a62 753c
00000370: f998 053c 92b2 0d3c 0f07 573c 8c86 6e3a
00000380: 1903 4b3c 9e02 403d 5cad 783c 6944 063d
00000390: f449 4b3c 7412 c23c 67bd 5a3b e5ef 943a
000003a0: 3b58 d8ba e286 47bc 1dda 593b 6471 8fbc
000003b0: ccee bdbb b545 c9bc 631e 583d 38ab ba3c
000003c0: 0aff 973b 850f 783a 135a 8cbd b7ac 9dba
000003d0: 54a0 933c b9fe 563b db99 a0bc bc36 07bb
000003e0: b4de edb8 7889 c4bb 4f6b debc d8df 93bd
000003f0: 9bc3 553c 8261 8f3c eb92 a63b c42c 11bd
-0.0007447162 0.0064382986 -0.00293701 0.001375845 -0.0011869707 -0.01726276 0.0010021739 0.0015363035
-0.0043637273 0.0029532989 0.0010556041 0.0015864089 0.05048263 0.003431286 0.058171615 0.0024057466
-0.016184207 0.0040263063 -0.008562043 0.0012842029 -0.004076684 0.0047528986 0.0060912394 0.005336876
0.0047314097 -0.0024383254 0.021268377 -0.07126258 -0.0044900356 -0.0036780923 -0.033628155 -0.0010767214
0.013854784 -0.0036678885 -0.00067393173 -0.020997621 -0.012975822 -0.04033197 -0.001276556 -0.004486629
0.027930707 0.017329602 0.0028318744 0.008795795 -0.008158064 -0.035636462 0.05094604 -0.01314281
-0.021346316 0.014935154 0.00822815 0.015329898 0.01962443 -0.044345383 -0.02057682 0.0047013485
0.0031122484 0.021341935 0.012861208 -0.06520711 0.01806064 0.013083781 0.005579585 0.029760018
-0.013212738 -0.0069250646 -0.0034147198 -0.0055531985 -0.0020505781 0.0012072771 -0.0016740847 -0.00012078842
-0.0033279157 0.0034582417 -0.00020537514 0.004229028 0.018620577 0.027005719 -0.061640106 -0.004415139
-0.0031803139 0.00060371135 0.011926322 0.0008450238 -0.022747066 0.012391905 0.016017174 0.0074312184
0.0011926249 -0.003853796 0.0005646625 0.07988847 -0.011774162 -0.012045227 -0.012626111 0.007074714
-0.00090149266 -0.03843811 -0.0040736273 -0.0075119035 -0.009570404 0.016432825 -0.003093978 0.0006397893
-0.0049173236 0.014856273 0.0010738752 0.015098128 0.041110042 -0.00033886984 0.03456968 -0.017970268
0.0034687738 0.0013306807 0.056890342 0.0044348077 -0.0048984815 0.0016717527 0.01750428 0.0044995626
0.00087656523 0.0021918118 -0.005562783 -0.04256264 -0.0078333635 -0.016122365 -0.027473815 0.013378828
0.0027798573 -0.022970958 1.6775875e-05 -0.0020118537 -0.0030423237 -0.0005531211 0.0005595987 0.00041235526
0.0013587616 0.0048641623 0.0016502693 0.0037197138 0.019082198 -0.0030936738 -0.042600024 -0.004373189
-0.0032355883 0.0024371124 0.034277678 0.0031131066 0.002002619 -0.0019194612 0.0015501494 0.0013908525
0.00079989224 0.0013030824 -0.0002895468 0.050952855 0.001604742 0.0007093859 -0.013443819 0.0051910724
-0.028930046 0.029412605 -0.00045654952 0.0047886083 0.00033339116 0.035517715 -0.0014376794 -0.001678374
-0.014082498 0.0013163524 -0.00072045455 0.0061065173 0.02829824 0.05560583 0.07963537 -0.006935282
0.016373187 -0.0052645556 -0.042054616 0.0013793842 -0.046164628 0.020143406 0.027412588 0.014528385
-0.002495825 -0.002788372 -0.017789582 -0.09921754 -0.017137814 -0.020316958 -0.019656979 0.0010827667
0.006143259 -0.030868234 0.004039483 0.0014126195 0.00088588934 0.014060208 -0.00023462916 -0.0011252722
0.0029930128 -0.0006621485 -0.00093956245 0.00088330655 -0.017382717 -0.012730376 -0.01442273 -0.004749984
0.014943334 -0.0016733451 0.04431809 1.6871007e-05 0.009572337 -0.00684545 -0.0142636 -0.0028402298
-0.0030163943 0.0024356071 -0.018669888 0.014977077 0.008154147 0.0086485315 0.0131242415 0.00090990285
0.012390875 0.046877496 0.015178051 0.032780085 0.0124077685 0.02369044 0.0033377053 0.0011362998
-0.0016505787 -0.012178155 0.0033241578 -0.017510124 -0.005796289 -0.024569372 0.052763354 0.022786722
0.0046385573 0.0009462762 -0.06853118 -0.0012029622 0.018020786 0.0032805635 -0.019604614 -0.002063199
-0.00011342522 -0.005997833 -0.027150778 -0.07220429 0.013047124 0.01750255 0.005083432 -0.035443082

receiver.2.bias f4 [8]
00000000: c300 d23e 9fcf 823e 7a1e 053f c686 cc3e
00000010: b56d f23e a1cd eb3e c72f 013f cc08 cd3e
0.41016206 0.25549027 0.5199963 0.39946574 0.47349325 0.4605532 0.5046353 0.40045774
