channelpara.ckpt (torch, 37639 bytes, 8 tensors)

transmitter.0.weight f4 [64, 2]
000000 bd 85 96 3d 40 47 ca 3e b9 29 d4 3e 66 5f de bc
       0.07349727 0.39507484 0.41438082 -0.027145099
000010 9b 34 04 be d1 7c 65 3e 30 c2 8b be a5 42 b5 3c
       -0.12910692 0.22410895 -0.2729659 0.022126505
000020 20 ee cd 3e 77 4f 1c 3f f4 fb e7 bd f0 2d be be
       0.40220737 0.61058754 -0.11327353 -0.37144423
000030 4f c5 9f be 5f e8 ca be 0b 32 0b bf 5b fa a7 3e
       -0.31205222 -0.3963041 -0.54373235 0.32808194
000040 68 7c f4 bd 4c 0f 01 3e c9 49 da be 48 2a 6e bc
       -0.11937791 0.12603492 -0.4263442 -0.014536448
000050 7a dd 2b bf ff 0f ff 3e 42 1f 03 bf fc 9f 67 be
       -0.6713482 0.49816892 -0.5121957 -0.22619623
000060 28 93 a2 3d d6 8f c9 be 1a 69 1a 3e f4 0c da 3d
       0.07938224 -0.3936755 0.15079156 0.10647002
000070 80 07 d7 be 8a a9 1c 3f e5 75 e4 3e 42 fb 14 bf
       -0.4199791 0.61196196 0.44621196 -0.5819589
000080 c8 95 03 bf 8c 15 eb be ea bb a8 be 44 91 b1 be
       -0.51400423 -0.45914876 -0.32955867 -0.3468114
000090 fa 4e 13 3d 81 9d ba bd 1d f3 df 3e 6f c0 84 3e
       0.03596399 -0.09112073 0.43740168 0.25928065
0000a0 af a9 27 bf 88 31 fc 3e f2 78 a7 3e 0a 06 24 3f
       -0.6549329 0.4925654 0.3270946 0.64071715
0000b0 58 e1 b5 be fb eb 16 3e 6d 92 b7 be b0 9e 1a 3f
       -0.35523486 0.14738457 -0.35853902 0.6039839
0000c0 cc 3b 13 bd 31 e8 21 3e 0c ce 91 bc 5b 8a 22 3f
       -0.0359457 0.1581123 -0.017798446 0.63492364
0000d0 45 15 18 bf 98 0e 9a be ac 13 0d bf 2c 06 bc 3d
       -0.59407455 -0.3008926 -0.5510814 0.09180865
0000e0 b1 e2 98 3e 71 ed 6a 3e 2d 2d ab 3e fc 51 8c 3e
       0.29860452 0.22942139 0.33432904 0.274063
0000f0 15 1f 25 3f 30 3b 2a 3f ed c8 a9 be 58 aa be bc
       0.6450055 0.6649656 -0.33161107 -0.023274586
000100 9f 41 21 be 11 1d 0b bf 4d 0f 21 3f 58 8c 2f 3f
       -0.15747689 -0.54341227 0.6291397 0.6857352
000110 cb 7f 12 3f fa 07 ce 3d 14 a0 12 be 00 96 9f 3e
       0.57226247 0.10060115 -0.14318877 0.31169128
000120 e4 19 5c 3e 41 52 40 bd a7 e3 f7 3d 92 4d 1e be
       0.21494251 -0.046953443 0.12103968 -0.15459278
000130 f7 6d 0f bf b4 98 d2 be cb 3b 74 bc 93 eb be 3d
       -0.5602717 -0.41132128 -0.014906834 0.09322276
000140 58 6e b7 3d 5b 42 34 bf 54 f6 23 bf ed 0e 59 3d
       0.08956593 -0.7041375 -0.6404774 0.05299275
000150 d7 10 14 bf 5f 33 03 3f 18 09 dd be e4 5e 0c 3f
       -0.57838196 0.5125026 -0.43171 0.5483229
000160 69 be a2 3e b7 dc 0e 3f d3 99 27 bc ab 69 bb be
       0.31785896 0.55805534 -0.010229546 -0.36604056
000170 90 c6 db 3e 71 e4 3d 3e 46 e7 a7 be 86 89 d8 3e
       0.4292493 0.18544175 -0.32793635 0.42292422
000180 51 3f d3 3e ca b4 06 bf 6c 89 1c 3e d0 10 af 3e
       0.41259244 -0.5261961 0.15286797 0.34192514
000190 81 06 05 be 64 45 b4 be 61 a3 fe bd d1 4a 90 be
       -0.12990762 -0.3520919 -0.12433506 -0.2818208
0001a0 45 7d 10 bf 69 bc d9 3e be 56 72 3e ef 76 0d 3f
       -0.56441146 0.42526558 0.23665902 0.55259603
0001b0 7c 55 ae 3d c0 16 fa be 5f 12 01 be b9 74 33 bf
       0.085123986 -0.48845482 -0.12604664 -0.7009998
0001c0 ae 3d 85 bd 33 36 be bb 8c d4 f5 3d 0d a4 99 3e
       -0.06505905 -0.005804801 0.12003431 0.30007973
0001d0 3b 9d 30 3f 6d d5 82 be 00 eb 68 3e 0b 4e 18 3d
       0.68989915 -0.25553456 0.22745895 0.037183803
0001e0 db 35 a1 3e c7 ff d8 be 17 af 1d be f6 55 17 be
       0.314864 -0.42382643 -0.15398823 -0.14778885
0001f0 a9 fc fa be 3f c2 0f bf 7e 9a 2a be 62 2b 81 be
       -0.4902089 -0.5615577 -0.16660497 -0.2522841

transmitter.0.bias f4 [64]
000000 15 20 7d be 35 fa 2c bc e9 19 a4 3e 26 fe 8b be
       -0.2471927 -0.010557701 0.32051018 -0.27342337
000010 2f 4b 33 bd 1c dc b3 3e 82 84 2a 3f 79 a3 08 3f
       -0.043772873 0.35128868 0.6660844 0.5337444
000020 ae cc 9d 3e 86 a2 b1 3d 38 79 4f 3e ff b5 d6 be
       0.3082022 0.08673577 0.20261085 -0.41935727
000030 c8 2c 99 bd 61 ab 64 be f9 d8 56 3d 61 6d 2a bf
       -0.074792445 -0.22331001 0.052453015 -0.6657315
000040 c2 94 8b 3d 4c 62 98 3e 39 50 2d bf 7b 23 de be
       0.06815483 0.29762495 -0.67700535 -0.43386444
000050 2d d5 1e 3f ff e9 1a 3e 02 81 25 3f 83 89 06 3e
       0.6204403 0.15128325 0.64649975 0.13138394
000060 2e 8c e4 3d c2 c3 89 be bb 9f f8 3e ed e3 dc 3e
       0.1115955 -0.26907164 0.48559365 0.43142644
000070 4c 19 a7 3e 66 b6 9e be 9e 43 13 bf 6a 50 bb be
       0.32636487 -0.30998534 -0.5752505 -0.3658479
000080 40 63 f6 3e 59 79 2b bf 5e 0c 20 bf 53 ae 0b 3e
       0.48122597 -0.66982037 -0.6251887 0.13640718
000090 8b 83 b5 be 00 ff c8 3e 23 92 96 be 06 9f 2f 3f
       -0.35451922 0.3925705 -0.29408368 0.68602026
0000a0 b5 a2 0a bf 19 92 b2 bc 7c 1b 83 be 0a c9 93 37
       -0.5415452 -0.02179818 -0.25606906 1.7617382e-05
0000b0 10 26 00 bf 8e 72 ef bd 5b ab a1 be 0e 95 1a bd
       -0.5005808 -0.116917714 -0.31576046 -0.037739806
0000c0 b3 54 27 3f fe 8a bb 3e 76 34 1b be 44 2e e6 be
       0.65363616 0.3662948 -0.15156731 -0.44957173
0000d0 2c b7 1a 3d 88 65 e0 3c 4a 3a d9 be dd 41 33 bf
       0.037772343 0.027392164 -0.42427284 -0.70022374
0000e0 e0 b1 2f 3f 0c 07 fd bd 11 69 3e 3e 41 02 31 bf
       0.6863079 -0.1235486 0.18594767 -0.69144064
0000f0 f7 8f e9 be 49 40 92 bd 20 44 0e 3f d7 06 12 3f
       -0.4561765 -0.07141168 0.555727 0.57041687

transmitter.2.weight f4 [64, 64]
000000 bc e9 f9 bd 58 43 b7 bd d0 dc 77 bc 08 63 fa bd
       -0.122027844 -0.08948392 -0.015128329 -0.1222592
000010 ba f8 c2 3d 24 40 36 bd 9e 06 fd bd 68 20 ee bc
       0.09520097 -0.044494763 -0.12354778 -0.029068187
000020 48 8c c5 3c e4 32 8a 3d 02 b4 e9 3d b4 25 d3 bd
       0.024114743 0.06747988 0.11411287 -0.10309926
000030 6a 20 af 3d b0 cd 79 bc 20 02 45 3c 98 14 72 bd
       0.08551104 -0.015246794 0.012024432 -0.05910167
000040 c8 7b 5b bd 02 af d7 bd ec 4c 1b bd c6 9a 85 3d
       -0.053584844 -0.10531427 -0.037915155 0.06523661
000050 d4 ab 5e bd 7c c0 fd 3d ca e4 c6 bd b8 e5 d1 3d
       -0.054363087 0.12390229 -0.09711607 0.102488935
000060 2a d1 bf bd 14 2c 11 bd 72 a1 e4 3d ce d3 cb bd
       -0.09366067 -0.035442427 0.11163606 -0.09952508
000070 00 b4 4a 3a a2 4e be 3d 84 29 d2 3d ac 3b 6f bd
       0.00077325106 0.09292342 0.10261825 -0.058406517
000080 f0 d4 e0 bc e2 1b c4 3d 34 d5 53 3d 40 ea 18 bb
       -0.027445287 0.09575631 0.051717 -0.0023332983
000090 d4 bc 82 3d 54 2d 96 3d 70 c2 e6 3c 34 88 7e 3d
       0.06383672 0.073328644 0.028168887 0.062141612
0000a0 24 c0 64 3d 18 a1 8f bd 50 02 8b 3d 3a 12 93 bd
       0.055847302 -0.07013148 0.067875504 -0.07181211
0000b0 4c cb 4b 3d ac ad 61 bd 20 8d c6 bb 22 08 d7 3d
       0.049754426 -0.055097267 -0.006059304 0.10499598
0000c0 10 fd 8e bd 5c a9 45 3d 1e af ec bd b8 4b aa bd
       -0.069818616 0.048257217 -0.115568385 -0.083152235
0000d0 74 10 21 3d c4 5a d5 3d e0 51 fb 3d 4c c6 be bd
       0.03932233 0.10417703 0.12271476 -0.09315166
0000e0 ce 2c d6 3d 10 b8 69 bc 50 50 22 3d 02 e9 cd 3d
       0.104577646 -0.014265075 0.039627373 0.10054208
0000f0 da 7f b4 3d 04 75 53 bd 14 3b da 3d e2 13 f5 bd
       0.08813448 -0.051625267 0.106557995 -0.11966683
000100 c0 57 81 3b 50 d1 bd bd d8 9b 83 3c 36 5e e6 bd
       0.003947228 -0.09268439 0.016065523 -0.11248438
000110 b0 d2 6a bd b4 39 b0 3d 0c c6 fe bd b6 47 be bd
       -0.057329834 0.08604756 -0.12440118 -0.092910215
000120 d0 2d a5 3d 4e ee a2 bd c0 3c cb 3b 88 c7 cd bd
       0.08065379 -0.07955609 0.0062023103 -0.10047823
000130 94 87 fd bd 66 66 f2 3d aa da de bd e0 60 47 3d
       -0.12379375 0.11835937 -0.108815506 0.04867637
000140 50 fd b8 3c 64 ae 3b bd e0 bd bd 3d 6a b2 e1 bd
       0.022581726 -0.04582061 0.092647314 -0.11020358
000150 b4 eb 92 bd 0a 15 aa 3d c8 de c1 3d 3c 4d cc 3d
       -0.07173863 0.08304794 0.0946632 0.09975669
000160 d2 0c e3 bd e0 d3 37 bc 08 15 e7 3c 60 81 6f bd
       -0.1108643 -0.0112199485 0.02820827 -0.05847299
000170 1c 41 5b bd 06 db be bd 4e dd d6 bd 54 b8 5d bd
       -0.05352889 -0.09319119 -0.10491429 -0.054130867
000180 80 97 d1 bc a8 94 61 bd 00 ce cd ba 00 1d 2b ba
       -0.025584936 -0.05507341 -0.0015701652 -0.00065274537
000190 34 b3 94 3d 60 43 05 3c a8 52 82 bd 24 85 c8 bd
       0.07260743 0.008133739 -0.06363422 -0.097910196
0001a0 4e 8c 89 bd 24 8e 17 3d 0a 5f 9d 3d bc 3e 15 bd
       -0.06716214 0.03700079 0.07684143 -0.03643678
0001b0 60 e6 c3 3b b4 ef 99 bd c0 00 dc bd 3e e0 a5 3d
       0.0059783906 -0.07516423 -0.107423306 0.080994114
0001c0 ca 6d f0 bd e8 14 e4 3c 70 72 7a bd a8 f9 e6 bd
       -0.117396906 0.027842 -0.061144292 -0.11278087
0001d0 00 1c a5 39 e6 4a b0 3d ba e3 dc bd ae 8c c5 3d
       0.00031492114 0.08608036 -0.10785623 0.09645973
0001e0 8a 9d b5 3d 2c 47 8d 3d fc fc a7 3d 9c 30 43 bd
       0.08867939 0.068983406 0.0820255 -0.04765378
0001f0 20 5a 95 3d 46 dc 98 bd 24 ef 0a bd 82 6e 9f bd
       0.072925806 -0.07463889 -0.03391947 -0.077847496
000200 8a be 99 bd 00 8c 5c 3d d0 39 26 3c b2 7d f8 bd
       -0.075070456 0.053844452 0.0101456195 -0.121333495
000210 d6 d9 ca bd 00 ef c9 3a 4c c9 2b bd 34 86 a7 3d
       -0.0990483 0.001540631 -0.04194002 0.08179894
000220 7c 23 b7 3d 20 c9 32 bc 58 f4 c6 bc 88 11 33 3d
       0.08942315 -0.01091221 -0.024286434 0.04371789
000230 40 fc 82 3c 46 48 aa bd ce df 88 3d 18 c5 b9 bd
       0.015989423 -0.08314566 0.06683312 -0.09070796
000240 e6 e7 d6 3d 2e 63 ad bd b8 e8 13 3d 74 3a e4 bd
       0.1049345 -0.08466183 0.03611061 -0.111439615
000250 00 d2 25 3c 2e 87 98 bd b0 c0 a1 3c 8e ac d2 3d
       0.010120869 -0.074476585 0.0197452 0.102868184
000260 9c 1b f2 bd 1c 96 50 bd f8 2a b9 bc 3c 22 2d 3d
       -0.11821672 -0.050924405 -0.022603497 0.042268977
000270 e0 a6 e8 3d 7e c5 e1 bd d6 53 f5 3d 20 3f a7 bd
       0.11359954 -0.11023997 0.11978881 -0.08166337
000280 20 44 1d 3c b2 39 b6 3d 78 06 f7 bd 00 32 ba bd
       0.009598762 0.08897723 -0.12061781 -0.09091568
000290 b4 e5 0a 3d 60 34 f9 bc 80 84 e1 3a 42 85 9b bd
       0.03391047 -0.030420482 0.0017205626 -0.07593776
0002a0 c0 3c ac 3b 86 24 b8 3d a8 1c 21 3d 2a bc c7 bd
       0.0052562654 0.08991341 0.03933397 -0.09752686
0002b0 e8 cb b8 3d 00 8b 12 ba 26 08 d7 3d 70 70 b6 3c
       0.09023267 -0.00055901706 0.10499601 0.022270411
0002c0 54 46 ac bd ec 3f 7e bd c0 7e d7 bb 80 55 ed 3b
       -0.084118515 -0.06207268 -0.006576389 0.0072428584
0002d0 62 dc 8c bd 3e 83 84 bd 74 a5 a0 bd 48 d7 d4 bd
       -0.06877972 -0.06470345 -0.07844058 -0.10392624
0002e0 f0 80 a1 3c a0 2c 21 3c 44 89 fb 3d 4e d6 b0 bd
       0.019714803 0.0098373 0.12282041 -0.086346254
0002f0 3e da 94 3d 40 e1 70 3b ac c8 e6 bd a0 35 eb bc
       0.07268189 0.0036755353 -0.11268744 -0.028712094
000300 0c f8 21 3d 20 f5 c7 3b ce 9f a7 bd f8 2e de bd
       0.039543197 0.006102219 -0.08184777 -0.10848802
000310 b0 65 28 3d 40 17 04 3c 6a 5d d4 bd 78 06 a9 bc
       0.0411126 0.008062184 -0.1036938 -0.020632967
000320 6a 41 8e 3d a0 56 a1 3b bc 71 8b 3d 14 43 b7 3d
       0.069460705 0.0049236566 0.068088025 0.08948341
000330 6a 7d bf 3d 1c 5c 50 3d b0 aa 80 bd 58 bb 21 bd
       0.09350093 0.050869092 -0.06282556 -0.039485306
000340 7a 95 ba 3d e0 c9 1b bc 98 13 44 bd 64 d8 fe 3d
       0.09110542 -0.00950858 -0.04787025 0.12443617
000350 a0 60 e0 3b ac c2 1f 3d c0 ad 10 bc 66 e4 bf 3d
       0.006847456 0.039004013 -0.008830488 0.093697354
000360 d0 d7 f8 3c 00 9f f3 bd 00 fb 3b 3b a0 e8 c4 3c
       0.030376345 -0.11895561 0.0028683543 0.024036705
000370 e8 22 46 bd 08 24 e0 3c a8 ca b2 3c 58 42 0d bd
       -0.048373133 0.027360931 0.02182515 -0.0344871
000380 e0 5d a3 3d 92 45 b8 bd b8 03 50 bd 38 27 b8 3c
       0.079768896 -0.089976445 -0.050784796 0.022479638
000390 10 b4 ff bd de b3 f2 bd 50 8b 9f 3c 30 f3 b0 bd
       -0.12485516 -0.11850713 0.019475609 -0.08640134
0003a0 d0 d6 4b 3d 94 e6 63 bd 6e d5 83 bd 3c 5b 6b 3d
       0.049765408 -0.05563982 -0.06437193 0.057460055
0003b0 d0 ad bd 3d 78 6b ad 3d 38 0e 25 3d 2a 71 80 bd
       0.09261668 0.08467764 0.040296763 -0.06271584
0003c0 e4 1e 7d bd 98 65 57 3d 80 04 11 bd 80 b7 5b 3b
       -0.061797038 0.05258712 -0.035404682 0.0033526123
0003d0 ac b9 36 bd a0 48 87 bb 48 65 97 bd 40 86 97 3b
       -0.044610664 -0.0041285306 -0.07392365 0.004624158
0003e0 20 4e ca bb b6 3b a4 bd 44 e1 47 3d b8 4c e5 bc
       -0.006173864 -0.080192015 0.048798814 -0.027990684
0003f0 30 da ae bd ea 39 e2 bd 84 ac 4c 3d 16 86 a6 bd
       -0.0853771 -0.110462025 0.04996921 -0.081310436

transmitter.2.bias f4 [64]
000000 60 98 87 3b 24 33 13 3d 18 76 89 bc 38 3a eb bd
       0.0041380376 0.035937443 -0.016779944 -0.11485714
000010 fe ad 85 3d 20 d7 47 bd 42 72 86 bd 0c 72 47 bd
       0.06527327 -0.048789144 -0.06564762 -0.048692748
000020 64 79 16 bd 10 80 43 bc e0 a3 9e bd 58 c0 46 3d
       -0.03673686 -0.011932388 -0.077461004 0.048523277
000030 b8 e8 b3 bc 7c d2 ac 3d b2 5f 8c bd f6 b4 ce bd
       -0.021961555 0.08438584 -0.0685419 -0.10093109
000040 a4 66 10 3d f6 af d8 bd f0 96 2f 3d 2c b9 4e bd
       0.035254136 -0.10580437 0.042868555 -0.050469562
000050 3c ca e4 3d 56 0f af 3d 78 c8 88 bc 44 26 ac bd
       0.11171386 0.08547847 -0.016697153 -0.08405736
000060 e6 6b eb bd cc ed 40 3d 7c 44 94 3d 9e f6 8a bd
       -0.11495189 0.04710178 0.07239625 -0.0678532
000070 d6 58 b3 bd 8a 74 df bd 08 9c 3c bd 80 e4 e2 3c
       -0.087571785 -0.109109 -0.04604724 0.027696848
000080 08 5d b8 3d de 7c e1 3d 24 a2 32 3d f6 ad f7 3d
       0.09002119 0.11010145 0.04361166 0.12093727
000090 be cb eb 3d 9c 4c ec 3d ac 40 10 bd 30 9f 02 3d
       0.1151347 0.115380496 -0.035217926 0.031890094
0000a0 b6 ca a0 bd f8 eb 26 3d 68 ff 3a bd 62 56 fb 3d
       -0.07851164 0.04075238 -0.04565373 0.122723356
0000b0 b0 44 bb 3c a0 7b 4e 3c d4 54 0e 3d 24 66 ed bd
       0.022859901 0.012602717 0.034748867 -0.115917474
0000c0 00 7f 99 3d 40 53 bc 3c 7e b9 ed 3d 92 3d d5 bd
       0.074949265 0.022988915 0.116076455 -0.10412134
0000d0 50 38 62 bc 70 a5 92 bc b8 e6 bd 3d 2c 7b 95 3d
       -0.013807371 -0.017901152 0.09272522 0.07298884
0000e0 16 9d 9a 3d ea 0b a5 bd 04 28 c5 3d b6 97 f3 bd
       0.07549493 -0.08058913 0.09626773 -0.11894171
0000f0 f8 36 ed bc b0 f8 a4 bc 00 b1 3c ba 3e 84 c0 bd
       -0.028956875 -0.020138115 -0.0007198006 -0.09400223

receiver.0.weight f4 [64, 64]
000000 cc 16 39 bd f8 6f 5d 3d 7a b2 dd bd a0 f7 37 3d
       -0.045187756 0.05406186 -0.10825057 0.044913888
000010 6c a4 b5 bd 70 87 90 3c 24 5e a5 3d 18 04 c0 bd
       -0.088692516 0.017642707 0.080745965 -0.09375781
000020 c6 5a 92 bd b2 2d cf bd a0 91 ef 3b cc f2 45 bd
       -0.0714622 -0.101161376 0.007311061 -0.048327252
000030 30 70 93 bc 3e 77 d0 3d 40 3a 9e 3d 88 15 c5 bc
       -0.017997831 0.10178994 0.07725954 -0.024058118
000040 60 08 e9 bb f0 40 2f 3d cc 82 c6 bd 38 44 68 3d
       -0.007111594 0.04278654 -0.09692916 0.056705683
000050 a4 ce 35 bd 80 34 5d bb 6a 59 bc bd e0 85 a6 3c
       -0.04438652 -0.0033753216 -0.09196742 0.020327508
000060 98 c9 e8 3d 84 38 bf 3d d8 c6 35 bd cc 92 ed bd
       0.11366576 0.093369514 -0.044379085 -0.11600265
000070 50 92 a5 3c 60 ea c1 3c c0 d3 af 3b a8 d3 3c bd
       0.020211369 0.023671329 0.0053658187 -0.04610029
000080 32 25 f7 bd c4 06 dd bd 8c 4f 41 bd 78 2b 7a bd
       -0.12067641 -0.10792306 -0.047195002 -0.06107661
000090 38 5c 34 3d 60 57 95 bc 8c bb 09 3d 92 3a e2 3d
       0.04403326 -0.01823014 0.033626124 0.11046328
0000a0 e8 85 a5 bc 08 7e f0 bd 3c 26 65 3d c0 05 31 bd
       -0.020205453 -0.117427886 0.055944666 -0.043218374
0000b0 fc 6f d3 3d 98 85 a6 3c 9c 1b f4 3d 96 ad bd 3d
       0.10324094 0.020327374 0.119193286 0.092616245
0000c0 68 8e aa 3d 5e 45 e8 bd 2a 97 dd bd 92 f4 99 bd
       0.08327943 -0.11341356 -0.10819848 -0.07517351
0000d0 aa 5c c3 3d e0 85 cd bb f0 60 cc bc 42 af d1 bd
       0.09539159 -0.0062720627 -0.024948567 -0.10238506
0000e0 b0 67 ca 3c 6e 23 de 3d 52 94 d4 bd 46 8e d1 3d
       0.024707645 0.108466014 -0.10379852 0.10232215
0000f0 b2 0a fd bd e0 83 55 bd cc 97 3b 3d 86 8d ec bd
       -0.123555556 -0.05212772 0.04579906 -0.11550431
000100 7e fe f3 3d 08 f8 f7 bc 0a 29 cf bd 00 e0 b9 3d
       0.11913775 -0.030269638 -0.101152495 0.09075928
000110 28 5d cf 3d 52 a5 a3 bd 7a 50 fd bd f0 a3 07 bc
       0.1012519 -0.07990517 -0.12368865 -0.008278832
000120 ca dc da 3d a8 19 ca 3c 96 ef c1 3d 78 77 8f bc
       0.106866434 0.024670437 0.094695255 -0.017513022
000130 e0 d2 f3 bb cc 38 4e 3d c0 06 11 bb f0 5e b1 3d
       -0.0074409097 0.050347134 -0.0022129267 0.08660686
000140 a0 1b 37 3d 52 d7 d5 bd 08 67 f1 3d 02 f4 bb 3d
       0.04470408 -0.1044146 0.1178723 0.091774
000150 e0 37 86 bd 92 f5 c2 3d d6 1f da bd d4 24 97 3d
       -0.06553626 0.09519495 -0.106506035 0.07380071
000160 de c5 ba bd 98 0d e3 bc 88 35 a6 3c 80 5d 9d 3a
       -0.091197714 -0.027716443 0.020289198 0.0012006015
000170 1e 23 a2 3d 82 e8 d0 bd 1e 9d d9 bd a0 22 be 3c
       0.07916854 -0.10200597 -0.10625671 0.02320987
000180 f8 0f f8 bd 38 81 dd 3c 58 4e a7 bc 84 1a 4d bd
       -0.12112421 0.027039155 -0.0204231 -0.050074115
000190 2c 59 80 bd 70 9f 6a 3c 38 3e bf 3d a4 43 b1 3d
       -0.06267008 0.014320239 0.09338039 0.086554796
0001a0 60 0f af 3b 80 5a d4 bb c0 5b ee 3d 00 97 8d 3c
       0.005342409 -0.006480515 0.11638594 0.017283916
0001b0 a6 e8 d5 bd 68 1b 79 bd 5c f8 a8 bd fc 9f ed bd
       -0.10444765 -0.060817152 -0.08250496 -0.1160278
0001c0 28 eb a7 3c ea fa df 3d 08 25 8e bc 00 8e db 3b
       0.020497873 0.1093653 -0.017351642 0.0067002773
0001d0 48 e7 3b 3d e0 ea d1 3c 1c 27 2a 3d b0 d9 3c 3c
       0.045874864 0.025624692 0.041541204 0.01152651
0001e0 0a 89 d3 bd f0 d8 fe 3c 74 7d df bd 58 1f 44 3d
       -0.103288725 0.031109303 -0.109126 0.047881454
0001f0 90 5b 64 3c 40 6b 33 bc 74 a2 03 3d 5c ff 43 3d
       0.013937846 -0.010950863 0.03213735 0.04785095
000200 ca 69 91 bd ac a5 10 bd e0 b0 51 3d 98 d2 bd 3c
       -0.07100256 -0.035314247 0.05119407 0.023171708
000210 d4 c4 d1 3d b4 2b ef 3d aa 3b c9 3d ec 09 95 bd
       0.1024262 0.116782576 0.09825833 -0.07277283
000220 16 44 ba bd 2e 39 b2 bd d6 c4 ea bd 1e 47 9d bd
       -0.090950176 -0.087023124 -0.11463325 -0.0767958
000230 fe 91 fb 3d d0 7b 0e 3c d8 57 e5 bc a0 05 84 bb
       0.12283705 0.008696511 -0.027995989 -0.004028991
000240 9a a9 b3 3d cc 11 a1 bd f2 63 88 bd e8 a9 47 3d
       0.08772583 -0.078647226 -0.06659688 0.04874602
000250 a4 e9 e0 3d 60 a2 df bc 60 a1 f7 bd 52 fa bd 3d
       0.109820634 -0.027299106 -0.12091327 0.092762604
000260 38 4d 14 3d 1e 33 9e 3d 50 a6 97 3d f8 e5 bb bd
       0.036206454 0.077245936 0.074047685 -0.091747224
000270 00 f6 7d 3a a0 ad a9 3d 44 86 f9 3d 48 71 8e 3c
       0.0009687841 0.082850695 0.12183812 0.017388001
000280 4a ef 87 3d 28 33 c5 3d 1c 50 90 3d 64 c9 23 3d
       0.06637438 0.09628898 0.0704653 0.039986983
000290 e8 51 a8 3c ec 96 29 3d 7a 75 b5 bd 44 ac 43 bd
       0.020546868 0.041403696 -0.088602975 -0.047771707
0002a0 50 60 8f 3c 76 a6 8f 3d c0 16 2a bd b4 6e 40 bd
       0.01750198 0.07014172 -0.041525602 -0.046980575
0002b0 14 0a 0e bd e8 a6 a6 bc ca cf ad 3d d0 83 93 3c
       -0.03467758 -0.020343259 0.08486898 0.018007189
0002c0 78 1d 45 bd b0 31 3a bd 48 8a d8 bd 90 70 44 bd
       -0.048123807 -0.045457542 -0.1057325 -0.04795891
0002d0 fc c4 9d 3d 08 b6 dd bc 48 00 b6 bc 68 72 38 3d
       0.077035874 -0.027064338 -0.022216931 0.04503098
0002e0 26 be f6 bd ce c4 e6 3d 78 09 38 3d 58 8e ae 3d
       -0.12047987 0.11268006 0.044930905 0.08523244
0002f0 80 24 c7 bb e0 00 61 3c 64 66 1f bd 32 ff c9 3d
       -0.006077349 0.013733119 -0.038916007 0.09863128
000300 ae 1e a5 3d a0 a3 d9 bc e4 74 58 3d 94 20 9c 3d
       0.08062492 -0.02656728 0.05284585 0.07623401
000310 10 8d fa 3c 50 ff 9c 3c 58 d5 c7 3c d8 db f2 bd
       0.030584842 0.019164711 0.024393722 -0.11858338
000320 6e f2 fc bd 22 6d 9d bd 2e 8b aa 3d f0 73 59 3d
       -0.12350927 -0.07686831 0.08327328 0.053089082
000330 76 d2 f9 bd a8 c3 eb 3c 84 f4 53 bd 66 32 ef bd
       -0.12198345 0.02877982 -0.05174686 -0.116795346
000340 36 bd 8f 3d ea 4d cd 3d 40 d6 05 bd a0 55 7a bc
       0.07018511 0.100246266 -0.032675028 -0.015279204
000350 06 60 e8 3d de ff 8b 3d d0 54 d8 3c 3c 88 a9 bd
       0.1134644 0.06835912 0.02640763 -0.08277938
000360 18 49 b3 3d d0 67 fb 3d f8 8c e7 3d 9e 53 ce bd
       0.08754176 0.1227566 0.113061845 -0.100745425
000370 fe 9a b2 bd 1c e0 d6 bd 68 36 ea bc 44 e8 f9 3d
       -0.08720969 -0.10491964 -0.028590396 0.12202504
000380 98 f7 e8 bc 00 b5 db 3b 82 5e 93 bd f4 6a fb 3d
       -0.028438374 0.0067049265 -0.0719576 0.12276259
000390 22 36 db bd e0 32 75 3c 5a 32 96 3d 0c 99 10 3d
       -0.107036844 0.014965743 0.073338225 0.035302207
0003a0 20 06 56 bd dc 82 f2 bd 28 34 7f bd 58 6a bf bd
       -0.052251935 -0.11841366 -0.0623056 -0.09346455
0003b0 20 6b 3f bd e8 ba a9 bd 60 a4 66 bd f4 39 05 bd
       -0.04673302 -0.08287603 -0.056309104 -0.03252597
0003c0 b0 d7 fd bd fa 60 b5 bd 08 11 a8 3c 6a 4b e8 bd
       -0.12394655 -0.088563874 0.020515934 -0.11342509
0003d0 70 4c ce bc 10 0a 00 3d d0 9b ea 3d fc 38 dd 3d
       -0.025182933 0.031259596 0.114555 0.108018845
0003e0 8e 29 bf 3d 14 ab 30 bd c0 8c 36 3c d4 88 15 bd
       0.09334098 -0.043131903 0.011141956 -0.036507443
0003f0 a0 5c cd 3d 1c 66 96 bd 72 54 aa bd a0 2d fa bd
       0.100274324 -0.073436946 -0.08316888 -0.122157335

receiver.0.bias f4 [64]
000000 3a 78 94 bd 24 e5 e2 bd 50 43 c1 3d 10 65 bd bd
       -0.07249494 -0.11078861 0.09436667 -0.09247792
000010 6c ab cf 3d f0 87 e2 3d 08 b1 4b bd 90 84 96 3d
       0.10140118 0.11061084 -0.049729377 0.07349503
000020 22 eb a9 3d 50 ed 3a bc 2e 9e b6 bd b8 6b e4 bd
       0.08296801 -0.011409119 -0.08916889 -0.11153358
000030 c4 a0 93 3d c8 9f 8d 3d 70 87 3f 3c c6 8b e2 3d
       0.07208398 0.069152415 0.011690006 0.11061816
000040 ec 04 2e 3d 28 c6 af bd 9c 07 0e 3d 5c 2b 48 3d
       0.042485163 -0.08582717 0.034675226 0.048869476
000050 0c 70 68 bd c6 34 a4 3d 44 0c dc 3d 46 08 ff 3d
       -0.05674748 0.08017878 0.10744527 0.1245275
000060 00 4c 72 bd 94 03 b5 bd fa 5e e1 3d b0 81 1e 3d
       -0.05915451 -0.08838573 0.110044435 0.0386979
000070 76 43 93 bd fc 81 75 bd e8 bd 81 3c b8 5c a6 bd
       -0.071906015 -0.059938416 0.015837625 -0.081231534
000080 70 52 4d bd 40 c5 b3 bb de 91 86 bd 80 8a 31 bd
       -0.050127447 -0.0054861605 -0.06570791 -0.043344975
000090 50 a9 63 bd 5c 95 17 bd c0 e7 92 bb f4 11 16 3d
       -0.05558139 -0.037007675 -0.004483193 0.036638215
0000a0 60 c2 75 3c b4 73 7f bd 68 42 dc 3d f6 da 94 3d
       0.014999956 -0.062366202 0.107548535 0.07268326
0000b0 28 44 2a bd 40 1b a5 3c 28 0a 79 3d d4 b5 e9 bd
       -0.041568905 0.020154595 0.0608007 -0.11411634
0000c0 1c b7 09 3d 58 1e 95 3d 1a 76 c3 3d c0 d3 33 bd
       0.033621892 0.07281178 0.095440105 -0.043903112
0000d0 50 84 86 bd 2e a0 89 3d b2 13 94 3d f8 a8 d5 3c
       -0.06568205 0.06720005 0.07230319 0.026081547
0000e0 d6 1f e4 3d f0 e2 55 bc b0 08 a5 bd 1c d6 69 bd
       0.11138885 -0.013054594 -0.08058298 -0.057088956
0000f0 3e 94 f9 3d 58 87 9d 3d 4c ae 26 3d 94 ae 3b 3d
       0.12186478 0.076918304 0.040693566 0.045820788

receiver.2.weight f4 [2, 64]
000000 68 da 93 bc 22 3f ea 3d 38 c2 f7 bd e8 88 b3 3c
       -0.01804848 0.11437823 -0.12097591 0.021915868
000010 64 f0 17 3d 2e c1 ea 3d 20 b3 c2 3d 50 3e 98 bd
       0.03709449 0.11462627 0.09506822 -0.0743376
000020 80 00 e4 3b 3e cf c6 bd 20 30 22 3c 08 12 b7 3d
       0.0069580674 -0.09707497 0.009899169 0.08938986
000030 d2 d7 e7 bd b0 30 a9 3c e0 cd d4 3c 86 0d f1 3d
       -0.11320461 0.020653099 0.025977075 0.117701575
000040 28 b0 5a bd a2 13 91 3d d8 75 c3 3c 42 33 c7 3d
       -0.053390652 0.07083823 0.023859903 0.097265735
000050 e8 b6 2e 3d 80 14 76 bd 0c 0d ee 3d 3c 2c 2b 3d
       0.0426549 -0.060078144 0.11623582 0.041790232
000060 3c de a5 bd 10 1b 45 bc dc 4e c4 bd 88 fb e0 bc
       -0.080990285 -0.012030378 -0.09585354 -0.02746369
000070 3c 9c 16 bd 06 c9 b1 3d 04 ad c7 bd 0a 2f a9 3d
       -0.03677009 0.0868092 -0.09749797 0.08260925
000080 f0 b4 2d 3d 18 c7 40 bd 40 3a 1d bd c0 b0 28 bd
       0.042408884 -0.04706487 -0.03838563 -0.041184187
000090 20 ce 0b bc c0 d4 4a 3d a0 2d 9d bb d8 b3 b6 bd
       -0.008533031 0.0495193 -0.0047966987 -0.08921021
0000a0 4c e9 cd 3d 70 19 07 bc 40 42 89 bc 20 e4 2f bd
       0.100542635 -0.008245811 -0.016755223 -0.042942166
0000b0 e0 7a 19 3d 4e c9 92 3d 90 90 1a 3c d8 16 dd 3c
       0.0374707 0.07167302 0.00943388 0.026988432
0000c0 56 e3 c3 3d 00 b3 88 3a d6 5f b7 bd e0 19 b2 bc
       0.09564845 0.0010429323 -0.08953826 -0.021740854
0000d0 98 d1 96 bc 78 dd c9 3c 46 d7 eb 3d ba ee f6 bd
       -0.018410489 0.024641737 0.115156695 -0.12057252
0000e0 40 5b ff 3c 68 d7 a8 3c 48 f4 ef bd 00 f7 2b ba
       0.031171441 0.020610526 -0.11716515 -0.0006559938
0000f0 fe 35 d8 bd 60 f3 7e 3c 00 82 67 3d a0 b3 fb bd
       -0.10557173 0.015560955 0.056520462 -0.1229012
000100 8a 06 bc 3d e0 d8 8c bc 98 2f e3 bc 56 07 a3 3d
       0.09180935 -0.017193258 -0.027732655 0.079603836
000110 d0 18 44 3c c0 47 41 bd 08 60 b1 3c c4 05 5f 3d
       0.011968806 -0.047187567 0.021652237 0.054448858
000120 c4 3c 92 3d 98 5c d9 3d 08 12 26 bd 00 28 0c 39
       0.071404964 0.10613364 -0.04054454 0.00013366342
000130 86 c7 9b bd d8 21 67 3d 9c 38 b1 3d 22 27 cf 3d
       -0.076064155 0.05642876 0.086533755 0.10114886
000140 82 54 e2 3d ba 92 eb 3d 88 96 b0 bc fe dc d7 bd
       0.11051275 0.11502595 -0.021556154 -0.10540198
000150 2a 0a 88 3d 24 37 3c bd 40 b9 b6 bb 40 30 03 bb
       0.06642564 -0.045951024 -0.0055762827 -0.0020017773
000160 08 5d cc 3d 52 15 c8 3d 1e c0 c4 3d c0 1f 6a 3b
       0.09978682 0.097696915 0.09606956 0.003572449
000170 98 23 d6 bc a0 b0 98 3d d8 f9 54 3d f8 ab 81 bd
       -0.02614002 0.074555635 0.051996082 -0.063316286
000180 e8 6e db bd cc 53 ac bd 94 f8 d4 bd 10 39 c8 bc
       -0.10714513 -0.084144205 -0.10398975 -0.024441272
000190 a6 ee f7 bd a6 8f d2 3d 94 7e 1a bd be a5 8c bd
       -0.121060655 0.10281305 -0.03771837 -0.0686755
0001a0 40 6b 1f 3c 7c 37 6b bd e6 bf fc 3d ba e0 97 bd
       0.00973016 -0.05742596 0.12341289 -0.0741591
0001b0 00 57 eb 3b 58 d0 51 3d d0 69 30 3d 58 d0 1d 3d
       0.007182002 0.051224083 0.04306966 0.03852877
0001c0 d4 88 d0 bd 2e c1 d3 bd 56 7d a7 3d 90 a4 81 3c
       -0.10182348 -0.103395805 0.08178203 0.01582554
0001d0 d6 5d c1 3d b2 f4 c9 bd 5a 89 d4 3d 80 cf c0 ba
       0.09441726 -0.09861125 0.1037776 -0.0014710277
0001e0 80 ca 23 bb b0 09 9c 3d d0 04 cc 3c e0 65 12 bd
       -0.0024992526 0.07619035 0.024904639 -0.035741687
0001f0 06 2a ad bd 60 d2 d5 bb 60 bf 1d 3d 88 0d 3a bd
       -0.08455281 -0.006525323 0.038512588 -0.04542306

receiver.2.bias f4 [2]
000000 54 e3 e1 bd b0 61 87 3d
       -0.110296875 0.06610429
