channelpara.ckpt (torch, 37639 bytes, 8 tensors)

transmitter.0.weight f4 [64, 2]
0	0x3f238bf7	0.63885444
1	0xbef86370	-0.48513365
2	0xbf1a8e78	-0.6037364
3	0x3f179ae9	0.5922075
4	0x3d9739f7	0.07384103
5	0x3e80252e	0.25028366
6	0x3ee352f4	0.44399226
7	0x3ec30bba	0.38094884
8	0x3f11c26d	0.56937295
9	0x3ef7549b	0.48306736
10	0xbf12633a	-0.5718266
11	0xbd867df5	-0.06566993
12	0x3ec46efb	0.3836592
13	0xbecc2c05	-0.39877334
14	0xbdc8d39d	-0.09805987
15	0xbee1331a	-0.439843
16	0xbf0f4e46	-0.5597881
17	0x3f274971	0.6534644
18	0xbf05ca94	-0.52262235
19	0x3f34be24	0.7060263
20	0x3eb0514f	0.34437034
21	0x3e65e99a	0.22452393
22	0xbea4eaed	-0.32210484
23	0xbf315904	-0.6927645
24	0xbf2dcbac	-0.67888904
25	0xbdbf90ba	-0.09353776
26	0xbe94853e	-0.29007906
27	0x3ec4b55f	0.38419625
28	0x3f272240	0.65286636
29	0xbf23c53a	-0.6397282
30	0x3f071e2c	0.52780414
31	0x3f0e8d6c	0.5568454
32	0x3f063b5b	0.5243432
33	0x3ee3d781	0.44500354
34	0xbea3f192	-0.3202024
35	0xbf2317ff	-0.6370849
36	0x3df28f55	0.11843745
37	0x3e810a67	0.2520325
38	0x3f0a336d	0.5398472
39	0x3e444dca	0.19170299
40	0x3f199326	0.59990156
41	0xbf313631	-0.69223315
42	0x3d82de52	0.063900605
43	0x3d0d5aa1	0.03451026
44	0x3f137c01	0.5761109
45	0xbf245c36	-0.642032
46	0xbd095c99	-0.033535574
47	0xbefa4c97	-0.48886558
48	0xbd0f60f1	-0.03500456
49	0x3e704bd6	0.23466429
50	0xbf218838	-0.6309848
51	0xbe8f8161	-0.28028396
52	0x3f1285f6	0.5723566
53	0x3ee999ff	0.45625302
54	0x3ec462a4	0.38356507
55	0xbdfa97c7	-0.122359805
56	0xbd9c39c8	-0.076282084
57	0xbe5d05c1	-0.21584226
58	0xbedd7b9f	-0.43258378
59	0x3ef0d268	0.47035527
60	0xbf28b311	-0.65898234
61	0xbf154014	-0.583009
62	0x3f13ffe4	0.57812333
63	0x3d83b50f	0.064310186
64	0x3e970877	0.29498646
65	0xbec490d5	-0.38391748
66	0x3f168f90	0.5881281
67	0x3e34413c	0.1760301
68	0x3db064c4	0.086129695
69	0x3e4fd11f	0.20294617
70	0xbefa4b5d	-0.48885623
71	0x3f2ee39f	0.6831607
72	0x3c4f6ac5	0.012659733
73	0x3eeca15a	0.4621685
74	0x3efe6c61	0.49692062
75	0xbf33479f	-0.7003116
76	0x3eab6972	0.33478886
77	0x3e5d77b6	0.21627697
78	0x3e31290e	0.17300817
79	0x3f03ac8e	0.5143517
80	0x3de57fc7	0.11206012
81	0x3e9daa3d	0.30793944
82	0x3ededaef	0.43526408
83	0xbee1f52e	-0.4413237
84	0xbf1d0659	-0.6133781
85	0xbebcff76	-0.3691365
86	0xbd9e355a	-0.0772502
87	0xbe052dd6	-0.13005766
88	0xbd7bd5aa	-0.061483063
89	0x3d07e9a1	0.03318179
90	0x3e7bb441	0.2458048
91	0x3f27ced3	0.65549964
92	0x3e92404c	0.2856468
93	0xbe140aab	-0.14457195
94	0x3e94deb4	0.2907616
95	0x3ec3357a	0.38126737
96	0x3e06072f	0.13088678
97	0xbe2cd7d3	-0.16879205
98	0x3e31df06	0.17370233
99	0x3e711442	0.23542884
100	0xbdafca65	-0.085835256
101	0x3eb54d13	0.35410365
102	0x3e952e98	0.2913711
103	0xbf1f2dd1	-0.62179285
104	0x3e1f303e	0.15545747
105	0x3f0096ad	0.50229913
106	0xbf0167a5	-0.50548774
107	0x3e26d65b	0.16292708
108	0xbe0e9aee	-0.13926288
109	0xbc029479	-0.007969969
110	0xbead7f7f	-0.33886334
111	0x3eb60d82	0.3555718
112	0xbcf1c486	-0.029512655
113	0x3ddb2831	0.10701025
114	0x3e5a50ba	0.21319857
115	0x3f012fb7	0.5046343
116	0xbb7bd2ed	-0.0038425282
117	0x3ed370d3	0.41297016
118	0x3f131b18	0.57463217
119	0xbf1b13a6	-0.60576856
120	0x3ea48a65	0.32136837
121	0x3f303b1d	0.688402
122	0x3ec456f6	0.38347596
123	0x3ef9309c	0.486699
124	0x3e64bf94	0.22338706
125	0xbe4f61dd	-0.20252176
126	0x3e9624cd	0.29324952
127	0xbeca8ae7	-0.395591

transmitter.0.bias f4 [64]
0	0x3f09e873	0.53870314
1	0x3e258f3a	0.16167918
2	0x3f0a9fa4	0.5414984
3	0xbe14e322	-0.1453977
4	0xbdb413f5	-0.08792869
5	0x3edad521	0.4274073
6	0xbc20f42c	-0.00982384
7	0xbf274987	-0.6534657
8	0xbed8d102	-0.4234696
9	0x3ee81725	0.45330158
10	0xbefd7bc9	-0.49508503
11	0x3dea99e4	0.114551336
12	0xbe2fe9ee	-0.17179081
13	0x3ea5a082	0.3234902
14	0xbe81f6cc	-0.25383604
15	0xbf071981	-0.5277329
16	0xbf2315b0	-0.6370497
17	0xbf337392	-0.7009822
18	0xbe2e137b	-0.16999619
19	0xbee36f7e	-0.44421
20	0xbe66097d	-0.22464557
21	0xbf34df3e	-0.7065314
22	0xbf1d95ce	-0.6155671
23	0x3f013f99	0.5048767
24	0xbdeb2e1f	-0.11483406
25	0x3e10dd2a	0.14146867
26	0xbe2b9c69	-0.16758884
27	0x3f014e26	0.5050987
28	0x3d5f3c31	0.054500762
29	0xbda3113e	-0.07962273
30	0x3e881822	0.26580912
31	0x3f03c33e	0.5146979
32	0x3d04f5bc	0.032460913
33	0xbf0fce48	-0.56174135
34	0xbf2716c7	-0.6526913
35	0x3f07361d	0.52816945
36	0x3f273482	0.65314496
37	0xbd46a1ba	-0.04849408
38	0x3e50d2b0	0.20392871
39	0x3ecbf78f	0.3983731
40	0xbecefb6f	-0.40426204
41	0x3d168924	0.03675188
42	0x3ecd2e96	0.40074605
43	0xbe8ad9e2	-0.27119356
44	0x3e9382df	0.28810784
45	0xbdba6341	-0.091009624
46	0x3eeb8000	0.45996094
47	0x3f011a00	0.504303
48	0x3f2d348a	0.67658293
49	0xbed4eb3a	-0.41585714
50	0xbefd007e	-0.49414438
51	0xbf347bf5	-0.70501643
52	0xbebfab7f	-0.3743553
53	0x3f164036	0.5869173
54	0xbf29fd43	-0.6640207
55	0xbf334cb4	-0.70038915
56	0x3ef1f093	0.47253856
57	0xbf1d1314	-0.61357236
58	0x3e596b50	0.21232343
59	0x3f081077	0.53150123
60	0x3f0c9937	0.5492129
61	0xbe440f09	-0.1914636
62	0x3b519305	0.00319785
63	0x3ecaa59b	0.39579472

transmitter.2.weight f4 [64, 64]
0	0x3d8c3106	0.06845288
1	0x3db15262	0.086582914
2	0x3d9e1f96	0.07720868
3	0xbda1747e	-0.07883547
4	0x3d1705d0	0.036870778
5	0x3dce131a	0.10062237
6	0x3ce62ae8	0.028096631
7	0xbdad4d62	-0.08462025
8	0xbd7dbc7c	-0.06194733
9	0x3db2f112	0.08737387
10	0xbdf3d380	-0.11905575
11	0xbd5442ec	-0.051821634
12	0xbd6ac95c	-0.057320938
13	0xbdff0b22	-0.12453295
14	0xbc1f6250	-0.009728029
15	0xbdde90bc	-0.1086745
16	0x3dda4efc	0.10659596
17	0x3def0db4	0.116725355
18	0x3de12bca	0.1099468
19	0x3d6815f8	0.056661576
20	0xbd958718	-0.07301158
21	0xbd3bcfe8	-0.04585257
22	0xbdb5ce08	-0.08877188
23	0x3d6d6728	0.057959706
24	0x3da1499e	0.078753695
25	0xbd297000	-0.041366577
26	0x3d30e674	0.043188527
27	0xbde81a5e	-0.11333154
28	0x3d43694c	0.04770784
29	0x3ccfef10	0.025382549
30	0xbdf1a5d2	-0.11799206
31	0x3d93b2ba	0.07211824
32	0x3da61b96	0.0811073
33	0x3d240048	0.04003933
34	0xbbc9a200	-0.006153345
35	0xbdb952f2	-0.09049024
36	0x3d19dfac	0.037566826
37	0xbdef002c	-0.11669955
38	0xbbf8cba0	-0.0075926334
39	0x3dc00c9a	0.093774036
40	0xbdf8dcee	-0.12151514
41	0x3cb59518	0.02216582
42	0xbd22b828	-0.039726406
43	0x3dc4fab4	0.0961813
44	0xbc554b70	-0.013018474
45	0xbd9ea944	-0.077471286
46	0x3d9ce464	0.076607496
47	0xbd8214be	-0.063516125
48	0xbbdecec0	-0.006799549
49	0x3d0f0770	0.034919202
50	0xbdbbcbf4	-0.0916976
51	0xbc30bfd0	-0.010787919
52	0xbda6a8a4	-0.081376344
53	0x3dafc652	0.085827485
54	0x3d6cd0cc	0.05781631
55	0xbdfd424a	-0.12366159
56	0x3d471a30	0.04860896
57	0xbde8883c	-0.1135411
58	0x3d92f7be	0.07176159
59	0xbdf64a52	-0.12025894
60	0xbb8b55e0	-0.0042521805
61	0xbda19bc0	-0.07891035
62	0x3d69b544	0.057057634
63	0xbd6b698c	-0.057473704
64	0x3dfd8008	0.12377936
65	0x3d014874	0.031563237
66	0xbd55f364	-0.05223407
67	0xbcc8e6e8	-0.024524167
68	0x3db06388	0.08612734
69	0xbdb6b14e	-0.08920537
70	0x3d3c0744	0.045905367
71	0x3dca572c	0.09879908
72	0x3d266f04	0.040633217
73	0xbdecf4c6	-0.11570124
74	0x3dfa7cb8	0.122308195
75	0x3dac8e40	0.084255695
76	0xbdae5dbe	-0.08513974
77	0x3dd8137c	0.10550591
78	0xbdae9856	-0.085251495
79	0x3b0dafc0	0.0021619648
80	0x3db9b7fc	0.09068295
81	0x3d0c1d64	0.034207717
82	0xbdaeecec	-0.08541283
83	0x3d93da94	0.07219425
84	0xbc6392f0	-0.013890013
85	0xbdbb9f28	-0.09161216
86	0x3d4433f0	0.047901094
87	0x3d65fbe4	0.056148425
88	0xbdb5b816	-0.08873002
89	0xbc2528c0	-0.010080516
90	0xbd952e68	-0.07284242
91	0x3d596f68	0.05308476
92	0x3d102644	0.035192743
93	0xbda58614	-0.08082214
94	0x3c92e518	0.017931506
95	0xbd4bab88	-0.04972413
96	0xbbeeade0	-0.007283911
97	0xbdab515c	-0.083651274
98	0xbdddadea	-0.10824187
99	0x3dcff1f6	0.10153572
100	0xbdecd28a	-0.11563595
101	0xbd86e89a	-0.06587334
102	0x3d9ad778	0.07560629
103	0x3b8f1920	0.004367009
104	0x3d890de6	0.06692104
105	0xbd748524	-0.059697285
106	0x3d35d754	0.044394806
107	0xbda948e4	-0.08265856
108	0xbd2bc578	-0.041936368
109	0x3df559fc	0.11980054
110	0xbd8ee5f6	-0.06977455
111	0xbd4e1870	-0.050316274
112	0x3d7ef050	0.0622409
113	0xbc4579e0	-0.012052983
114	0xbd5745f0	-0.052556932
115	0x3d380e98	0.044935793
116	0x3d932e06	0.07186513
117	0x3cba2278	0.022721514
118	0xbd7584c0	-0.059941053
119	0xbcc277e8	-0.023738816
120	0xbd66c720	-0.056342244
121	0x3dc7371e	0.0972731
122	0xbde0ce2e	-0.10976826
123	0x3d09e9b4	0.033670142
124	0xbdc546f4	-0.09632674
125	0xbdac748e	-0.084206685
126	0x3da429ba	0.08015771
127	0xbde22ac6	-0.11043315
128	0x3d90a8ae	0.07063423
129	0xbdc58be0	-0.0964582
130	0x3dfd5a42	0.12370731
131	0xbc8887f8	-0.016666397
132	0xbcc5d9b8	-0.024151668
133	0xbcbc7e78	-0.023009524
134	0x3d97508a	0.073884085
135	0xbded7764	-0.115950376
136	0xbd79569c	-0.060873613
137	0x3d129408	0.035785705
138	0x3d935e08	0.071956694
139	0xbd9a2452	-0.07526459
140	0xbd1ae828	-0.037819058
141	0x3d9672d0	0.073461175
142	0x3b347300	0.0027534366
143	0xbd406a3c	-0.046976313
144	0xbda1d342	-0.07901622
145	0x3d06aacc	0.03287773
146	0xbad42500	-0.0016185343
147	0x3db9f53c	0.09079978
148	0x3ad41300	0.0016179979
149	0x3d2f4174	0.04278703
150	0xbd0af2f0	-0.03392309
151	0x3bbd4700	0.005776286
152	0x3ddf5d0a	0.10906418
153	0x3ad08b00	0.0015910566
154	0x3dfe9236	0.12430231
155	0xbd910754	-0.07081476
156	0x3cf32aa0	0.029683411
157	0xbd99b3c2	-0.07504989
158	0xbdbd0636	-0.092297
159	0x3d41fc04	0.04735948
160	0xbdb72984	-0.08943465
161	0xbdce4b96	-0.100730106
162	0x3d59bb60	0.05315721
163	0x3d8b573c	0.06803748
164	0x3bd45900	0.006480336
165	0xbdba4850	-0.09095824
166	0xbcad9d90	-0.021193296
167	0xbd934ecc	-0.07192764
168	0xbdadd96e	-0.08488737
169	0x3b506880	0.0031800568
170	0x3d49ab28	0.049235493
171	0xbdfa820a	-0.12231834
172	0xbc528480	-0.012848973
173	0xbde0152a	-0.10941537
174	0x3d304214	0.043031767
175	0xbcb09360	-0.021554649
176	0xbc717fd0	-0.0147399455
177	0xbdc28b86	-0.09499268
178	0x3d458594	0.048223093
179	0x3bb1b140	0.005422741
180	0xbbf07b00	-0.0073388815
181	0xbd603344	-0.05473639
182	0x3dee8f48	0.116484225
183	0x3df60e66	0.12014465
184	0x3cd21228	0.025643423
185	0x3c69b400	0.014264107
186	0xbdbb1640	-0.09135103
187	0x3cc49c30	0.024000257
188	0x3cd5f528	0.026117876
189	0x3d5dc09c	0.054138765
190	0x3d90aca6	0.0706418
191	0xbdfdcea8	-0.12392932
192	0xbdd5e84c	-0.10444698
193	0x3d202c00	0.03910446
194	0x3dbfb28a	0.093602255
195	0xbd88a53c	-0.06672141
196	0xbdea14ea	-0.1142977
197	0x3d0fe894	0.035133913
198	0x3dc519fc	0.09624097
199	0x3d81a4f0	0.063302875
200	0xbd57eba0	-0.052714944
201	0xbd18d520	-0.037312627
202	0x3d82bc42	0.063835636
203	0xb996d200	-0.00028766692
204	0xbdd8f58e	-0.10593711
205	0xbd0d41b4	-0.034486488
206	0x3c3b3c90	0.011428013
207	0xbd69a668	-0.057043463
208	0x3b8ab580	0.0042330623
209	0x3c9bafb0	0.019004673
210	0x3db5649a	0.08857079
211	0x3d61a250	0.055086434
212	0xbd0c410c	-0.03424172
213	0xbd748540	-0.05969739
214	0xbd5ed2b4	-0.05440016
215	0xbd170708	-0.03687194
216	0x3d63d704	0.055624977
217	0xbdc8dc60	-0.09807658
218	0xbdb7f28a	-0.089818075
219	0x39f02000	0.0004580021
220	0xbdeaf128	-0.11471778
221	0xbcd3ed88	-0.0258701
222	0x3df56704	0.11982539
223	0x3de923d6	0.11383788
224	0xbd944f74	-0.07241717
225	0xbd1ae8b4	-0.03781958
226	0x3dec5c0c	0.11540994
227	0x3c9932c0	0.018700957
228	0x3de24b8c	0.11049566
229	0x3ce44c38	0.027868375
230	0xbc5efab0	-0.013609573
231	0xbded3bdc	-0.11583683
232	0xbd61f668	-0.055166632
233	0xbd6a1740	-0.05715108
234	0xbcefb410	-0.029260665
235	0x3c226360	0.009911388
236	0x3c05fa90	0.008177415
237	0xbd816014	-0.063171536
238	0x3db037dc	0.08604404
239	0xbdedc144	-0.11609128
240	0xbdab3a68	-0.083607495
241	0x3d53d8f4	0.051720574
242	0xbdc7fea0	-0.09765363
243	0x3d1ed144	0.03877379
244	0x3cc98670	0.024600238
245	0xbd860658	-0.06544179
246	0x3c823640	0.015895009
247	0x3de004a2	0.10938384
248	0xbdeca0e8	-0.11554128
249	0xbd9bbb34	-0.076040655
250	0x3d02d0cc	0.031937405
251	0x3bbfb680	0.005850613
252	0x3d79b398	0.06096229
253	0x3dc5dc18	0.0966112
254	0x3de33052	0.11093201
255	0x3dfba33a	0.12286992

transmitter.2.bias f4 [64]
0	0xbd89110e	-0.06692706
1	0xbdb0cd78	-0.0863294
2	0xbd612af0	-0.05497259
3	0xbd5b2d7c	-0.053510174
4	0xbd19d76c	-0.037558958
5	0xbd5410c4	-0.0517738
6	0xbcdd2570	-0.02699539
7	0x3d5629ac	0.052285835
8	0x3dfe588a	0.12419231
9	0xbd8e531a	-0.06949444
10	0xbdb54f7e	-0.088530526
11	0xbdeb2138	-0.11480945
12	0xbd879b26	-0.06621389
13	0x3d5a9300	0.053362846
14	0x3de5df18	0.112241924
15	0xbdd2ae78	-0.102871835
16	0x3d0915a0	0.03346789
17	0xbddf1e86	-0.10894494
18	0xbd1ef82c	-0.038810894
19	0x3de5b352	0.11215843
20	0xbc7265a0	-0.014794737
21	0x3db2938e	0.0871955
22	0xbcb2dbb0	-0.02183327
23	0xbb3d8640	-0.002891913
24	0xbdc10926	-0.09425573
25	0x3db7a990	0.08967888
26	0x3df48748	0.11939865
27	0x3c3b3df0	0.011428341
28	0xbdcfe2ae	-0.101506576
29	0xbd64f5d4	-0.055898502
30	0x3df1f460	0.11814189
31	0x3da75216	0.081699535
32	0x3cd87b80	0.026426077
33	0x3df51306	0.11966519
34	0xbde1a174	-0.11017123
35	0x3dab6b94	0.08370128
36	0xbde08480	-0.10962772
37	0xbda8d7f6	-0.08244316
38	0xbc603a30	-0.013685748
39	0xbde9e9ea	-0.11421569
40	0x3ddf3b58	0.10899991
41	0x3d7f3acc	0.062311932
42	0xbdbef99e	-0.093249545
43	0x3d7138ec	0.058892176
44	0x3d800b06	0.062521026
45	0xbd9c279e	-0.07624744
46	0xbc9a1760	-0.018809974
47	0x3c3c4170	0.011490211
48	0xbd0365a4	-0.032079354
49	0xbdd5641a	-0.104194835
50	0xbd7ccc7c	-0.06171845
51	0x3cddf978	0.027096495
52	0x3d0f6788	0.035010844
53	0xbd08c55c	-0.03339134
54	0x3d7b9484	0.061420932
55	0xbd127b6c	-0.035762236
56	0x3dcd766e	0.10032354
57	0x3d681d88	0.05666879
58	0xbdcb68e4	-0.09932116
59	0x3dc7cfb2	0.097564116
60	0x3d9b4dda	0.075832084
61	0xbd929a42	-0.071583286
62	0xbdac8d4c	-0.08425388
63	0x3dee57b8	0.11637825

receiver.0.weight f4 [64, 64]
0	0xbce36a48	-0.02776064
1	0xbd3085b8	-0.043096274
2	0x3d944fa8	0.07241756
3	0x3de1b336	0.1102051
4	0xbcbe1830	-0.023204893
5	0x3dca79ee	0.098865375
6	0xbd84e398	-0.064887226
7	0xbdd6b530	-0.104837775
8	0xbccd0950	-0.025028855
9	0xbd961de4	-0.0732992
10	0x3db7a02a	0.08966096
11	0xbd2eff7c	-0.042724118
12	0x3d014f54	0.031569794
13	0xbd716478	-0.058933705
14	0x3dcb1430	0.0991596
15	0xbd81541c	-0.06314871
16	0xbd42425c	-0.047426566
17	0x3d880f40	0.06643534
18	0x3cf2b160	0.029625595
19	0x3ccb7e18	0.0248404
20	0x3de8a802	0.1136017
21	0xbd083be4	-0.03326024
22	0xbc8b4b08	-0.017003551
23	0xbdc83220	-0.097751856
24	0x3de4e7dc	0.11177036
25	0xbb69c700	-0.0035671592
26	0x3c0a1140	0.008426964
27	0x3d9af19a	0.07565613
28	0x3deab292	0.11459841
29	0x3dd7f45a	0.10544653
30	0x3cf75b48	0.030194893
31	0x3dc7515e	0.097323164
32	0xbd89eb44	-0.067343265
33	0xbd4b9b6c	-0.04970877
34	0xbdd2b1b2	-0.10287799
35	0x3cf56808	0.029956833
36	0xbba0d740	-0.0049084723
37	0xbd6c234c	-0.05765085
38	0xbc524160	-0.012832969
39	0xbdfdd7f0	-0.123947024
40	0x3df2a394	0.11847606
41	0x3c8be8e8	0.017078832
42	0xbc3292a0	-0.010899216
43	0xbc755910	-0.014974847
44	0xbd1a3150	-0.037644684
45	0x3c4e2090	0.012581006
46	0xbd36f93c	-0.044671282
47	0xbbd88920	-0.0066081434
48	0x3d0065f8	0.031347245
49	0xbdaaa880	-0.0833292
50	0xbdb8f9ae	-0.090319976
51	0x3db97cba	0.09056993
52	0x3dc6981c	0.09696981
53	0x3dcd0f14	0.100126415
54	0xbde2d314	-0.11075416
55	0xbd146ba4	-0.036235467
56	0x3de43880	0.11143589
57	0xbd83b934	-0.06431809
58	0xbd5d6f24	-0.05406107
59	0x3db748c0	0.08949423
60	0x3b35bc40	0.0027730614
61	0x3bc509a0	0.0060131103
62	0xbde89ce6	-0.11358051
63	0xbd6054c8	-0.054768354
64	0xbdf2d214	-0.118564755
65	0x3da9a85e	0.082840666
66	0xbd9c1506	-0.076211974
67	0x3d489a14	0.048975065
68	0x3d6ebcb8	0.058285445
69	0x3cd5e6b8	0.026110992
70	0xbde99950	-0.11406195
71	0xbdcaf29c	-0.09909555
72	0x3c361fa0	0.011115938
73	0x3d0de310	0.03464037
74	0xbc3b05d0	-0.01141496
75	0x3d81d986	0.063403174
76	0xbc45f3d0	-0.012082055
77	0x3d820550	0.063486695
78	0x3c46ee80	0.012141824
79	0xbca07a08	-0.019589439
80	0x3dd7ff6c	0.10546765
81	0xbdd50fce	-0.10403405
82	0xbc04bff0	-0.008102402
83	0x3d996b36	0.07491152
84	0x3d21f8bc	0.039543852
85	0xbd3c6a3c	-0.04599975
86	0xbde4bc40	-0.11168718
87	0x3bd6e5c0	0.00655815
88	0xbd3ba7dc	-0.04581438
89	0xbdd65036	-0.10464518
90	0x3cb7a008	0.022415176
91	0x3dc7f516	0.09763543
92	0xbd37b19c	-0.044847116
93	0xbd6834f4	-0.056691125
94	0x3db450e4	0.08804491
95	0xbd95b530	-0.073099494
96	0x3d95e87a	0.07319732
97	0xbd737498	-0.059437364
98	0x3d873d2e	0.06603466
99	0x3bb48040	0.0055084527
100	0xbdf2f212	-0.118625775
101	0xbdab4f6c	-0.08364758
102	0x3d40c1e8	0.047059923
103	0x3dfe2326	0.12409048
104	0x3d005cd4	0.031338528
105	0xbd1b6418	-0.037937254
106	0xbd756308	-0.059908897
107	0xbd3bf800	-0.045890808
108	0xbd370d0c	-0.044690177
109	0xbd042824	-0.032264844
110	0xbd48fd90	-0.04906994
111	0xbd63cbfc	-0.055614457
112	0x3d5c0778	0.05371806
113	0xbd889238	-0.06668514
114	0xbdb128a0	-0.08650327
115	0xbd0fb6bc	-0.03508638
116	0xbda66eca	-0.081266
117	0xbd9e99a6	-0.0774415
118	0xbdd96ce4	-0.10616472
119	0x3d8bf516	0.06833856
120	0x3ae59a00	0.0017517209
121	0x3b9de3a0	0.004818395
122	0x3d14f45c	0.03636585
123	0x3d873a60	0.06602931
124	0x3dae80dc	0.08520672
125	0xbd168dfc	-0.0367565
126	0xbd9ab450	-0.07553923
127	0xbdd0e76a	-0.10200389
128	0xbd6a1c9c	-0.05715619
129	0x3c23c870	0.0099965185
130	0x3dfd46ee	0.123670444
131	0x3df20986	0.11818223
132	0x3c85ced0	0.016333967
133	0xbc158d90	-0.009127989
134	0x3d3d6748	0.046241075
135	0xbdd3c390	-0.10340035
136	0x3cca8390	0.024720937
137	0xbd4240cc	-0.047425076
138	0x3ceb16a0	0.028697312
139	0xbdbebb0e	-0.093130216
140	0x3d54fce4	0.051998988
141	0xbcbfb6e0	-0.023402631
142	0xbd873ebe	-0.06603764
143	0x3bb37f80	0.0054778457
144	0xbda8e118	-0.08246058
145	0xbd2731bc	-0.040818915
146	0x3d80a20a	0.062809065
147	0xbb3e5b80	-0.0029046237
148	0x3de34328	0.110967934
149	0xbdfd16c2	-0.12357856
150	0x3d5126b4	0.0510623
151	0xbddd84e8	-0.108163655
152	0xbd692410	-0.056919158
153	0x3db7e544	0.08979276
154	0xbcfb0480	-0.030641794
155	0x3d9e0672	0.07716073
156	0x3d024418	0.03180322
157	0x3dd4a148	0.103823245
158	0xbd68b6c4	-0.056814924
159	0xbcd77a38	-0.026303396
160	0x3c310b00	0.010805845
161	0xbd65a338	-0.05606386
162	0x3da36cc2	0.07979728
163	0x3d0ec534	0.034856036
164	0x3d8540d6	0.06506507
165	0x3c290500	0.0103161335
166	0x3d8e7406	0.069557235
167	0x3d9f9182	0.07791425
168	0x3c315f90	0.0108260065
169	0x3de0e61e	0.10981391
170	0x3db8aa20	0.09016824
171	0xbd494b48	-0.04914406
172	0xbc969ab8	-0.018384323
173	0xbdd36856	-0.10322635
174	0x3de36e60	0.11105037
175	0xbdb7d420	-0.089760065
176	0xbdc5ec2a	-0.09664185
177	0x3dd1c67a	0.102429345
178	0x3de82436	0.11335032
179	0x3dfd0232	0.12353934
180	0xbd8111c0	-0.06302214
181	0x3c9884f8	0.018618092
182	0xbd7f1e4c	-0.062284753
183	0xbc5f95c0	-0.013646543
184	0xbc981d90	-0.018568784
185	0x3d89be7a	0.06725784
186	0xbb0f06c0	-0.0021824092
187	0x3b632d00	0.0034664273
188	0xbd85db4e	-0.0653597
189	0x3d51f390	0.05125767
190	0xbd06d170	-0.03291458
191	0xbd0c4494	-0.03424509
192	0xbda3cf08	-0.079984725
193	0x3db3ec38	0.087852895
194	0xbdd55dfa	-0.10418315
195	0x3d5a9c40	0.053371668
196	0x3c10caa0	0.008837372
197	0x3d5dc3e0	0.05414188
198	0xbde94f54	-0.11392084
199	0xbd804a40	-0.06264162
200	0xbcb472e8	-0.022027448
201	0x3df1d964	0.11809042
202	0xbd2fcd34	-0.042920306
203	0xbd9ae9ce	-0.07564126
204	0x3cef9e50	0.029250294
205	0xbd4a895c	-0.049447402
206	0x3ddf0404	0.10889438
207	0x3dd18438	0.10230297
208	0x3d8f0236	0.069828436
209	0xbd53797c	-0.05162953
210	0xbd7422b0	-0.059603393
211	0xbd345204	-0.04402353
212	0xbb56ab40	-0.0032755882
213	0x3d88ae92	0.06673922
214	0xbdaea334	-0.08527222
215	0x3d86b0c4	0.06576684
216	0xbd433ce0	-0.047665477
217	0xbddfa23a	-0.10919614
218	0xbc4cd180	-0.012501121
219	0x3d9d3422	0.07675959
220	0x3d8101ca	0.06299169
221	0x3dd05cee	0.10173975
222	0x3a9b0600	0.001182735
223	0x3d189c54	0.03725846
224	0xbcee4828	-0.029087141
225	0x3d555e88	0.052092105
226	0xbd81672c	-0.063185066
227	0x3cc71780	0.024303198
228	0x3dcd006c	0.10009846
229	0xbdf72a86	-0.120686576
230	0x3db93f22	0.09045245
231	0x3dcc9766	0.099898145
232	0x3de78f7e	0.11306666
233	0xbd4708c4	-0.048592344
234	0xbdbb7ca0	-0.0915463
235	0x3c3dfcc0	0.011595905
236	0xbdbd0f8a	-0.092314795
237	0xbcf3ca98	-0.02975969
238	0xbc42e420	-0.01189521
239	0x3df2e2ee	0.1185969
240	0xbbd68560	-0.0065466613
241	0xbdfdf962	-0.124010816
242	0x3ccc6a20	0.024952948
243	0x3def6af0	0.116903186
244	0xbd510404	-0.05102922
245	0xbd84194e	-0.06450139
246	0x3ddc5018	0.10757464
247	0xbdec5940	-0.115404606
248	0xbcb2d448	-0.02182974
249	0x3dd72b92	0.10506357
250	0xbd18bd5c	-0.037289962
251	0xbd0cec08	-0.034404784
252	0xbd30b99c	-0.04314576
253	0xbde3e736	-0.11128084
254	0xbddbdf5a	-0.1073596
255	0x3db3135c	0.08743927

receiver.0.bias f4 [64]
0	0xbd0e028c	-0.034670398
1	0xbdcf9078	-0.10134977
2	0xbd343ba8	-0.044002205
3	0x3de4457a	0.11146064
4	0xbdb60dee	-0.088893756
5	0xbd35fb1c	-0.04442893
6	0xbdce0752	-0.1005999
7	0x3df39bc8	0.11894947
8	0x3cd62dc0	0.026144862
9	0x3d814850	0.06312621
10	0xbbf1e160	-0.007381603
11	0x3d1aeb94	0.03782232
12	0xbce75538	-0.028238878
13	0x3d4af764	0.049552336
14	0x3d07531c	0.033038244
15	0xbdbf792a	-0.09349282
16	0xbd6c36b4	-0.057669356
17	0x3c248a30	0.010042712
18	0xbdaded28	-0.084924996
19	0xbd88a86c	-0.06672749
20	0x3de22932	0.11043014
21	0xbd63ba6c	-0.055597708
22	0x3d497d08	0.049191505
23	0x3cc948f8	0.024570927
24	0xbde9710e	-0.113985166
25	0xbdb04b3e	-0.08608101
26	0x3dbc836e	0.09204756
27	0xbdc8e186	-0.0980864
28	0xbdfd2278	-0.1236009
29	0xbc1499a0	-0.00906983
30	0x3d09fe84	0.03368999
31	0xbdc795f4	-0.09745398
32	0x3d701f24	0.058623448
33	0x3b21ad80	0.0024670064
34	0x3d7f8814	0.062385634
35	0x3dfcedd8	0.123500526
36	0x3d25eb90	0.040507853
37	0xbd50e5d8	-0.051000446
38	0xbc393cf0	-0.011306033
39	0x3df24682	0.118298545
40	0xbdc53d8e	-0.09630881
41	0xbdc4d222	-0.09610392
42	0xbd96bbfe	-0.073600754
43	0xbdcf27ca	-0.10115011
44	0xbd30de94	-0.043181017
45	0x3da91bb4	0.08257237
46	0xbdd789f2	-0.10524358
47	0xbd6d1878	-0.057884663
48	0xbdbd7e36	-0.092525885
49	0x3d05bdb0	0.032651603
50	0x3da8137e	0.08206843
51	0xbda3f9b0	-0.080066085
52	0xbdd87e72	-0.105709925
53	0x3df38632	0.1189083
54	0xbc120620	-0.008912593
55	0x3dbf1fae	0.09332214
56	0x3c1e1c50	0.009650305
57	0x3c932490	0.01796177
58	0xba2c4700	-0.0006571859
59	0x3b8b2340	0.0042461455
60	0x3dfb6a68	0.12276155
61	0xbdbc3ef4	-0.09191695
62	0xbc6970e0	-0.014248103
63	0x3d6cc8cc	0.057808682

receiver.2.weight f4 [2, 64]
0	0xbd46cc50	-0.04853469
1	0xbdd48246	-0.1037641
2	0x3ddf8134	0.109133154
3	0x3dddbade	0.10826658
4	0x3df32150	0.11871588
5	0x3d7755f0	0.06038469
6	0xbb9d5e80	-0.004802525
7	0xbdb38bc4	-0.087668926
8	0x3d1e7384	0.038684383
9	0x3d9f7276	0.077855036
10	0x3dfab0c4	0.122407466
11	0x3da0257e	0.07819651
12	0x3de00c36	0.10939829
13	0xbb572100	-0.0032826066
14	0xbdf8111c	-0.12112638
15	0xbd1b0d2c	-0.03785436
16	0xbdcb4ec4	-0.09927133
17	0xbd734674	-0.05939336
18	0x3dbd1e22	0.09234263
19	0xbc9d4e18	-0.019202277
20	0x3dcca2fc	0.09992024
21	0xbcf2f238	-0.029656515
22	0xbde8d58e	-0.11368857
23	0xbd05f288	-0.032702
24	0x3d70fd10	0.05883509
25	0x3df4c650	0.119518876
26	0xbdea81a2	-0.11450507
27	0xbd76f79c	-0.060294732
28	0xbcf82a70	-0.030293673
29	0xbd4df250	-0.050279915
30	0xbdf97366	-0.12180214
31	0xbaad5e00	-0.0013226867
32	0xbdcd7ab0	-0.100331664
33	0x3d95fd2e	0.07323681
34	0xbda229c8	-0.079181254
35	0xbd6c8104	-0.057740226
36	0xbde5f17a	-0.112276986
37	0x3ded6b14	0.11592689
38	0xbdfafda6	-0.12255411
39	0xbd08cd88	-0.033399135
40	0xbc92e340	-0.017930627
41	0x3dec0096	0.11523549
42	0xbdc538c4	-0.09629968
43	0xbdc6934e	-0.09696065
44	0xbd14b908	-0.036309272
45	0xbd1e7a1c	-0.03869067
46	0x3dc041ec	0.093875736
47	0x3cc16d30	0.023611635
48	0x3d41d8fc	0.047326073
49	0x3c2b49b0	0.01045458
50	0x3de801ce	0.11328469
51	0xbd0eb2fc	-0.03483866
52	0x3d8b970e	0.06815921
53	0x3d72ff84	0.05932571
54	0xbd5353f0	-0.05159372
55	0xbc907180	-0.017632246
56	0xbddcbc60	-0.10778117
57	0xbbd378c0	-0.0064536035
58	0xbda9e59a	-0.08295746
59	0xbdb6ffca	-0.08935507
60	0xbc992b38	-0.018697366
61	0xbca697e8	-0.020336106
62	0x3dc07102	0.093965545
63	0x3d24add0	0.040204823
64	0x3de2adc2	0.11068298
65	0x3cd13550	0.025538117
66	0x3c5255e0	0.012837857
67	0x3df4d38a	0.119544104
68	0x3dd67c9a	0.104729846
69	0xbdc0616c	-0.09393582
70	0xbce11740	-0.027476907
71	0x3db81cc6	0.08989863
72	0x3da19dfa	0.0789146
73	0xbdaac56c	-0.083384365
74	0x3d391d1c	0.045193776
75	0x3d21abf4	0.039470628
76	0x3d52b614	0.051443174
77	0xbd7cb128	-0.061692387
78	0x3d810a0e	0.06300746
79	0xbd9818fe	-0.07426642
80	0x3bf112c0	0.0073569715
81	0x3d7ed830	0.06221789
82	0x3d49df20	0.049285054
83	0x3cbbb9d0	0.02291575
84	0x3db65a62	0.08903958
85	0xbdb8dffa	-0.09027095
86	0x3cf83540	0.03029883
87	0x3d8e664c	0.06953105
88	0xbcf952a8	-0.030434921
89	0xbdb4dc06	-0.08831029
90	0x3dfe1162	0.12405659
91	0x3d05b7f0	0.03264612
92	0x3ca64a20	0.020299017
93	0xbd7c6df4	-0.061628297
94	0x3da34a76	0.07973187
95	0x3da11136	0.07864611
96	0xbcd2b988	-0.025723234
97	0x3dc58f7c	0.09646508
98	0x3d170250	0.03686744
99	0x3d83c580	0.064341545
100	0xbbdca280	-0.0067332387
101	0xbd94f498	-0.07273215
102	0x3ca18f50	0.019721657
103	0x3d898042	0.06713916
104	0x3d874d90	0.06606591
105	0x3de64b80	0.11244869
106	0xbcc07310	-0.023492366
107	0xbd703ba8	-0.058650643
108	0x3daebf12	0.085325375
109	0xbd868e24	-0.0657008
110	0xbd4d5b78	-0.05013606
111	0xbd86f600	-0.065898895
112	0x3dfbee50	0.12301314
113	0x3ca80a20	0.02051264
114	0x3d8e6f96	0.06954877
115	0x3df2f250	0.11862624
116	0x3d833f6a	0.0640858
117	0x3d5e14ec	0.05421917
118	0x3dd00a58	0.10158223
119	0xbcb86618	-0.02250962
120	0xbd536b60	-0.051616073
121	0x3db3b58e	0.08774863
122	0xbd48d130	-0.04902762
123	0xbdd3e0ec	-0.10345635
124	0x3dd2eb34	0.10298768
125	0x3d80d182	0.062899604
126	0xbc21b340	-0.009869397
127	0xbc870808	-0.016483322

receiver.2.bias f4 [2]
0	0x3dfadf06	0.122495696
1	0xbca865e0	-0.02055639
