checkpoint.pt (torch, 545891 bytes, 22 tensors)

ob_encoder.0.weight f4 [64, 1000]
0.025374373 -0.029185623 0.028188834 -0.005336123 -0.0093449 0.020079596 0.0065250653 0.068078026
-0.0031516359 -0.002418126 -0.047039207 0.021778915 -0.031539302 -0.04759365 -0.024342244 -0.05029312
0.02739993 -0.018141486 0.020788228 -0.022953117 0.030178567 0.016331434 -0.01063167 0.037234407
-0.022894595 -0.0014235175 -0.03270037 -0.008918386 -0.012425731 -0.045409143 0.004271632 -0.0071038627
0.019232769 -0.0024678898 0.047788966 -0.046742056 0.006120216 0.05167529 -0.017902456 0.039288033
-0.044152115 0.0072469995 -0.0510084 0.025237868 0.020490287 0.002663711 0.022660302 -0.028758489
0.025962733 -0.024787089 0.01527379 -0.009389196 0.010865335 0.058580596 0.021747753 0.018881988
0.008072074 0.031252723 -0.024607038 0.045620415 -0.007783079 -0.05492841 0.0063823676 -0.013416946
0.037323967 0.014983997 0.06123187 0.014904058 0.0018450911 0.040278193 0.027984258 0.06529464
-0.0112646455 0.0012124135 -0.037647992 -0.014069234 0.016747456 -0.013305013 0.0059432974 -0.06984656
0.020248864 -0.026523354 0.056007802 0.0075536915 -0.007160497 -0.008495031 0.038312312 0.033631455
0.0043139686 0.025557537 -0.0327291 0.03251725 -0.019935707 -0.0393243 -0.021611411 -0.02025978
0.023580391 -0.026031485 0.0004555466 -0.041810937 0.035880685 0.0047169332 -0.02308601 0.033355743
0.0039808583 0.00043859155 -0.06172694 -0.026201969 -0.01356204 -0.017285509 -0.030549409 -0.044566065
0.032476246 -0.017532108 0.020623228 -0.02835638 0.018093629 -0.0013311765 0.016535796 0.05002557
-0.009053058 -0.018044146 -0.037691638 -0.0049399175 -0.03525434 -0.014782804 -0.020219995 -0.019063251
0.060032442 0.0135250185 -0.011815735 0.013477023 -0.016088558 0.058505245 -0.051594872 0.0046699834
-0.035564467 0.01512702 -0.0048801447 -0.038485028 -0.006084594 -0.070989124 0.0047705416 -0.008470888
0.042581473 0.026635088 0.009945327 0.00044606763 -0.014771547 0.087932646 -0.023722932 0.013218741
-0.037934788 -0.02877665 -0.026191102 -0.040781487 0.024485799 -0.009656307 0.039618008 -0.024382696
0.065123044 0.025857903 0.004349647 0.025199058 0.010464644 0.03956534 0.0105985105 0.04037708
-0.037061725 -0.064411975 0.027186504 -0.0508373 0.005652066 -0.048968427 0.06322645 -0.044372573
0.04140135 -0.022762675 0.022127481 0.06840472 0.006324587 0.013451401 -0.04745482 0.04726092
-0.04341918 0.0069359476 -0.06761199 -0.007311997 0.0343815 -0.06577517 0.02672635 -0.003507583
0.07599182 0.01021496 0.008238343 0.038987387 -0.032105137 0.02973777 -0.03999513 0.022945164
-0.030408908 -0.02878304 -0.013108669 -0.008892875 0.016984833 -0.021220041 0.02173888 0.0021129472
0.03645907 0.050696936 -0.026265368 0.03744135 -0.0040045124 0.057729736 -0.03742799 0.037648678
-0.0738656 0.0064888825 -0.0410063 -0.03902373 0.008542503 -0.001966319 0.011581612 0.021260489
0.028704714 0.004408736 -0.015695514 0.030346664 0.021903958 0.054032207 -0.025321156 0.01273438
-0.012667971 -0.007634589 -0.01595452 -0.026857914 0.01167833 -0.045690883 0.040296014 -0.012267901
0.071093634 0.011925729 0.05357645 0.03640741 -0.039674062 0.04222054 -0.029589208 0.012777791
-0.0028352882 -0.023974897 -0.03848215 -0.050478417 0.009975216 -0.06981158 0.06431446 -0.013891289
00000000: ebdd cf3c b016 efbc 45ec e63c a5da aebb
00000010: 5a1b 19bc f77d a43c 37d0 d53b 7e6c 8b3d
00000020: ad8b 4ebb 6c79 1ebb 2fac 40bd b269 b23c
00000030: 5b2f 01bd 8ff1 42bd 6369 c7bc 2900 4ebd
00000040: d175 e03c 749d 94bc 134c aa3c 2d08 bcbc
00000050: 0b39 f73c 80c9 853c 7530 2ebc 1b83 183d
00000060: 728d bbbc 5295 baba d3f0 05bd 6c1e 12bc
00000070: 4b95 4bbc f0fe 39bd 0cf9 8b3b 85c7 e8bb
00000080: 0a8e 9d3c 52bc 21bb 5dbe 433d 9974 3fbd
00000090: 188c c83b 78a9 533d 2ca8 92bc 7dec 203d
000000a0: d9d8 34bd 3d78 ed3b 2fee 50bd a5bf ce3c
000000b0: 3fdb a73c a891 2e3b 19a2 b93c ec96 ebbc
000000c0: ccaf d43c 4b0e cbbc eb3e 7a3c 24d5 19bc
000000d0: 8504 323c 35f2 6f3d 5828 b23c 66ae 9a3c
000000e0: bb40 043c db02 003d b394 c9bc 79dc 3a3d
000000f0: 3309 ffbb 9dfc 60bd 2e23 d13b c0d2 5bbc
00000100: 04e1 183d 707f 753c 45ce 7a3d 2630 743c
00000110: fcd6 f13a bffa 243d 3e3f e53c 32b9 853d
00000120: 598f 38bc d9e9 9e3a c834 1abd a582 66bc
00000130: f631 893c 45fd 59bc febf c23b b70b 8fbd
00000140: f2e0 a53c 8147 d9bc 7068 653d f584 f73b
00000150: 9aa2 eabb be2e 0bbc 5fed 1c3d 23c1 093d
00000160: 315c 8d3b 0a5e d13c f30e 06bd cf30 053d
00000170: 3550 a3bc 8412 21bd 6a0a b1bc d7f7 a5bc
00000180: aa2b c13c fb3f d5bc 6ed6 ee39 f241 2bbd
00000190: a0f7 123d 8190 9a3b df1e bdbc 08a0 083d
000001a0: dc71 823b c3f2 e539 63d5 7cbd 83a5 d6bc
000001b0: 5233 5ebc 579a 8dbc c142 fabc e88a 36bd
000001c0: d005 053d 7f9f 8fbc 0bf2 a83c a44b e8bc
000001d0: 1739 943c df7a aeba 1476 873c 9de7 4c3d
000001e0: 4753 14bc 51d1 93bc 8c62 1abd 08df a1bb
000001f0: db66 10bd 9333 72bc 67a4 a5bc 892a 9cbc
00000200: 94e4 753d 0a98 5d3c c996 41bc bbce 5c3c
00000210: 27cc 83bc 32a3 6f3d 2555 53bd a906 993b
00000220: 0cac 11bd 52d7 773c 9fe9 9fbb 7aa2 1dbd
00000230: 4661 c7bb bf62 91bd 3452 9c3b 7bc9 0abc
00000240: e969 2e3d d431 da3c baf1 223c 2fde e939
00000250: 5c04 72bc 0816 b43d 9856 c2bc 6b93 583c
00000260: 8261 1bbd 02bd ebbc b98e d6bc 7d0a 27bd
00000270: 7196 c83c 7d35 1ebc 7e46 223d 38be c7bc
00000280: 3b5f 853d f4d3 d33c 7c87 8e3b 416e ce3c
00000290: e673 2b3c 440f 223d 60a5 2d3c 7062 253d
000002a0: 09ce 17bd 6dea 83bd 3bb6 de3c c63a 50bd
000002b0: f734 b93b 1e93 48bd de7c 813d 04c0 35bd
000002c0: 7694 293d ca78 babc b144 b53c c617 8c3d
000002d0: 7b3e cf3b 4463 5c3c fc5f 42bd ab94 413d
000002e0: 4fd8 31bd f246 e33b 2878 8abd 7a99 efbb
000002f0: 9ed3 0c3d 22b5 86bd 38f1 da3c 7adf 65bb
00000300: 99a1 9b3d a65c 273c 1dfa 063c 3db1 1f3d
00000310: ad80 03bd a09c f33c efd1 23bd 7ff7 bb3c
00000320: 1a1c f9bc 69ca ebbc bec5 56bc 6cb3 11bc
00000330: c723 8b3c a7d5 adbc bc15 b23c 5f79 0a3b
00000340: 1b56 153d 97a7 4f3d 782a d7bc 1a5c 193d
00000350: 4938 83bb 0476 6c3d 184e 19bd 8035 1a3d
00000360: d946 97bd b1a0 d43b 39f6 27bd 59d7 1fbd
00000370: dbf5 0b3c 5cdd 00bb cdc0 3d3c 7a2a ae3c
00000380: 2626 eb3c 2877 903b e193 80bc 9199 f83c
00000390: ee6f b33c e050 5d3d 506e cfbc dca3 503c
000003a0: 528d 4fbc 932b fabb 0eb3 82bc 2105 dcbc
000003b0: 7756 3f3c 5d26 3bbd 6f0d 253d 4eff 48bc
000003c0: 8a99 913d 2264 433c fb72 5b3d f01f 153d
000003d0: 4581 22bd 72ef 2c3d 1165 f2bc f159 513c
000003e0: 3ed0 39bb 0167 c4bc 759f 1dbd 75c2 4ebd
000003f0: 176f 233c 60f9 8ebd 4db7 833d 4a98 63bc

ob_encoder.0.bias f4 [64]
0.020689284 -0.011685406 0.025243837 0.0035853456 0.09123849 0.014082766 -0.025937542 0.05275784
0.061728705 -0.021645559 -0.04048607 0.020504244 0.10793189 0.035817422 0.04785394 0.07936964
-0.03865178 -0.037493266 -0.02748666 0.06590904 0.046270482 0.045736924 0.07773995 0.0034451017
-0.0011416479 0.06852549 -0.07200268 0.05643569 0.062164824 -0.03965854 0.029501196 0.08746731
-0.015084954 0.08239836 0.005041357 -0.052597016 0.060154982 -0.038659226 0.061807867 0.036782984
0.015790464 0.09348432 0.067960165 0.041367736 0.13999514 0.03545022 0.011075433 -0.00561521
-0.03486706 -0.01741214 -0.0021805153 -0.014051655 -0.041943405 -0.015859062 -0.04436551 -0.05534638
0.062395588 0.12667556 0.03558045 -0.02278831 0.038187176 -0.0071736122 -0.04305906 0.030746274
00000000: 937c a93c 2574 3fbc 2acc ce3c 1ef8 6a3b
00000010: 3fdb ba3d 67bb 663c f87a d4bc 9b18 583d
00000020: 3dd7 7c3d 0752 b1bc b9d4 25bd 84f8 a73c
00000030: 650b dd3d 4ab5 123d 7e02 443d 8d8c a23d
00000040: 5451 1ebd 8a92 19bd b42b e1bc 52fb 863d
00000050: 1e86 3d3d a456 3b3d 1f36 9f3d 37c7 613b
00000060: 59a3 95ba 1857 8c3d 2476 93bd 1c29 673d
00000070: 8ba0 7e3d fe70 22bd 7eac f13c 1022 b33d
00000080: e226 77bc 79c0 a83d f831 a53b f86f 57bd
00000090: 1265 763d 2359 1ebd 3f2a 7d3d c1a9 163d
000000a0: 015b 813c b574 bf3d b32e 8b3d 3771 293d
000000b0: e35a 0f3e 4034 113d bc75 353c ccff b7bb
000000c0: c3d0 0ebd e7a3 8ebc fae6 0ebb ea38 66bc
000000d0: d9cc 2bbd ddea 81bc 9cb8 35bd e3b2 62bd
000000e0: 8492 7f3d 3db7 013e cebc 113d 8dae babc
000000f0: 286a 1c3d 9f10 ebbb b25e 30bd 9cdf fb3c

ob_encoder.2.weight f4 [16, 64]
-0.061934035 -0.11820482 -0.084900245 0.115543485 -0.081222214 -0.1259046 -0.03501881 -0.11365779
0.029233387 -0.0500392 0.11505619 -0.023433387 -0.11966089 0.112634115 0.00391409 -0.116957046
-0.08678894 0.101132065 0.006436641 -0.04940164 0.08473629 -0.0031395059 -0.073006 0.08771267
-0.016686983 0.037083067 0.09082203 -0.05222301 -0.006939171 0.036795128 0.0960057 0.09372108
0.035686817 0.03663283 0.067797184 -0.006523907 0.062679596 -0.020100012 -0.041806426 -0.008523807
-0.09605409 0.03823497 -0.11268837 -0.0798519 -0.008400738 -0.0066471486 -0.0892931 0.081554204
-0.01579149 0.02290589 0.06459796 -0.09160418 -0.0017866492 0.08590079 -0.08488077 -0.09810586
0.027081264 -0.11643453 -0.036975864 -0.11909062 0.015282051 0.029633088 -0.093646094 -0.053778443
-0.06734845 -0.12588924 0.13917302 0.15460178 -0.07424318 -0.032510288 -0.17204404 0.22209972
-0.020491961 0.03439214 -0.10748687 -0.06172668 0.1933019 -0.06404131 -0.08142064 0.052698668
-0.085575506 0.11653473 -0.1035992 -0.0036003708 0.072380185 0.050129473 0.1117552 0.053968616
-0.024623564 0.14716281 -0.121507846 0.07869856 0.10698882 0.07159827 0.07346921 0.26044378
0.048398267 0.07770722 0.063831076 -0.048144154 0.12877925 -0.0071574124 -0.06302257 -0.05293853
0.05676237 -0.010247454 0.077156745 0.15440173 0.176496 0.09486791 0.1370009 0.12002899
-0.022505293 -0.07508442 -0.1809555 0.009255493 0.029925663 -0.116160676 0.010318176 -0.12254281
-0.07347693 0.11816809 0.06682132 -0.026665444 0.103103176 -0.10555366 -0.10355314 0.13799964
0.014988198 0.08646971 -0.037226655 -0.09061932 0.068458974 -0.14047769 -0.039259903 -0.08689804
0.107795656 0.029087605 -0.013393797 -0.017052643 -0.059939224 -0.039600737 -0.08031978 0.058035053
0.1007483 0.017799571 -0.08921251 -0.105578445 0.015516549 0.047248006 -0.11331107 0.00507291
0.080891155 -0.009779543 -0.059748087 -0.13709496 -0.049866762 0.13626215 -0.058557972 -0.07406583
0.07269995 -0.07684361 -0.029329745 -0.002428621 -0.060001366 0.104730904 0.07791454 -0.12980391
-0.11855438 -0.09373879 0.078198075 0.042405866 -0.15775105 -0.091759555 -0.040818762 0.07502416
-0.029897124 -0.053076297 -0.093996845 0.021672217 -0.064755484 -0.003618116 -0.114924 -0.058011685
-0.11399802 0.07764649 -0.09125416 0.007832263 0.06518092 -0.05548881 0.031138271 -0.04422726
-0.050929308 -0.07665212 -0.054123387 0.08554563 -0.10452241 -0.08955763 0.10235463 -0.10157551
-0.11672941 0.017463222 0.0056634396 -0.05297059 -0.115344554 -0.0032262462 0.0730184 -0.042215943
-0.051372558 -0.12182084 -0.04195382 -0.09107721 0.0016074479 0.06749467 -0.04977742 -0.10743139
0.10605548 -0.07630743 0.048719294 0.07407983 -0.005698055 0.03353664 -0.034170955 0.10119575
0.08251789 -0.091498055 -0.038789958 0.008788377 -0.12751625 0.040401816 0.08394829 -0.11080565
-0.10500486 -0.10852069 -0.123195976 -0.047710776 0.09992987 0.017720506 -0.0638686 0.0512357
-0.01532805 -0.058649506 -0.097349435 -0.018085875 0.0673316 -0.1309659 0.043704093 -0.031009048
-0.11659126 -0.1364417 0.026401699 0.08398755 0.078012146 0.07448235 0.0013430417 0.019656405
00000000: 8bae 7dbd 5e15 f2bd 2ee0 adbd 10a2 ec3d
00000010: d557 a6bd 23ed 00be e26f 0fbd 6ac5 e8bd
00000020: db7a ef3c e7f5 4cbd 94a2 eb3d 60f7 bfbc
00000030: c510 f5bd b7ac e63d c441 803b 2d87 efbd
00000040: 66be b1bd 541e cf3d 75ea d23b 6059 4abd
00000050: 388a ad3d 2bc0 4dbb 2b84 95bd b3a2 b33d
00000060: 24b3 88bc 6ae4 173d e700 ba3d cce7 55bd
00000070: fc61 e3bb 7db6 163d a39e c43d d6f0 bf3d
00000080: 572c 123d 4e0c 163d 40d9 8a3d 80c6 d5bb
00000090: 295e 803d c8a8 a4bc 373d 2bbd 70a7 0bbc
000000a0: 02b8 c4bd 469c 1c3d 29c9 e6bd 6589 a3bd
000000b0: 40a3 09bc 53d0 d9bb 4ddf b6bd e405 a73d
000000c0: 285d 81bc 22a5 bb3c ef4b 843d f99a bbbd
000000d0: 002e eaba c1ec af3d f8d5 adbd baeb c8bd
000000e0: 87d9 dd3c 3a75 eebd 0174 17bd c8e5 f3bd
000000f0: 9161 7a3c 17c1 f23c 86c9 bfbd c946 5cbd
00000100: fced 89bd 1ce9 00be 5f83 0e3e ee4f 1e3e
00000110: cf0c 98bd 8229 05bd 502c 30be 1c6e 633e
00000120: c2de a7bc c6de 0c3d 1322 dcbd 1dd5 7cbd
00000130: eff0 453e 1728 83bd ddbf a6bd 8fda 573d
00000140: 3642 afbd c3a9 ee3d d12b d4bd 33f4 6bbb
00000150: 103c 943d 9054 4d3d e9df e43d 320e 5d3d
00000160: 5bb7 c9bc d9b1 163e 1bd9 f8bd b62c a13d
00000170: f41c db3d 1da2 923d 0677 963d e358 853e
00000180: 433d 463d f724 9f3d deb9 823d ce32 45bd
00000190: b5de 033e ba88 eabb fa11 81bd 12d6 58bd
000001a0: a97f 683d f0e4 27bc 5b04 9e3d 7d1b 1e3e
000001b0: 5ebb 343e 1b4a c23d f749 0c3e c2d1 f53d
000001c0: 055d b8bc dcc5 99bd 664c 39be 5aa4 173c
000001d0: aa26 f53c a6e5 edbd 910d 293c baf7 fabd
000001e0: 137b 96bd 1d02 f23d 9ed9 883d 7d71 dabc
000001f0: c227 d33d 842c d8bd ab13 d4bd c74f 0d3e
00000200: 0f91 753c 0817 b13d fa7a 18bd 9f96 b9bd
00000210: 3834 8c3d 62d9 0fbe fece 20bd 99f7 b1bd
00000220: f8c3 dc3d 2149 ee3c a871 5bbc fcb1 8bbc
00000230: d582 75bd 6234 22bd b27e a4bd 2ab6 6d3d
00000240: 2055 ce3d 68d0 913c 0cb5 b6bd 8339 d8bd
00000250: 2039 7e3c 2087 413d a20f e8bd a73a a63b
00000260: 43aa a53d 603a 20bc 69ba 74bd 9f62 0cbe
00000270: 1741 4cbd 4e88 0b3e 7cda 6fbd d3af 97bd
00000280: b6e3 943d 2f60 9dbd ef44 f0bc 8029 1fbb
00000290: fec3 75bd 287d d63d a991 9f3d 51eb 04be
000002a0: a4cc f2bd 1ffa bfbd 5026 a03d c6b1 2d3d
000002b0: 7e89 21be 6fec bbbd 9331 27bd 44a6 993d
000002c0: d0ea f4bc 8866 59bd 6b81 c0bd ef89 b13c
000002d0: 869e 84bd ea1d 6dbb 465d ebbd a99d 6dbd
000002e0: cb77 e9bd 1f05 9f3d 76e3 babd e452 003c
000002f0: 937d 853d 3c48 63bd b015 ff3c a527 35bd
00000300: 409b 50bd c9fb 9cbd 7cb0 5dbd 8c32 af3d
00000310: d80f d6bd fe69 b7bd 4e9f d13d d206 d0bd
00000320: d40f efbd 080f 8f3c 6094 b93b b0f7 58bd
00000330: c439 ecbd 6e6f 53bb ac8a 953d a0ea 2cbd
00000340: 086c 52bd 347d f9bd c5d7 2bbd b086 babd
00000350: 00b1 d23a a53a 8a3d 68e3 4bbd fd04 dcbd
00000360: 9e33 d93d 1247 9cbd e28d 473d 2ab7 973d
00000370: c0b6 babb b75d 093d d8f6 0bbd b83f cf3d
00000380: 24ff a83d 5563 bbbd 38e2 1ebd 20fd 0f3c
00000390: 9f93 02be 607c 253d 15ed ab3d 13ee e2bd
000003a0: ca0c d7bd 1840 debd 2c4e fcbd 606c 43bd
000003b0: 08a8 cc3d 982a 913c 8acd 82bd 86dc 513d
000003c0: 8022 7bbc 773a 70bd 245f c7bd d428 94bc
000003d0: 26e5 893d ed1b 06be 1003 333d b006 febc
000003e0: 66c7 eebd 5fb7 0bbe 6048 d83c aa01 ac3d
000003f0: d5c4 9f3d 348a 983d 0009 b03a 7806 a13c

ob_encoder.2.bias f4 [16]
-0.09232999 0.095531136 -0.11697059 -0.11900959 0.02794401 -0.15291984 0.018207071 -0.005136149
-0.010850454 -0.06799503 -0.12757334 -0.1324078 0.13608009 -0.024630843 0.002918717 0.017836755
00000000: 8117 bdbd d4a5 c33d 478e efbd 4dbb f3bd
00000010: d6ea e43c 0597 1cbe ff26 953c 244d a8bb
00000020: 1ac6 31bc fa40 8bbd 96a2 02be e995 07be
00000030: 9458 0b3e 9fc6 c9bc f247 3f3b 631e 923c

ob_encoder.4.weight f4 [2, 16]
-0.07846147 -0.06539811 0.18366586 -0.20594077 0.3051382 0.112077266 0.25752485 -0.19532531
0.05644148 0.09927914 0.25516772 0.23152572 -0.301914 0.004220977 0.02264469 0.119676426
-0.08207101 0.0052385232 0.12276107 0.054025408 0.26469308 -0.16643794 -0.2555642 -0.16720484
0.2550575 0.08406417 -0.11473884 -0.1732152 -0.18020853 0.1761858 -0.1258669 -0.202869
00000000: 68b0 a0bd 72ef 85bd e712 3c3e 23e2 52be
00000010: 133b 9c3e c488 e53d 4cda 833e 5c03 48be
00000020: 2e2f 673d dd52 cb3d 58a5 823e 1415 6d3e
00000030: 7994 9abe 1f50 8a3b 5b81 b93c ea18 f53d
00000040: d814 a8bd eba7 ab3b 286a fb3d bf49 5d3d
00000050: da85 873e b56e 2abe 50d9 82be bf37 2bbe
00000060: e696 823e d629 ac3d 32fc eabd 535f 31be
00000070: 9688 38be 0d6a 343e 41e3 00be e4bc 4fbe

ob_encoder.4.bias f4 [2]
0.055658862 0.19867167
00000000: 8cfa 633d 9670 4b3e

ob_decoder.0.weight f4 [64, 1000]
-1.0456854 -0.5891254 -0.21797362 -1.1447551 0.60529447 -1.0343081 1.1124489 -0.26766092
1.0064629 0.5963555 0.26350635 1.1160032 -0.5434871 0.99757683 -1.1490977 0.29461396
-1.0072144 -0.6062764 -0.26377007 -1.0956749 0.5701117 -0.9988213 1.1281193 -0.26919428
0.9960699 0.6020267 0.23615426 1.1630183 -0.6135072 1.0040505 -1.1559367 0.30603737
-1.0926623 -0.6070029 -0.28563717 -1.106636 0.57514745 -1.017435 1.1318599 -0.21218224
1.0349185 0.58407664 0.2641556 1.1229926 -0.59699994 1.023199 -1.1637293 0.26840052
-1.0505282 -0.6029892 -0.26046076 -1.1237015 0.5532708 -1.0564846 1.1515638 -0.25388023
1.0107347 0.56543845 0.23542692 1.1499175 -0.5662678 1.0241104 -1.0875294 0.2453695
-0.99694145 -0.5615883 -0.2640386 -1.1044759 0.60160065 -0.99508446 1.1536369 -0.27242005
1.027519 0.5826278 0.24045575 1.1511239 -0.54501075 1.0137984 -1.1540223 0.24218851
-1.0639632 -0.5540426 -0.29636198 -1.1090444 0.6030291 -1.0199 1.0873914 -0.2174631
0.9909405 0.608051 0.25339276 1.1430644 -0.61777884 1.0541973 -1.1218153 0.2651294
-1.0033709 -0.602627 -0.2727295 -1.1682285 0.5481588 -1.0103987 1.1114243 -0.27803877
0.97854584 0.5882968 0.2261165 1.127722 -0.59990054 1.0283016 -1.1485344 0.2416716
-0.9934676 -0.5555659 -0.24270803 -1.1389146 0.5421663 -0.97615063 1.1360956 -0.28789878
1.028984 0.62410074 0.2543442 1.1388036 -0.59993064 1.0086569 -1.1706532 0.28419
0.08310399 -0.03906769 0.09806175 0.008944052 0.03447659 0.041049205 0.067852244 0.07064938
-0.035637308 0.08437567 -0.0819833 0.07837836 -0.03571038 -0.048409067 -0.051331744 -0.08847549
-0.019097095 -0.035785608 0.103467666 -0.009895333 0.06830612 9.785721e-06 0.04556078 0.098897144
-0.020810392 0.07979274 -0.097434334 0.035076145 -0.07598414 -0.023018707 -0.016297631 -0.09709201
0.016160363 -0.09207914 0.10786947 -0.02634184 0.081544146 0.055640344 -0.007714692 0.055117615
-0.02773217 0.06236836 -0.07434444 0.054595526 -0.057479076 0.026162203 0.01899181 -0.038973015
0.03955796 -0.07574417 0.102645434 -0.020916529 0.06120938 0.048381086 0.011498301 0.025282076
-0.063583665 0.1135413 -0.035287462 0.01345015 -0.013205808 -0.01570807 -0.024911216 -0.033719867
0.070032366 -0.05685482 0.04822142 -0.00605374 0.029605528 0.063249074 0.05960769 0.070071295
-0.0055233883 0.08095599 -0.07054747 0.06442301 -0.03966825 -0.030940251 -0.01389684 -0.10573908
0.021984572 -0.030699067 0.076881476 -0.08766704 0.049239855 0.008076955 -0.06640149 0.12650794
-0.04233569 0.07038 -0.06661503 0.03363746 -0.068657346 -0.02130046 -0.020312771 -0.054913264
0.022864025 -0.09834425 0.092325315 -0.016666776 0.02780909 -0.054811012 0.008328763 -0.023112891
-0.04938007 0.052170627 -0.08887319 0.038734216 -0.0016640341 -0.005449656 -0.03527712 0.004014648
0.036319923 -0.056238066 0.03047288 0.01200907 0.023876512 0.040754057 -0.01739623 0.086181715
-0.077869445 0.06147211 -0.09867046 -0.027632695 -0.06759081 -0.07062889 -0.003248642 -0.085579395
00000000: 05d9 85bf ecd0 16bf 7a34 5fbe 5687 92bf
00000010: 94f4 1a3f 3564 84bf ba64 8e3f da0a 89be
00000020: c7d3 803f c1aa 183f 4eea 863e 31d9 8e3f
00000030: f821 0bbf 3261 7f3f a215 93bf a4d7 963e
00000040: 67ec 80bf ee34 1bbf df0c 87be 133f 8cbf
00000050: d7f2 113f c1b2 7fbf 3766 903f d5d3 89be
00000060: 70fe 7e3f 6c1e 1a3f 6cd2 713e c9dd 943f
00000070: cf0e 1dbf ba84 803f bcf5 93bf eeb0 9c3e
00000080: 5cdc 8bbf 8b64 1bbf 093f 92be 40a6 8dbf
00000090: dd3c 133f 4f3b 82bf c9e0 903f 4d46 59be
000000a0: 3678 843f 0c86 153f 673f 873e 39be 8f3f
000000b0: fdd4 18bf 2ff8 823f 15f5 94bf cb6b 893e
000000c0: b577 86bf 805d 1abf 1d5b 85be 73d5 8fbf
000000d0: 28a3 0d3f e33a 87bf 7166 933f 97fc 81be
000000e0: c15f 813f 93c0 103f c113 713e 7f30 933f
000000f0: edf6 10bf 0d16 833f 2a34 8bbf 2442 7b3e
00000100: 8e37 7fbf 40c4 0fbf 1130 87be 775f 8dbf
00000110: 8002 1a3f dbbd 7ebf 60aa 933f a47a 8bbe
00000120: be85 833f 1827 153f 083a 763e 0758 933f
00000130: d385 0bbf 25c4 813f 01b7 93bf 4400 783e
00000140: f22f 88bf bcd5 0dbf c2bc 97be 2bf5 8dbf
00000150: 1d60 1a3f 158c 82bf a42f 8b3f a6ae 5ebe
00000160: 47ae 7d3f 3ba9 1b3f b2bc 813e ef4f 923f
00000170: c126 1ebf f0ef 863f a597 8fbf 0abf 873e
00000180: 756e 80bf c345 1abf 33a3 8bbe 8388 95bf
00000190: 2354 0c3f bf54 81bf 2743 8e3f 195b 8ebe
000001a0: fb81 7a3f 9e9a 163f 158b 673e 3259 903f
000001b0: 1593 19bf 639f 833f 2d03 93bf c378 773e
000001c0: e553 7ebf 9139 0ebf 7488 78be f4c7 91bf
000001d0: 69cb 0a3f 02e5 79bf 956b 913f 7867 93be
000001e0: bfb5 833f 11c5 1f3f 6739 823e 51c4 913f
000001f0: 0e95 19bf ab1b 813f f7d7 95bf 5a81 913e
00000200: 6d32 aa3d 7105 20bd 99d4 c83d 138a 123c
00000210: 5337 0d3d 3623 283d 1ef6 8a3d 9fb0 903d
00000220: 6df8 11bd 27cd ac3d dce6 a7bd d584 a03d
00000230: 0c45 12bd 9648 46bd 3c41 52bd a332 b5bd
00000240: 8371 9cbc ee93 12bd dbe6 d33d 0920 22bc
00000250: 14e4 8b3d 5a2d 2437 f19d 3a3d 968a ca3d
00000260: 8e7a aabc 606a a33d a78b c7bd 01ac 0f3d
00000270: 939d 9bbd ba91 bcbc 9c82 85bc 2dd8 c6bd
00000280: bd62 843c fd93 bcbd abea dc3d d8ca d7bc
00000290: 9e00 a73d 21e7 633d 87cb fcbb 02c3 613d
000002a0: 932e e3bc f775 7f3d e641 98bd 8f9f 5f3d
000002b0: 2e6f 6bbd 1e52 d63c b694 9b3c 2ba2 1fbd
000002c0: 8707 223d c21f 9bbd c537 d23d 2459 abbc
000002d0: b0b6 7a3d 3f2b 463d 5f63 3c3c 5b1c cf3c
000002e0: 2738 82bd 5788 e83d 9689 10bd 055e 5c3c
000002f0: 2c5d 58bc 36ae 80bc 9b12 ccbc d81d 0abd
00000300: 216d 8f3d 9ae0 68bd d383 453d 745e c6bb
00000310: 4b87 f23c bb88 813d 3127 743d 8a81 8f3d
00000320: 8afd b4bb 41cc a53d 317b 90bd 36f0 833d
00000330: 2d7b 22bd 6976 fdbc 92af 63bc bb8d d8bd
00000340: fd18 b43c 9c7c fbbc 0974 9d3d c78a b3bd
00000350: bbaf 493d 3455 043c 81fd 87bd 4c8b 013e
00000360: 3068 2dbd 6423 903d 766d 88bd 6fc7 093d
00000370: 399c 8cbd 4d7e aebc f866 a6bc bbec 60bd
00000380: 564d bb3c b668 c9bd 0e15 bd3d c388 88bc
00000390: e4cf e33c 8381 60bd 5d75 083c 3f57 bdbc
000003a0: c242 4abd deb0 553d 2603 b6bd c5a7 1e3d
000003b0: b81b daba 0793 b2bb be7e 10bd 4f8d 833b
000003c0: 33c4 143d e359 66bd 43a2 f93c b1c1 443c
000003d0: ad98 c33c baed 263d 8a82 8ebc 0a80 b03d
000003e0: 047a 9fbd 2eca 7b3d bd13 cabd f65d e2bc
000003f0: 0d6d 8abd e1a5 90bd 2be7 54bb 4044 afbd

ob_decoder.0.bias f4 [64]
0.45740488 0.009605145 0.42095423 0.45200202 0.44064003 0.45579866 0.43415633 0.42087325
0.29801303 0.46212387 0.4535564 0.45124367 0.46219936 0.42986786 0.4166929 0.48671222
0.44410554 0.43547824 0.47358897 -0.04537227 0.44440794 0.4467639 0.4524327 0.3695373
0.4360865 0.47589743 -0.09535425 -0.037243035 0.6464903 0.4337098 0.44767475 0.41245005
0.45707548 0.44794008 0.6239929 0.46626747 0.43190765 0.48513487 0.47520643 0.42009166
0.4399388 0.41752675 0.47191715 0.44371668 0.39338577 -0.039151937 0.45297354 0.46825674
0.4221779 0.42152408 0.4751395 0.41647398 0.4849691 0.44076136 0.43892616 0.4653947
0.510637 0.6680479 0.4134435 0.42736048 0.43668494 0.43326777 0.43404987 0.44142878
00000000: f930 ea3e e65e 1d3c 5087 d73e cf6c e73e
00000010: 929b e13e 715e e93e bd49 de3e b37c d73e
00000020: 2a95 983e 809b ec3e 8b38 e83e 6909 e73e
00000030: 65a5 ec3e a417 dc3e c658 d53e 5832 f93e
00000040: cd61 e33e 01f7 de3e 417a f23e 46d8 39bd
00000050: 7089 e33e 3dbe e43e 42a5 e73e fe33 bd3e
00000060: bb46 df3e d4a8 f33e 1749 c3bd 278c 18bd
00000070: 6380 253f 360f de3e a035 e53e a72c d33e
00000080: cc05 ea3e 6758 e53e 00be 1f3f 9cba ee3e
00000090: 0023 dd3e 9963 f83e 424e f33e 4116 d73e
000000a0: a93f e13e 11c6 d53e 209f f13e d52e e33e
000000b0: dc69 c93e c85d 20bd 26ec e73e 59bf ef3e
000000c0: b427 d83e 01d2 d73e 7c45 f33e 143c d53e
000000d0: df4d f83e 79ab e13e eeba e03e 3748 ee3e
000000e0: 1bb9 023f 3005 2b3f deae d33e fece da3e
000000f0: 2b95 df3e 46d5 dd3e c93b de3e f402 e23e

ob_decoder.2.weight f4 [16, 64]
0.75645787 0.8209075 1.0286524 1.0327748 0.98442036 1.0273812 1.0049576 1.0686646
-0.2662123 0.85292864 0.8128825 0.9508203 0.8786722 0.93506974 0.9703226 0.88508135
0.9953777 1.0699264 0.8561695 0.054392863 0.86388457 0.99594 0.96970177 0.8516495
1.0468739 0.75856864 -0.04195123 -0.051815808 -0.6839259 0.97576565 0.9065442 1.0261974
0.8286872 0.99516976 -0.89816153 1.0538735 0.89380676 -0.63557446 0.93496513 0.99520504
1.078012 0.94439495 1.0675076 1.0655324 1.0735308 -0.064991765 0.93591523 0.891415
0.9638425 0.9511067 -0.6030894 1.0063746 0.95315933 1.0336946 1.0432366 0.76722884
1.1177237 -0.7907646 1.0057235 0.87487775 1.0330662 0.9378106 -0.7637856 0.9175152
0.8067994 0.7884646 0.93983805 0.9149696 1.0434688 0.9280178 0.9453816 1.1245342
-0.45390844 0.80051494 0.89411134 1.0443902 0.91191685 0.9445894 0.9900948 1.0256177
0.86110395 1.1263832 1.1310409 0.08133062 1.0688506 0.9531103 0.9039911 0.9539399
0.9035052 0.89523375 -0.016783109 -0.033160523 -0.6842897 0.98975825 0.89771837 1.0232743
0.9054002 0.93257535 -0.65790033 1.1561493 1.0019271 -0.71507317 0.96782273 1.1710963
0.9408925 0.9367541 1.0563626 0.94159704 0.9997033 0.0876517 1.1184566 0.97487605
1.1504352 1.1556419 -0.7395386 0.99784964 1.2296257 1.1503675 0.9020357 0.94371337
1.15375 -0.8396194 1.1358973 1.0573143 1.0969619 1.0016674 -0.7348802 1.0145001
0.042219475 -0.031228706 -0.05173002 -0.11597554 -0.0398954 0.06374083 -0.079270795 0.10058197
0.1149897 -0.062061038 -0.103547044 -0.03873454 -0.053244352 -0.04100059 -0.010263434 -0.060700268
0.052383415 -0.015881808 -0.100821644 0.0020789057 -0.006426262 0.10087037 -0.033505093 -0.021803916
-0.08687135 0.0055805147 0.12236364 0.005886197 -0.08733599 -0.110931374 -0.044055656 0.041138817
-0.1186662 0.10896203 -0.01607427 0.07717226 -0.058709543 -0.06300527 0.08988172 -0.056328706
-0.10256093 0.04993333 -0.12700091 0.10032647 0.11229948 0.05388175 -0.10960888 -0.034982428
-0.0366264 -0.062162124 0.06516674 -0.06137051 -0.047779884 -0.046160754 -0.004103999 0.1173753
0.044945173 -0.09729625 0.08187009 -0.008240847 -0.069456086 -0.07483879 -0.08631523 0.020014433
-0.07380508 -0.037383735 -0.009267613 0.045231074 -0.11799984 0.043354273 -0.088590235 0.013201624
0.07937556 -0.027852818 -0.0537605 -0.011299491 -0.042748913 0.0036875904 0.080064446 -0.04357238
-0.054400295 -0.0037785172 -0.004459977 -0.089063555 0.06865084 0.11959359 -0.04148546 -0.06185378
0.09752694 -0.099124804 -0.06718847 0.020492062 -0.068188116 0.0259341 0.08378278 -0.10034044
-0.0141258985 -0.10265845 -0.11580456 -0.03752756 -0.119544595 0.0073713674 0.06555776 -0.0640869
-0.044233516 -0.027802914 -0.12252329 -0.01948461 0.041257307 0.10016225 0.008841112 0.089392334
0.095092 -0.10195801 -0.04737496 -0.023678526 -0.048575833 -0.021758422 -0.026482671 -0.079081684
-0.10581231 0.061952133 -0.06540291 0.019447789 -0.018465951 0.071522295 -0.008441776 0.05269721
00000000: 39a7 413f fe26 523f e2aa 833f f731 843f
00000010: f902 7c3f 3a81 833f 73a2 803f 00ca 883f
00000020: fb4c 88be 8859 5a3f 1119 503f f668 733f
00000030: a9f0 603f bb60 6f3f 1067 783f b194 623f
00000040: 13d1 7e3f 59f3 883f ed2d 5b3f 0dcb 5e3d
00000050: 8a27 5d3f edf5 7e3f 603e 783f b405 5a3f
00000060: f7ff 853f 8e31 423f 0ed5 2bbd d03c 54bd
00000070: c515 2fbf c7cb 793f 4813 683f 705a 833f
00000080: d824 543f 72c3 7e3f eaed 65bf 54e5 863f
00000090: 85d0 643f 02b5 22bf e059 6f3f c2c5 7e3f
000000a0: 4cfc 893f dec3 713f 17a4 883f 5e63 883f
000000b0: 7569 893f 671a 85bd 2498 6f3f c633 643f
000000c0: 62be 763f bb7b 733f 1164 1abf e2d0 803f
000000d0: 4002 743f 1b50 843f c788 853f 1c69 443f
000000e0: 9211 8f3f 8c6f 4abf 8cbb 803f fdf7 5f3f
000000f0: 833b 843f 5b14 703f 7487 43bf 47e2 6a3f
00000100: 688a 4e3f d1d8 493f 3a99 703f 733b 6a3f
00000110: 6390 853f 9392 6d3f 8704 723f bdf0 8f3f
00000120: b066 e8be 8cee 4c3f 7be4 643f 94ae 853f
00000130: 6273 693f 9cd0 713f da76 7d3f 7147 833f
00000140: 4f71 5c3f 532d 903f f3c5 903f ab90 a63d
00000150: 19d0 883f 09ff 733f f66b 673f 6835 743f
00000160: 1e4c 673f 0a2e 653f bb7c 89bc 54d3 07bd
00000170: 9c2d 2fbf cc60 7d3f dfd0 653f a7fa 823f
00000180: 4fc8 673f 42bd 6e3f 286c 28bf b3fc 933f
00000190: 263f 803f 090f 37bf 3bc3 773f 7ce6 953f
000001a0: 55de 703f 1ecf 6f3f e436 873f 810c 713f
000001b0: 8eec 7f3f bc82 b33d 9629 8f3f 7a91 793f
000001c0: 7641 933f 13ec 933f 6752 3dbf 1373 7f3f
000001d0: 6064 9d3f 3e3f 933f d0eb 663f 3397 713f
000001e0: 14ae 933f 4cf1 56bf 1565 913f 1356 873f
000001f0: 3f69 8c3f a336 803f 1c21 3cbf 24db 813f
00000200: 54ee 2c3d 58d3 ffbc dce2 53bd 9584 edbd
00000210: 5c69 23bd 8d8a 823d ba58 a2bd ebfd cd3d
00000220: b87f eb3d b733 7ebd 7910 d4bd 1ca8 1ebd
00000230: c016 5abd 3cf0 27bd f627 28bc d8a0 78bd
00000240: fe8f 563d 911a 82bc 947b cebd 403e 083b
00000250: 6593 d2bb 2095 ce3d a33c 09bd 209e b2bc
00000260: 9be9 b1bd c0dc b63b ca99 fa3d 00e1 c03b
00000270: 36dd b2bd fd2f e3bd b473 34bd 2d81 283d
00000280: 4407 f3bd 7c27 df3d 30ae 83bc 7d0c 9e3d
00000290: 6b79 70bd e808 81bd e813 b83d eeb8 66bd
000002a0: 770b d2bd e486 4c3d 870c 02be f777 cd3d
000002b0: 45fd e53d 1cb3 5c3d 9f7a e0bd bc49 0fbd
000002c0: 9005 16bd b69d 7ebd 2476 853d a55f 7bbd
000002d0: d7b4 43bd 0f13 3dbd d77a 86bb 7662 f03d
000002e0: 6e18 383d 4243 c7bd 81ab a73d 9e04 07bc
000002f0: fe3e 8ebd 1445 99bd 0ac6 b0bd 4ff5 a33c
00000300: 1e27 97bd b01f 19bd 30d7 17bc 3844 393d
00000310: e6a9 f1bd 4094 313d cc6e b5bd a04b 583c
00000320: a78f a23d 982b e4bc f833 5cbd 8021 39bc
00000330: 7c19 2fbd 80ab 713b d4f8 a33d f478 32bd
00000340: d8d2 5ebd 00a1 77bb 0025 92bb f466 b6bd
00000350: d098 8c3d 7ced f43d a8ec 29bd 645a 7dbd
00000360: 34bc c73d f201 cbbd 1c9a 89bd f8de a73c
00000370: 36a6 8bbd c073 d43c 4e96 ab3d 4a7f cdbd
00000380: 5070 67bc 983e d2bd f12a edbd 80b6 19bd
00000390: ccd3 f4bd 838b f13b 2643 863d fe3f 83bd
000003a0: 342e 35bd f0c2 e3bc 7eed fabd 309e 9fbc
000003b0: 6cfd 283d de21 cd3d 50da 103c 5413 b73d
000003c0: 98bf c23d 5ccf d0bd 3f0c 42bd 78f9 c1bc
000003d0: 74f7 46bd b83e b2bc 30f2 d8bc 94f5 a1bd
000003e0: 20b4 d8bd 85c1 7d3d f6f1 85bd f850 9f3c
000003f0: e845 97bc 487a 923d 604f 0abc 08d9 573d

ob_decoder.2.bias f4 [16]
0.14110865 0.18742335 -0.104067326 -0.13874905 -0.09496327 0.4821327 0.059885785 0.53740335
0.20828536 0.38439637 -0.14082076 0.2744754 0.04369977 0.22440201 0.49468693 0.4538488
00000000: c97e 103e e8eb 3f3e 4021 d5bd 3b14 0ebe
00000010: 1a7c c2bd 19da f63e cc4a 753d 4493 093f
00000020: c248 553e 9acf c43e 5133 10be 0a88 8c3e
00000030: 88fe 323d a4c9 653e 9b47 fd3e df5e e83e

ob_decoder.4.weight f4 [2, 16]
1.2031455 1.2111206 -0.08373386 0.1043769 0.06472647 -0.79624057 0.33945158 -0.63574123
1.3422476 1.2647067 -0.08510592 1.3579092 1.3739436 1.2014419 -0.7496738 -0.8221576
-0.2595449 -0.3556663 -0.060374606 0.10610239 0.12555584 0.45727348 0.27086568 0.6011755
-0.24982005 -0.52643704 -0.112969436 -0.5325891 -0.13480547 -0.52733403 0.57416165 0.32455638
00000000: ac00 9a3f 0006 9b3f a87c abbd 8ec3 d53d
00000010: 508f 843d 6cd6 4bbf 99cc ad3e f0bf 22bf
00000020: c5ce ab3f e9e1 a13f 034c aebd f8cf ad3f
00000030: 62dd af3f d9c8 993f 9fea 3fbf ec78 52bf
00000040: 12e3 84be e519 b6be 5d4b 77bd 364c d93d
00000050: b691 003e c01f ea3e e8ae 8a3e a3e6 193f
00000060: d4d0 7fbe 94c4 06bf 855c e7bd c257 08bf
00000070: 720a 0abe 5dff 06bf 42fc 123f 412c a63e

ob_decoder.4.bias f4 [2]
0.3270011 -0.23030175
00000000: b06c a73e 39d4 6bbe

encoder.0.weight f4 [8, 4]
0.17908135 0.3288543 -0.20825319 0.15870045 -0.32065225 -0.17127866 -0.34635907 -0.29454005
0.41811967 0.3276243 0.68490744 -0.2587448 -0.39341456 0.0031927186 0.26082516 0.0858511
-0.1121968 -0.060276628 0.007114053 0.22784978 0.041566208 -0.3481336 -0.006750832 0.22361223
-0.2676771 0.49030638 -0.3065628 0.54921436 -0.36832494 -0.08390242 0.26886773 0.09869403
00000000: 1a61 373e 975f a83e 5340 55be 5f82 223e
00000010: 882c a4be ac63 2fbe fa55 b1be f4cd 96be
00000020: c813 d63e 5fbe a73e 1856 2f3f 337a 84be
00000030: a26d c9be ee3c 513b e08a 853e b4d2 af3d
00000040: 70c7 e5bd a0e4 76bd 001d e93b 7451 693e
00000050: 5441 2a3d 913e b2be 1536 ddbb 9bfa 643e
00000060: f90c 89be 7009 fb3e cdf5 9cbe 5099 0c3f
00000070: 1695 bcbe 08d5 abbd 08a9 893e 1820 ca3d

encoder.0.bias f4 [8]
-0.12936221 0.013339996 -0.1682064 0.31459883 -0.28837454 0.31598663 0.3900555 -0.37172425
00000000: 8777 04be 0090 5a3c 4c3e 2cbe 1913 a13e
00000010: d4a5 93be 00c9 a13e 5bb5 c73e a452 bebe

encoder.2.weight f4 [2, 8]
-0.28422582 -0.2984251 0.3785153 0.3694753 0.12148104 -0.15780851 -0.2920032 0.30019122
0.25347632 0.31489792 -0.03643627 -0.063664176 -0.066630624 -0.2902485 -0.17986898 -0.2323592
00000000: 0c86 91be 2dcb 98be c2cc c13e de2b bd3e
00000010: 0dcb f83d 8e98 21be 7281 95be aab2 993e
00000020: a6c7 813e 4d3a a13e 333e 15bd 5d62 82bd
00000030: a375 88bd 749b 94be 932f 38be 92ef 6dbe

encoder.2.bias f4 [2]
0.22254695 0.23248795
00000000: 59e3 633e 5211 6e3e

decoder.0.weight f4 [32, 130]
0.2585069 0.13868625 -0.058732837 0.009923549 -0.15956801 -0.17167005 0.074508294 0.12064811
0.15855028 0.09030803 -0.066756524 -0.099722125 -0.15645154 -0.15425314 0.012323768 0.0896197
0.111118495 0.04923742 0.012033235 -0.110536925 -0.088557266 -0.01818188 0.030138306 -0.007038651
0.098822325 0.13723677 0.029153384 -0.06947277 -0.13251035 -0.016454414 -0.015082662 0.06680831
0.11502733 0.12440247 0.019225469 -0.1563976 -0.095710285 -0.023875115 -0.019412545 0.026091242
0.15391967 0.012010464 -0.07321956 -0.08594456 -0.094529696 -0.023911787 -0.021757228 0.13927113
0.12177785 0.030203985 0.07020025 -0.16254203 -0.15227035 -0.15464343 -0.078843065 0.16250949
0.1119483 0.104558505 0.051533062 -0.11523659 -0.17861632 -0.022842534 0.029637266 0.031744003
0.039963853 0.020593045 0.12298814 0.0061113783 0.03423386 -0.11950229 -0.11681285 -0.16832301
0.009291826 0.044718977 0.20062087 0.15179919 0.06122041 -0.044314243 -0.20896682 -0.1790836
-0.012795325 0.13201208 0.14677715 0.07538302 0.07296803 -0.116376854 -0.20275068 -0.13614869
-0.08229382 0.004973019 0.2047687 0.039095953 -0.084040344 -0.029860042 -0.13319218 -0.15156908
0.04487714 0.056654323 0.21977966 0.121228375 -0.057670817 -0.13515274 -0.1756704 -0.049006216
0.028532157 0.07519259 0.13828099 0.05259511 0.01969337 -0.17038693 -0.24596797 -0.06519419
0.053881153 0.06146747 0.19875358 0.074305214 -0.023956038 -0.026114328 -0.18868032 -0.15383188
0.028330537 0.16247505 0.17770188 0.10116329 0.08046035 -0.12681834 -0.21731305 -0.09024208
0.121505715 -0.1618061 0.08558284 0.06523905 -0.07346236 -0.078750126 -0.10696127 -0.08244394
0.07360047 0.005893877 0.14125456 0.13683368 0.026746437 -0.022181353 -0.13027868 -0.088541634
0.0026127654 0.027908994 0.18905139 0.03624436 0.00027446594 0.0063955523 -0.18793854 -0.024849897
-0.04416558 0.044903927 0.14983642 0.0043671755 -0.033741076 -0.028561048 -0.14063281 -0.13613057
0.064294465 0.15087144 0.19198748 0.10928635 0.053480003 -0.105318055 -0.085375056 -0.07117537
0.009923009 0.110482 0.15495205 0.041554943 -0.023277326 -0.09755692 -0.1703919 -0.16292989
-0.0693446 0.017623032 0.090381935 0.08179758 0.047498614 -0.05616701 -0.2045573 -0.16352142
-0.076856814 -1.620945e-05 0.1937179 0.07133621 -0.058288366 0.00474282 -0.10536175 -0.03989115
-0.038214497 0.08725434 -0.042654417 0.053585466 0.21838485 0.019318815 0.07315117 -0.1315611
-0.20333786 -0.06580746 0.032570034 0.006786143 0.0808046 0.10440956 -0.028353358 -0.00790537
-0.07865596 -0.048439067 0.04732563 0.16024633 0.18832593 0.020715006 -0.08677226 -0.041513957
-0.1128932 -0.053076025 0.008821971 0.020493219 0.06683766 0.036897786 0.077046715 -0.023519246
-0.08346559 -0.05953529 0.08978831 0.12307604 0.14118151 0.13298842 -0.040310103 -0.07110159
-0.18120596 -0.12895122 0.013855753 0.02987993 0.17336437 0.06610827 -0.08349767 -0.024429519
-0.20233528 -0.12176783 0.07366451 0.1808514 0.124678135 0.05545409 -0.086321585 -0.092127696
-0.078993574 -0.16406989 0.054171104 -0.014264767 0.10610897 0.063593335 0.008660886 -0.15444414
00000000: 045b 843e c503 0e3e d891 70bd 6296 223c
00000010: cc65 23be 46ca 2fbe ce97 983d 5b16 f73d
00000020: 015b 223e 6bf3 b83d a5b7 88bd 1d3b ccbd
00000030: d534 20be 89f4 1dbe a1e9 493c 898a b73d
00000040: 1892 e33d 2dad 493d 0c27 453c 2f61 e2bd
00000050: 835d b5bd 2af2 94bc 9ce4 f63c 7ca4 e6bb
00000060: 5c63 ca3d cc87 0c3e 14d3 ee3c bd47 8ebd
00000070: cbb0 07be 68cb 86bc 451d 77bc ccd2 883d
00000080: 7393 eb3d b9c6 fe3d bb7e 9d3c b126 20be
00000090: c103 c4bd bf95 c3bc 0f07 9fbc 4dbd d53c
000000a0: 1e9d 1d3e 8ac7 443c 23f4 95bd b403 b0bd
000000b0: c998 c1bd a7e2 c3bc 373c b2bc 179d 0e3e
000000c0: aa66 f93d 596e f73c 26c5 8f3d 6b71 26be
000000d0: c2ec 1bbe d95a 1ebe 7978 a1bd e368 263e
000000e0: 2645 e53d c522 d63d 5514 533d 2901 ecbd
000000f0: 32e7 36be 4420 bbbc dac9 f23c 0006 023d
00000100: 23b1 233d bfb2 a83c 35e1 fb3d f541 c83b
00000110: ce38 0c3d 9ebd f4bd 933b efbd de5c 2cbe
00000120: be3c 183c 3f2b 373d 8f6f 4d3e 3f71 1b3e
00000130: 41c2 7a3d da82 35bd 66fb 55be b161 37be
00000140: 7ca3 51bc 2d2e 073e c04c 163e 6a62 9a3d
00000150: 4370 953d fd56 eebd e09d 4fbe 906a 0bbe
00000160: aa89 a8bd b5f4 a23b e3ae 513e 1423 203d
00000170: 581d acbd 0c9d f4bc 8863 08be ed34 1bbe
00000180: 18d1 373d 5d0e 683d eb0d 613e 9546 f83d
00000190: 3c38 6cbd 7b65 0abe f1e2 33be beba 48bd
000001a0: 45bc e93c 93fe 993d 8899 0d3e f86d 573d
000001b0: fe53 a13c e979 2ebe 07df 7bbe 8884 85bd
000001c0: 7cb2 5c3d 50c5 7b3d 0f86 4b3e 552d 983d
000001d0: 743f c4bc b7ed d5bc 6a35 41be 1b86 1dbe
000001e0: 7115 e83c dc5f 263e 7bf7 353e b32e cf3d
000001f0: 65c8 a43d abdc 01be 5087 5ebe d7d0 b8bd
00000200: fdd7 f83d 80b0 25be 0e46 af3d 0d9c 853d
00000210: 6f73 96bd bf47 a1bd 830e dbbd 5ed8 a8bd
00000220: d8bb 963d 6c21 c13b 09a5 103e 211e 0c3e
00000230: 581b db3c abb5 b5bc c667 05be 5155 b5bd
00000240: ee3a 2b3b 67a1 e43c b096 413e f774 143d
00000250: 32e6 8f39 c891 d13b f672 40be 0392 cbbc
00000260: f8e6 34bd 2eed 373d b86e 193e 861a 8f3b
00000270: 1534 0abd dcf8 e9bc 0c02 10be d065 0bbe
00000280: d1ac 833d 0b7e 1a3e 5e98 443e 86d1 df3d
00000290: d90d 5b3d feb0 d7bd 1ed9 aebd 64c4 91bd
000002a0: 1e94 223c 6344 e23d c0ab 1e3e 8435 2a3d
000002b0: 17b0 bebc eccb c7bd 377b 2ebe 18d7 26be
000002c0: 8b04 8ebd 2d5e 903c 2a1a b93d 7d85 a73d
000002d0: e88d 423d 610f 66bd 7877 51be 2972 27be
000002e0: 1b67 9dbd 87f9 87b7 fc5d 463e b818 923d
000002f0: c8bf 6ebd a869 9b3b e7c7 d7bd e764 23bd
00000300: ce86 1cbd 67b2 b23d 66b6 2ebd 6f7c 5b3d
00000310: 47a0 5f3e 7e42 9e3c 48d0 953d f4b7 06be
00000320: cd37 50be 10c6 86bd 2868 053d 4b5e de3b
00000330: e27c a53d aed4 d53d 4d45 e8bc 8685 01bc
00000340: 6016 a1bd 0b68 46bd 85d8 413d 9d17 243e
00000350: 83d8 403e 84b2 a93c a8b5 b1bd 8a0a 2abd
00000360: 8d34 e7bd 3f66 59bd 078a 103c 65e1 a73c
00000370: 2fe2 883d 2222 173d abca 9d3d 6fab c0bc
00000380: 02f0 aabd 47db 73bd efe2 b73d 4a0f fc3d
00000390: e391 103e 1e2e 083e 351c 25bd b69d 91bd
000003a0: 0e8e 39be ca0b 04be 3d03 633c c1c6 f43c
000003b0: 6e86 313e c663 873d d400 abbd 6a20 c8bc
000003c0: fb30 4fbe 6961 f9bd 6bdd 963d 1c31 393e
000003d0: 4057 ff3d d423 633d 5fc9 b0bd 72ad bcbd
000003e0: 62c7 a1bd f001 28be 85e2 5d3d c5b6 69bc
000003f0: a94f d93d 393d 823d 64e6 0d3c 9b26 1ebe

decoder.0.bias f4 [32]
0.13388243 0.07739239 -0.07331161 0.09918454 0.119962335 0.14023528 0.17396612 0.23037988
0.12753664 0.1419924 0.006693178 0.15364678 0.08877611 0.16936238 -0.1101227 -0.08216757
0.16801928 0.18494545 0.12303004 -0.058264572 -0.096501835 0.17530644 0.1289739 0.1503449
-0.10770588 0.14577997 0.19154999 0.0768048 0.15504673 0.14623268 -0.035804283 -0.0037982925
00000000: 7a18 093e e77f 9e3d 6624 96bd 4421 cb3d
00000010: d0ae f53d d699 0f3e 2d24 323e b4e8 6b3e
00000020: f798 023e 7566 113e 7252 db3b 9555 1d3e
00000030: 40d0 b53d 556d 2d3e 0388 e1bd 7947 a8bd
00000040: 3f0d 2c3e 5762 3d3e 2cf7 fb3d d5a6 6ebd
00000050: c1a2 c5bd 8883 333e bc11 043e 03f4 193e
00000060: e794 dcbd 5847 153e ae25 443e d64b 9d3d
00000070: 92c4 1e3e 05be 153e 83a7 12bd c6ec 78bb

decoder.2.weight f4 [8, 32]
0.36656326 0.21404395 0.06482173 0.040463664 0.25006312 0.3137042 0.25132626 0.32171372
-0.0038307298 -0.053424146 -0.036216702 0.15859434 0.31193474 0.28248486 0.2562724 0.08346679
0.2005314 0.06465426 0.064101525 0.073929526 0.046960443 0.23423733 0.34966844 0.37350404
-0.04562815 0.34157452 0.26361367 0.318238 -0.22843869 0.35462227 -0.024943147 0.038517464
0.022383798 0.036134537 -0.13681786 -0.21338032 0.02952913 -0.112673715 -0.02929646 -0.12516278
-0.027318543 -0.22384912 -0.012512051 -0.15969555 0.13219436 -0.050843276 0.103080355 -0.09590671
0.03406367 0.13205309 -0.14127524 0.024374496 0.13834491 0.04946731 -0.11171137 -0.000754942
-0.0055828346 -0.07387522 -0.22680053 -0.13751231 0.120280944 -0.17341058 -0.02195531 0.110136166
-0.12301966 -0.18277083 -0.06253909 -0.091426685 0.13693047 -0.10828725 -0.16068569 -0.0553935
-0.1453185 0.10769071 0.032018982 -0.003022154 -0.18297069 -0.0345736 0.0617575 -0.085988075
-0.09787696 -0.0140855 -0.07730234 0.03302467 -0.011401903 0.06647846 -0.18447363 -0.08015143
-0.01774026 0.046696678 0.12626861 -0.083183244 -0.09635176 -0.13112865 -0.061007705 0.01636182
-0.22249068 -0.12515493 0.013169921 0.07603787 -0.18279797 0.0280358 -0.19990538 0.24119525
0.03638479 0.20634176 -0.060244724 0.13605317 -0.13893493 -0.18194279 0.092887245 -0.04123992
-0.22389258 0.2844179 0.31466997 0.102330975 -0.023603963 -0.014355188 -0.18633832 0.015698899
0.1357625 -0.29860073 -0.013694404 -0.27477783 0.42785627 -0.1647206 -0.046647023 0.15173633
-0.19489942 -0.09101117 0.0682447 0.21185525 0.02731211 0.2558503 -0.0399415 0.103041574
0.2192527 0.16777979 -0.15311265 0.17580397 -0.20136827 0.08407403 -0.08530346 0.1718763
-0.11508999 0.17112623 0.29347444 -0.1475128 0.12822789 0.29025212 -0.07049704 -0.018742582
-0.04742969 -0.08994887 0.07991077 -0.19868189 0.2826717 0.003038401 -0.1580318 0.10447825
-0.18819305 -0.12677775 0.12026816 -0.044569895 0.03588929 -0.14250067 0.0013956059 -0.04790592
0.06362862 -0.13157229 -0.079612024 -0.193115 -0.2022527 -0.029782437 0.11783325 0.13953769
-0.13276848 -0.18850559 -0.20313339 -0.049384113 -0.11016735 0.005320147 -0.035890866 0.068747565
0.0034825096 -0.12128844 -0.026235275 -0.12601106 -0.14966868 0.11574305 0.09226024 -0.012398771
0.10157506 -0.08735481 -0.11451351 0.18515849 -0.024018694 -0.061609887 -0.123323224 0.1320152
0.19990148 -0.062264264 -0.111251555 -0.1467282 -0.028471597 -0.07451868 -0.39635068 0.16537847
0.16917628 0.24814288 0.20001698 -0.1298083 -0.10438453 -0.13647032 -0.20577091 -0.07498349
0.06985339 0.015475198 0.13980001 0.08332088 -0.0077436427 0.15626709 0.010164487 -0.39600882
0.21093899 0.15863112 -0.0055072443 0.13922517 0.122245215 0.08953734 0.06691749 0.01628085
-0.18079123 0.055014394 -0.051088765 0.18988013 -0.0033293401 0.2548595 0.21180013 -0.0915201
0.20602208 0.12219997 -0.1997631 -0.08550904 0.040218484 0.07936316 0.048063423 -0.011997674
0.1890526 0.09522899 0.23596977 0.25488138 -0.34350365 0.2584097 -0.006602731 -0.070983425
00000000: 2eae bb3e 562e 5b3e 41c1 843d 3abd 253d
00000010: 4608 803e d69d a03e d6ad 803e a9b7 a43e
00000020: fb0c 7bbb 47d3 5abd f757 14bd 8e66 223e
00000030: e9b5 9f3e dba1 903e 2336 833e a3f0 aa3d
00000040: 1a58 4d3e 7469 843d a947 833d 5d68 973d
00000050: 9859 403d e9db 6f3e be07 b33e ec3b bf3e
00000060: 95e4 3abd dbe2 ae3e 5ff8 863e 17f0 a23e
00000070: d5eb 69be 0d91 b53e 9255 ccbc 7dc4 1d3d
00000080: 3a5e b73c cf01 143d fb19 0cbe 5f80 5abe
00000090: 13e7 f13c 7ac1 e6bd 21ff efbc ac2a 00be
000000a0: 23cb dfbc b438 65be 58ff 4cbc 3b87 23be
000000b0: f55d 073e 0a41 50bd cb1b d33d bd6a c4bd
000000c0: 5986 0b3d ed38 073e 75aa 10be 06ad c73c
000000d0: 4aaa 0d3e 3c9e 4a3d eec8 e4bd 4de7 45ba
000000e0: 36f0 b6bb e44b 97bd 663e 68be 07d0 0cbe
000000f0: db55 f63d 8b92 31be 9fdb b3bc 128f e13d
00000100: bbf1 fbbd 4728 3bbe 7f14 80bd ea3d bbbd
00000110: 8037 0c3e b5c5 ddbd ca8a 24be 4be4 62bd
00000120: 5fce 14be f28c dc3d 5626 033d 550f 46bb
00000130: ab5c 3bbe 0c9d 0dbd 6ff5 7c3d 841a b0bd
00000140: b773 c8bd dec6 66bc b050 9ebd e044 073d
00000150: 0ccf 3abc dc25 883d a8e6 3cbe 6f26 a4bd
00000160: 0654 91bc 0445 3f3d 8f4c 013e fa5b aabd
00000170: 1254 c5bd 9746 06be 37e3 79bd 3909 863c
00000180: 99d4 63be 9d28 00be a7c6 573c beb9 9b3d
00000190: 642f 3bbe 56ab e53c ffb3 4cbe e3fb 763e
000001a0: 3808 153d 414b 533e 2cc3 76bd 8651 0b3e
000001b0: f544 0ebe 364f 3abe ab3b be3d 31eb 28bd
000001c0: 1944 65be 399f 913e 6c1c a13e e792 d13d
000001d0: 195d c1bc 0632 6bbc 79cf 3ebe fa9a 803c
000001e0: 5305 0b3e 32e2 98be 7e5e 60bc aeaf 8cbe
000001f0: fa0f db3e 84ac 28be f310 3fbd c560 1b3e
00000200: b793 47be 1064 babd e1c3 8b3d 95f0 583e
00000210: a5bd df3c cffe 823e b399 23bd 7607 d33d
00000220: c883 603e 77ce 2b3e 90c9 1cbe f505 343e
00000230: 7c33 4ebe 012f ac3d 95b3 aebd 5700 303e
00000240: 4db4 ebbd b73b 2f3e 4842 963e 980d 17be
00000250: 2c4e 033e ed9b 943e c160 90bd 0b8a 99bc
00000260: a245 42bd 1d37 b8bd 42a8 a33d 4473 4bbe
00000270: 58ba 903e e91f 473b 17d3 21be b1f8 d53d
00000280: aeb5 40be 07d2 01be 274f f63d ec8e 36bd
00000290: a600 133d b2eb 11be c3ec b63a ff38 44bd
000002a0: b94f 823d e3ba 06be a10b a3bd f0bf 45be
000002b0: 551b 4fbe 4cfa f3bc 8f52 f13d f8e2 0e3e
000002c0: 76f4 07be 9c07 41be 3302 50be ff46 4abd
000002d0: 6b9f e1bd a154 ae3b 4d02 13bd 86cb 8c3d
000002e0: d13a 643b 1366 f8bd 5ceb d6bc 0b09 01be
000002f0: bf42 19be b10a ed3d f0f2 bc3d 3724 4bbc
00000300: 9606 d03d 14e7 b2bd 0f86 eabd 309a 3d3e
00000310: dac2 c4bc a65a 7cbd e390 fcbd fe2e 073e
00000320: f9b2 4c3e d008 7fbd dbd7 e3bd eb3f 16be
00000330: 443d e9bc 409d 98bd 7aee cabe f958 293e
00000340: 8c3c 2d3e 2b19 7e3e 40d1 4c3e 78ec 04be
00000350: 8ec7 d5bd e0be 0bbe 9cb5 52be f290 99bd
00000360: 4b0f 8f3d af8b 7d3c bc27 0f3e 23a4 aa3d
00000370: 62be fdbb 7b04 203e f388 263c abc1 cabe
00000380: 6400 583e 3270 223e 1d76 b4bb 0b91 0e3e
00000390: b35b fa3d 5a5f b73d 090c 893d 6b5f 853c
000003a0: 5621 39be c656 613d 7442 51bd f06f 423e
000003b0: 0f31 5abb f27c 823e 22e2 583e e46e bbbd
000003c0: 74f7 523e fa43 fa3d b38e 4cbe 5d1f afbd
000003d0: 23bc 243d 2789 a23d 27de 443d e491 44bc
000003e0: 0197 413e 6b07 c33d 0fa2 713e d07f 823e
000003f0: b6df afbe 474e 843e b95b d8bb c25f 91bd

decoder.2.bias f4 [8]
0.3101046 0.12936014 0.069040306 0.20378205 0.11797064 0.093797 0.04367578 -0.024917208
00000000: 08c6 9e3e fc76 043e 0165 8d3d 3eac 503e
00000010: 979a f13d a418 c03d 60e5 323d 2c1f ccbc

decoder.4.weight f4 [2, 8]
0.35878903 -0.14907973 -0.20883557 -0.5538745 0.012406938 -0.05111472 0.11845997 0.13183567
0.028353354 -0.120797925 -0.26945046 0.4000868 0.425524 -0.20949815 -0.172274 -0.45263234
00000000: 32b3 b73e 5ba8 18be fed8 55be b8ca 0dbf
00000010: 7846 4b3c ab5d 51bd 249b f23d eeff 063e
00000020: 4b45 e83c e764 f7bd 69f5 89be 2dd8 cc3e
00000030: 48de d93e af86 56be 9868 30be 6dbf e7be

decoder.4.bias f4 [2]
0.2628391 0.12367447
00000000: d992 863e 0a49 fd3d
