checkpoint.pt (torch, 37639 bytes, 8 tensors)

transmitter.0.weight f4 [64, 2]
000000 78 8c 19 be a6 94 6f 3e c8 7b 33 3f a5 79 fc be
       -0.14994991 0.23396549 0.7011075 -0.49311557
000010 33 e6 9e 3e b4 60 2e 3f 3b 9a c1 3e 73 e3 c4 3d
       0.31035003 0.6811631 0.3781298 0.09613695
000020 2b b8 59 3e be 0a 12 3f 3e 54 a4 3e 63 4c 09 bf
       0.21261661 0.5704764 0.32095522 -0.5363218
000030 2f 36 9f be 4c 9f 2f be 9a 5c 10 3f 95 6e 17 bf
       -0.31096026 -0.1715061 0.563913 -0.5915311
000040 c6 31 02 bf 2a f9 c0 3e 99 ed 9b bc de aa af be
       -0.508572 0.37690097 -0.019034194 -0.3431005
000050 ab ab df bd 94 43 ac 3e a6 74 ac 3e cc 50 09 be
       -0.10921415 0.33645308 0.33682746 -0.13409728
000060 23 25 a6 be 90 a3 d2 bc 5a d3 a7 3e 82 d9 21 bd
       -0.32450208 -0.025712758 0.32778436 -0.039514072
000070 52 01 f3 be 5f b4 f7 be 2a 1d 8d 3e 7c 53 17 bf
       -0.47461945 -0.483798 0.27561313 -0.5911176
000080 94 56 b8 3e 54 38 1a 3d c4 f9 4f 3e c5 10 36 3f
       0.36003554 0.037651375 0.20310122 0.7111934
000090 8e be 12 be ca dc 02 bf 4f d2 0b be 1b 3e de be
       -0.14330503 -0.5111815 -0.13654445 -0.43406758
0000a0 36 2d 45 bd 1d 1a fa 3e f1 98 13 bd da a5 d3 be
       -0.04813882 0.48848048 -0.03603453 -0.41337472
0000b0 02 e3 9c 3d 95 01 66 be 38 ec 6b 3e ae e3 00 be
       0.07660486 -0.22461541 0.23039329 -0.12586853
0000c0 15 87 d0 be cf 10 86 3d 12 29 05 3f e7 bf 41 be
       -0.4072806 0.06546175 0.52015793 -0.18920861
0000d0 d3 b9 24 3f 4e d1 f0 be 6b e0 8a 3d 71 62 1e be
       0.64346045 -0.47034687 0.067810856 -0.1546724
0000e0 1a 3e 24 bc 84 92 1d bf b2 c8 c4 3c 96 b0 05 3e
       -0.010024572 -0.6155169 0.02402148 0.13055643
0000f0 2b 92 02 bd 25 cc c4 3e 60 4d 2c bf b8 33 38 be
       -0.031877678 0.38437 -0.67305565 -0.17988479
000100 d7 1a bb be 16 ec c1 be 7b 32 42 be 94 2e 13 3d
       -0.36543915 -0.37875432 -0.1896457 0.035933092
000110 32 2d 17 3f 12 33 f1 be 6d 5a c3 3e 64 c1 1c 3f
       0.5905334 -0.47109276 0.38154927 0.6123259
000120 8c 72 24 bf 48 00 33 bf 4c 2c 1d bf 65 a3 60 bd
       -0.64237285 -0.69922304 -0.61395717 -0.054843325
000130 cf bd 11 be f5 e0 18 3f ef 3e 1d bf da 83 34 be
       -0.14232562 0.5971826 -0.61424154 -0.17628422
000140 aa 26 47 be 6b 53 3f 3e 3e 90 2c be ed de 98 3d
       -0.19448343 0.18684165 -0.16851899 0.07464395
000150 bb 73 07 bf f9 a1 db 3d ca 21 12 bf dd 1a 79 3e
       -0.52910966 0.10724253 -0.5708281 0.24326654
000160 a2 f8 e6 3e cb 19 0b 3f 03 f1 19 bf ab 5a 5f 3e
       0.45111567 0.5433623 -0.6013338 0.21811931
000170 d2 14 e1 3e e4 9d 0b bf 4f ad 96 be 9c c0 22 bf
       0.43961197 -0.54537797 -0.294291 -0.6357515
000180 5d 8b 42 be c8 3c 84 be c7 33 24 3f d0 19 de bd
       -0.18998475 -0.25827622 0.64141506 -0.10844767
000190 4c 93 0c 3f 77 fe 9f 3d 80 9a 2e 3f 73 4d 02 be
       0.5491226 0.07812207 0.682045 -0.12724857
0001a0 e0 68 83 3d ad 9c 86 be 2c de d8 3e c3 bc fd be
       0.06416488 -0.2629141 0.42357004 -0.49558076
0001b0 6e 6c 26 3f d9 6e 89 be 17 14 f1 3e 68 8c 02 3f
       0.650092 -0.26842383 0.4708564 0.5099549
0001c0 1d 56 55 be 87 cf ec bd 26 6a 15 bf 63 76 23 3d
       -0.20833631 -0.1156302 -0.58365095 0.039907824
0001d0 fd 1a 38 3e ae ad 0f bf c9 16 f1 bc e5 8a 18 3f
       0.17979045 -0.5612439 -0.02942981 0.59586936
0001e0 fa 9f 4e 3e d3 86 37 be 56 b4 76 be 9a d8 b7 be
       0.20178214 -0.17922525 -0.2409223 -0.3590744
0001f0 ba 4f 34 3f 95 89 fb bb 82 d3 ac bc cf d6 fa be
       0.70434153 -0.007676313 -0.021096949 -0.4899201

transmitter.0.bias f4 [64]
000000 a3 05 40 be 57 d0 08 bf 67 cc 23 bf 83 db 29 b9
       -0.1875215 -0.534429 -0.6398377 -0.0001619887
000010 05 db 22 be da 64 2a bf f0 0d 2c 3f 95 b8 0b bf
       -0.15903862 -0.6656014 0.67208767 -0.54578525
000020 ee 1f 39 3f 45 4f 09 be 20 09 60 bd b5 cd e8 3e
       0.72314346 -0.13409145 -0.054696202 0.45469442
000030 71 d6 0f 3e 4f a1 8e be a9 99 1d bf 7a 09 97 3e
       0.14046647 -0.27857444 -0.6156259 0.29499418
000040 ef 65 34 3f 97 b6 10 be 6b 58 02 3f 1e 07 99 be
       0.7046804 -0.14132152 0.50916165 -0.29888242
000050 c0 4c 2f 3f a2 67 6f 3e d2 b6 09 3f bd 7a af be
       0.68476486 0.23379377 0.53794587 -0.3427333
000060 d9 78 27 bf a4 ce 46 3e 6a 4c 87 3e a5 8a 7a be
       -0.65418774 0.19414765 0.26425487 -0.24466951
000070 06 f7 1c bf 8f c1 75 3e f7 fb 15 3f 29 19 0e bf
       -0.6131443 0.23999618 0.5858759 -0.5550714
000080 9c 06 84 3e 05 57 ff 3e 40 c4 de 3e a1 32 13 3f
       0.25786293 0.49871078 0.43509102 0.5749913
000090 ea 44 dc 3e 3f 66 11 3f af 9d e7 bc 41 bd 0d bd
       0.43021327 0.5679664 -0.028273432 -0.034604315
0000a0 2b 23 19 3f 34 be a3 be 5e ce 1e 3f 43 62 04 bf
       0.5981929 -0.3198105 0.6203364 -0.51712435
0000b0 ee 37 be 3e c2 4f b4 be 6d 60 35 3c 67 4f 11 bd
       0.37152046 -0.352171 0.011070353 -0.035476115
0000c0 55 01 30 3d 5c 8d b9 be 00 33 96 3d 46 c4 9e bd
       0.04297002 -0.3624066 0.07333946 -0.0775228
0000d0 00 29 6d 3e 90 ee 97 3d e4 7d 03 3e 65 5f d6 3c
       0.23160172 0.07418549 0.12840992 0.026168535
0000e0 5f c9 19 bf 28 51 79 3e cb a3 93 be 69 93 16 be
       -0.6007289 0.24347365 -0.28835902 -0.1470467
0000f0 2d 3d f9 3e 01 20 12 bf c6 d1 a9 be b6 50 80 3e
       0.48679486 -0.57080084 -0.33167857 0.25061578

transmitter.2.weight f4 [64, 64]
000000 0a ee 75 3d 4b 9c 48 bd 1d 57 b8 3d 56 72 73 bd
       0.060041465 -0.048977178 0.090009905 -0.05943521
000010 b2 87 44 bb d3 71 8e bd 93 a0 16 3d 79 1c d0 bb
       -0.0029988107 -0.06955304 0.03677423 -0.0063510505
000020 dc 0c 07 be 3e b4 dd 3c 9f 05 25 bc 51 47 8f bd
       -0.13188499 0.027063485 -0.010072141 -0.069960244
000030 82 2a 4a 3a a9 b5 04 3e f8 06 d5 bc 82 49 ad bd
       0.00077120226 0.12959923 -0.0260043 -0.08461286
000040 2f e1 59 ba d4 24 eb bd 1f 31 57 3d 6b 76 c1 bd
       -0.0008311448 -0.11481634 0.05253708 -0.094464146
000050 f4 9b 8b 3a 85 7d e8 3d 03 50 6a bd 2e c1 b8 bd
       0.0010651336 0.11352066 -0.05720521 -0.09021221
000060 37 b6 49 bc 6c 22 56 bd 82 af 91 bd ca 5c 07 3c
       -0.01231151 -0.05227892 -0.071135536 0.008261869
000070 d1 6c a5 bb 29 4c d2 3b f7 e2 65 bd 7c 60 8a bd
       -0.0050483723 0.0064177704 -0.056124654 -0.06756684
000080 70 ad 11 3d 27 f3 94 bd 4c 22 b4 3d a3 53 9a bd
       0.035565794 -0.0727294 0.08795604 -0.07535484
000090 ed 2d 82 3d cc 5d 02 be 3b f6 1f 3d bc ea b7 3c
       0.06356416 -0.12731093 0.039053183 0.022450797
0000a0 ea 65 92 bd 00 7e d9 bd b8 b5 75 3d 0e 40 d2 bd
       -0.07148345 -0.10619736 0.059987754 -0.10266124
0000b0 26 99 b3 bc fd 1a 2d 3d 06 08 83 3d 8d 15 bb 3d
       -0.021923613 0.042262066 0.06398015 0.0913497
0000c0 47 1f b1 3d 03 30 de 3d 79 f2 fd bd f6 36 11 3d
       0.08648544 0.10849001 -0.123997636 0.035452805
0000d0 f6 f7 e4 3d 86 a6 c3 bc 9c b9 02 bd de 8f 8f 3d
       0.11180107 -0.023883116 -0.031915292 0.07009862
0000e0 0d d7 60 bd 7e 33 1e 3c 5a cd 6a 3d 69 b9 70 3c
       -0.05489259 0.009655831 0.057324745 0.014692643
0000f0 81 27 86 3d de 9c 1b bb 46 15 d0 bd 4e 74 3f 3a
       0.065505035 -0.0023744623 -0.101603076 0.00073034025
000100 af 9a 87 bd cd a6 ab bd 2d 63 55 3d c2 77 ef 3d
       -0.066213004 -0.08381424 0.052096535 0.11692764
000110 99 91 c8 bc 97 38 a0 ba eb 35 04 bd 80 75 e2 3d
       -0.024483489 -0.0012223896 -0.032277983 0.110575676
000120 de 85 6b bd f0 bb 2b bd 59 b4 34 3d 4d 0f d8 bb
       -0.057500713 -0.041927278 0.044117305 -0.006593621
000130 dd 06 ac bd 61 90 cb bc e8 b7 11 3c 0c 7b 6d 3d
       -0.083997466 -0.024849119 0.008893944 0.057978675
000140 54 0d 9a bc 5d 78 d0 bd 44 8f 0a bd c1 74 67 3d
       -0.018805183 -0.101792075 -0.033828035 0.05650783
000150 eb f7 ad 3d b8 33 11 bd 4f b7 e8 bc 4b 06 dc 3d
       0.08494552 -0.035449713 -0.02840772 0.10743388
000160 46 59 c2 3d 40 75 ad 3d d5 f0 07 3b 0e 11 da bd
       0.09489684 0.08469629 0.0020742912 -0.10647784
000170 57 80 a5 3d d7 00 70 bc 4c 5e 00 be be 7b 5c 3c
       0.080811195 -0.014648638 -0.12535971 0.013457237
000180 35 48 2f 3d 50 e2 e2 3d 37 6b 05 3e 70 8a e2 bd
       0.04279347 0.11078322 0.1302918 -0.11061561
000190 d6 fe 1f bd 34 5f df bd ad ec 26 3d fd 5d 9f 3c
       -0.03906139 -0.109068304 0.040753055 0.019453997
0001a0 e8 50 0b bd 66 5f 3f bd 02 66 80 bd 00 37 8c 3c
       -0.034012705 -0.04672184 -0.062694564 0.01711607
0001b0 ad e0 e0 bb b7 40 b0 3d ae 86 91 3d c1 ec ab 3d
       -0.006862721 0.086060934 0.07105766 0.083947666
0001c0 50 b3 8c bd 15 17 72 bd fc 17 e6 bd e0 2d 11 3c
       -0.06870139 -0.059104044 -0.112350434 0.008861035
0001d0 45 a6 94 bd ea 94 3f 3d 75 fd c9 bd 91 33 95 3c
       -0.07258276 0.046772875 -0.09862796 0.018213065
0001e0 aa 7e b0 3c e5 29 a5 3d f7 a8 ed bd 77 e7 a4 bd
       0.021544773 0.080646314 -0.11604493 -0.08051961
0001f0 ad b1 3e 3d 91 2d d5 bc b6 bd 08 3e 15 6a 6e bd
       0.046556164 -0.026022704 0.13353619 -0.058206636
000200 c5 e2 15 3d c2 e9 41 3b dc 04 36 bd 17 30 55 3d
       0.036593217 0.0029588793 -0.044438228 0.052047815
000210 67 17 94 bd 70 2d 80 bd c8 f2 04 3b e3 40 88 bc
       -0.07231026 -0.062586665 0.002028631 -0.016632503
000220 e8 7a 61 bd 85 5d 82 bd a2 e3 85 3d b4 28 ab 3d
       -0.055048853 -0.06365494 0.06537558 0.08357373
000230 a1 49 00 be ce 84 99 bd 4d a2 e9 bc 17 5f bb 3c
       -0.12528087 -0.074960336 -0.028519774 0.02287249
000240 dc da cb bd ea 98 fc bc e4 0e e2 bd d2 ea 16 3e
       -0.099538535 -0.030834634 -0.110379964 0.14738014
000250 36 b7 11 3c 3a 4b 5b bd 39 3d f0 bb 7a 39 7c 3d
       0.008893779 -0.05353854 -0.007331517 0.06157825
000260 73 08 a0 bd d9 27 ed 3c 4b 1e 80 bd bc 0a 3a bd
       -0.078141116 0.028949665 -0.06255778 -0.045420393
000270 a5 11 fb 3c 5f 51 08 be 55 56 08 3c 0d cc 91 bd
       0.030648062 -0.1331229 0.008321364 -0.07118998
000280 b0 cf 29 3d 10 42 a9 bd d5 53 01 be 25 73 74 3d
       0.04145783 -0.082645535 -0.12629636 0.059680123
000290 a3 12 39 3d 23 7a 93 3d 34 bf 5e bc d3 90 10 3d
       0.04518379 0.0720103 -0.013595391 0.035294365
0002a0 d6 60 b9 bc ee 7c 0d 3e f3 92 ef bd f5 f8 ca 3d
       -0.022629183 0.13817188 -0.1169795 0.09910766
0002b0 f5 ad 1e 3d 6f 5f 96 3c 5f ec 54 bc 7b 4e b7 3d
       0.038740117 0.018356053 -0.012995808 0.08950516
0002c0 7c 00 7a 3c 6e 0a a0 3d 08 5b 5c bd e6 3f b2 bd
       0.015258905 0.07814489 -0.05379775 -0.08703594
0002d0 67 c4 ff 3c 40 fa 16 bd bf 8b 09 be 3c c3 15 be
       0.031221582 -0.03685975 -0.13432215 -0.14625257
0002e0 b7 20 d0 3d 98 fd 7f 3d 48 9e b2 bd 49 65 22 3c
       0.1016249 0.062497705 -0.08721596 0.009911844
0002f0 4b 0d 65 3c f5 08 0e 3e af e8 4d bd a4 d0 f2 bc
       0.01398022 0.13870604 -0.050270732 -0.029640503
000300 f1 b1 be bd ad 96 6e bd cf aa fc bd 70 5c de bd
       -0.093112834 -0.058249164 -0.12337267 -0.10857475
000310 0b 3f e5 bd 83 3a ff ba fc 3e 25 bd ea c5 bf 3d
       -0.11193665 -0.0019472394 -0.04034327 0.09363921
000320 c0 d7 ee bd b0 76 0f 3e 7f 42 7f bd b4 2d 74 3d
       -0.11662245 0.1401012 -0.062319275 0.0596139
000330 a1 a8 5a 3d b7 f7 64 bd 6a 8d af 3c 41 90 00 be
       0.053383473 -0.0559003 0.021429736 -0.12555028
000340 cd b1 0d 3d 7c d8 aa 3d 7e 50 7d 3d 47 38 9f 3d
       0.034593392 0.08342072 0.06184434 0.07774406
000350 85 79 a7 3d 34 7c cd bd 37 36 ae 3d 75 b2 48 3d
       0.08177475 -0.100334555 0.085064344 0.048998315
000360 b9 bb b6 3d bd ba ab 3d 41 eb 88 bd 89 4d 27 bd
       0.08922524 0.08385227 -0.06685496 -0.040845428
000370 a6 a9 a5 3d 2f af b3 bd 03 be 2f 3d 21 ea 87 bc
       0.080889985 -0.08773648 0.04290582 -0.016591134
000380 48 d8 84 3c 21 c8 be 3d 6e 39 c2 3c 25 68 16 be
       0.016216412 0.09315515 0.023709025 -0.14688165
000390 c5 0b e3 3c db 63 c7 bd b7 cb 97 bd 84 f0 09 3d
       0.027715573 -0.09735843 -0.074119024 0.03367664
0003a0 ec 61 e1 3c c8 d4 1a 3e 7f e5 ab bc b9 25 bf bd
       0.027512513 0.15120232 -0.020983456 -0.09333367
0003b0 5a a6 a6 3c bd 01 55 bc ea c5 9d bd 47 56 8c bd
       0.020342994 -0.013000903 -0.07703765 -0.068523936
0003c0 67 31 70 bd a2 de d2 bd 6e ab 9e bd e1 5b 63 3d
       -0.058640864 -0.1029637 -0.07747541 0.055507544
0003d0 28 fa 68 3d fb cc 40 bd 1a 60 12 be 93 65 1a 3c
       0.056879193 -0.047070485 -0.14294472 0.009423631
0003e0 55 a5 1f bd 18 2f b9 3c 9e 0d 59 bc 83 6c c1 3d
       -0.038976032 0.022605464 -0.0132478755 0.09444525
0003f0 93 37 c2 b8 51 e5 11 bd 9b 8f f3 bd ef 10 1a bd
       -9.2609924e-05 -0.035619084 -0.11892625 -0.037613805

transmitter.2.bias f4 [64]
000000 e4 48 50 bd 66 e4 8f 3d 0d 2d 30 3d bd 4e 9b bd
       -0.050850764 0.070259854 0.043011714 -0.075833775
000010 f2 39 e7 bd b1 28 c4 bc 2a 06 b3 3d 66 9c bf 3d
       -0.11290349 -0.023945184 0.0874141 0.093560025
000020 2d e3 2e 3c 3e e8 94 bd 94 51 bc 3d cd af ab 3d
       0.01067428 -0.07270859 0.09195247 0.08383141
000030 3c a8 fb 3d d9 5e b0 3d e9 35 f7 bc 8c e4 0a 3d
       0.122879475 0.08611841 -0.030177074 0.033909366
000040 2e 83 94 3d 8b c8 d1 bb 6e d7 8d 3d 25 58 51 bd
       0.07251583 -0.0064020804 0.069258556 -0.05110945
000050 b9 2f c2 bd 87 90 dc 3d 4e 58 ff bd 09 17 57 bd
       -0.094817586 0.10769754 -0.12468015 -0.052512202
000060 71 a4 a0 bd db 35 17 be d4 ad 20 3d 48 08 48 bd
       -0.07843865 -0.14766638 0.039228275 -0.048836023
000070 dc c6 ab 3d 79 2a 15 3e 94 59 39 3c b8 b1 84 3c
       0.08387539 0.14566983 0.011312861 0.016198024
000080 96 a7 c3 3d 83 86 44 bd a1 5f e5 bc c5 df 0d 3d
       0.09553449 -0.047979843 -0.027999701 0.03463723
000090 55 3e a0 bd 87 f9 ef bd 65 7a 6e 3b 7f 47 c3 3d
       -0.07824389 -0.117175154 0.003638887 0.09535121
0000a0 69 55 67 3d 7e 73 35 3d 78 94 c7 3d 44 4b f4 3b
       0.056477938 0.044299595 0.09745115 0.0074552614
0000b0 1f f1 69 bc 85 cb 7d bd 5d 6b da bd ce af ff bc
       -0.014278679 -0.06196167 -0.10665009 -0.03121176
0000c0 47 a7 cc bd f4 bf d7 3d fe 67 83 bd 54 9f d1 bd
       -0.09992843 0.10534659 -0.06416319 -0.102354676
0000d0 cc 8b 52 bd 52 80 8a bd a2 57 01 3d 2c 17 d4 3d
       -0.051402852 -0.067627564 0.031577714 0.10355982
0000e0 28 22 3f 3d 42 de 9d 3d e5 56 e5 3d e5 39 db 3d
       0.046663433 0.07708408 0.111982144 0.10704402
0000f0 b0 11 2a bd 02 18 4a 3d 95 b0 ae 3d 98 ce 85 3b
       -0.041520774 0.049339302 0.08529774 0.004083466

receiver.0.weight f4 [64, 64]
000000 64 23 4e 3d 28 55 9d bd 93 ce 68 bd 30 60 cd 3d
       0.05032672 -0.07682258 -0.05683763 0.10028112
000010 37 80 e9 3d 51 13 16 3c f6 8f 91 bc 77 5b 62 3d
       0.11401408 0.009159879 -0.017768841 0.05526301
000020 b3 2b 07 be 88 43 18 bc e4 40 8e bc 2f 97 b5 bc
       -0.13200264 -0.009293444 -0.017364927 -0.022166817
000030 d8 4e 4c 3d 48 cf c2 3c dd 66 17 bd 57 e1 88 bd
       0.04987988 0.02378048 -0.036963332 -0.06683605
000040 40 63 02 3e a1 71 e4 3d 52 8d b9 bd 00 da a5 bb
       0.12733173 0.111544855 -0.09060158 -0.005061388
000050 00 cf 8d bc 77 6d fd bd 6d cf df bb 5e aa cd 3d
       -0.01731062 -0.123743944 -0.006830147 0.100422606
000060 39 54 85 bd 69 78 80 3d e8 96 a8 3d 80 cb 6f bc
       -0.06510205 0.062729664 0.08231908 -0.0146359205
000070 8e 34 48 3d 4b 65 a4 3c 71 fc e3 3d 66 ed c1 3d
       0.048878245 0.020067832 0.11132134 0.09469108
000080 68 4c 3d 3b 41 f3 66 bd e9 32 f2 3d e4 98 48 bd
       0.0028884653 -0.05638433 0.118261166 -0.048973933
000090 00 03 de 3c 32 17 b1 3d 58 21 e2 3d 1d 39 d6 bd
       0.02710104 0.08647002 0.11041516 -0.10460112
0000a0 f6 3a 9f b8 2a 19 69 bd 38 09 b2 3d 93 38 9a 3d
       -7.592693e-05 -0.056908764 0.086931646 0.07530322
0000b0 41 91 64 ba 96 33 4a 3d 02 eb 96 bd 72 13 fa bd
       -0.0008719154 0.049365602 -0.07369043 -0.1221074
0000c0 11 17 21 bd 40 6e 93 bd 08 be 67 bd e3 98 08 bd
       -0.03932864 -0.07198763 -0.056577712 -0.03334893
0000d0 03 31 71 3d 48 3f e8 bc 37 38 bb bd 36 a0 2d 3b
       0.05888463 -0.028350487 -0.091415815 0.0026493198
0000e0 ab e5 cb bc 7a 83 25 3d c6 d5 b9 3c 43 c7 3e 3d
       -0.024889788 0.04040859 0.022684943 0.04657675
0000f0 83 2f 85 3d 2a e3 9e 3d cb d2 8c 3d 61 6e ba bd
       0.06503203 0.07758172 0.06876143 -0.09103084
000100 9a 84 85 bd 3c f8 06 be 75 21 9d 3d 9c b2 5e bc
       -0.06519432 -0.13180631 0.07672397 -0.0135923885
000110 ab d5 5c bd 1a c5 b9 3d 94 5b 06 be 9a b5 77 bd
       -0.053914707 0.09070797 -0.13120872 -0.060475923
000120 be 67 db bd ce e9 f0 bd f5 9b 8d 3d 05 d8 91 3d
       -0.107131466 -0.11763345 0.06914512 0.071212806
000130 84 cf 2c 3d 38 37 c7 3d f0 20 63 bd 21 69 81 3c
       0.04219009 0.09727329 -0.055451334 0.0157972
000140 72 56 5b bd 55 4d d4 bc 0a d7 50 bd 45 6d e0 bd
       -0.053549238 -0.025915781 -0.050986327 -0.109583415
000150 9f 58 03 bd 12 7e 1f bb 2b f6 f3 3c 8f be c2 bd
       -0.032066938 -0.0024336618 0.029780468 -0.095090024
000160 35 77 7d bd 1c 9d 08 3d 7d 03 2d 3d c8 aa 89 bd
       -0.061881263 0.033352956 0.042239655 -0.06722027
000170 2f b2 18 3d d6 1c 94 bd 95 99 86 3d 31 7f 4b 3d
       0.037279304 -0.072320625 0.06572262 0.049681846
000180 29 40 b7 3d a3 f7 b4 bd 83 f7 55 3d 91 ef be 3d
       0.089477845 -0.088362955 0.052238 0.093230374
000190 05 1a 01 bd 0e 4a 38 bd 2c d5 90 3c 5e db 5c bd
       -0.031518955 -0.0449925 0.017679773 -0.053920142
0001a0 9a b1 b1 bd ea b1 ba bd 6b 2a fc 3c 18 b4 7c bd
       -0.08676453 -0.09115966 0.030781945 -0.06169519
0001b0 dc 61 8a 3d d8 49 8c 3d 39 ec ab 3d 6f c2 ca bd
       0.067569464 0.06850022 0.08394665 -0.099003665
0001c0 d9 02 49 bd 3c c9 80 bd 03 d5 cb bd db b2 fe 3d
       -0.04907498 -0.062883824 -0.09952738 0.12436458
0001d0 76 24 c8 bd 77 b6 14 bd 91 7d 8f 3d 6f 39 58 bd
       -0.09772579 -0.036306825 0.07006372 -0.052789148
0001e0 94 3d 8f 3c 84 15 6e bd c7 84 d0 3d 16 96 bc 3d
       0.017485417 -0.058125988 0.10181575 0.09208314
0001f0 0e b4 19 3d 5e e0 3c 3d cc 35 6b bb 79 db 91 3d
       0.03752523 0.04611241 -0.003589022 0.07121939
000200 d4 74 af 3d 7c 4a ca 3d 63 0c 25 3c 2f 01 a6 ba
       0.08567205 0.09877488 0.010073754 -0.0012665148
000210 8f d0 50 3c 44 97 74 3c a4 bb b2 3d 73 bd bb 3c
       0.012745037 0.014928643 0.08727196 0.022917485
000220 f7 4f 13 3d 20 0a fd 3d 94 b2 92 bd fd bc ba 3d
       0.035964932 0.12355447 -0.07162967 0.09118078
000230 e6 98 ef 3d fe fa 85 bd 04 07 4d bd db 99 f2 3d
       0.11699085 -0.065420136 -0.05005552 0.11845752
000240 f4 af ed 3c 30 65 83 bd a1 37 f0 3c d5 70 a8 3d
       0.029014565 -0.06415784 0.0293234 0.08224646
000250 4d c8 ac bd 18 e5 51 3d 5a 16 ac bd 81 d0 78 3d
       -0.08436642 0.05124387 -0.08402701 0.06074572
000260 8a 25 a9 bd 35 45 1f 3d a8 f3 6c bb 0b 97 b7 bd
       -0.08259113 0.03888436 -0.0036155973 -0.08964356
000270 7b d7 a3 bd 6a ac ce bd b8 3f 6b bc b7 f9 ad 3d
       -0.08000084 -0.10091479 -0.014358453 0.08494895
000280 23 27 4d 3d 19 db 5a 3d 82 9d 6f 3d e9 2d 98 bd
       0.05008615 0.053431604 0.05849982 -0.07430632
000290 cc 3b 09 bd bf f5 4a bc c8 ca a4 3d 1c e8 52 bd
       -0.033504292 -0.012387692 0.0804649 -0.051490888
0002a0 40 26 9c bd fe 65 58 3d d1 fd b0 bc 06 d1 e2 bc
       -0.07624483 0.052831642 -0.021605404 -0.02768756
0002b0 f8 bb d9 3d 0a 54 77 bd fa 53 85 bd 29 53 25 3d
       0.10631555 -0.06038288 -0.06510158 0.04036251
0002c0 c1 b5 79 3d 92 ad 51 3d 34 5f b9 bd 2b cf 83 3c
       0.06096435 0.05119092 -0.09051362 0.016089996
0002d0 bd e2 c2 bd e6 8b e5 bd 4f d4 38 3d ab fc a5 bd
       -0.09515903 -0.11208324 0.04512435 -0.08104833
0002e0 12 7d a7 bd 29 95 15 3d 42 7c 86 bd c6 73 2a 3d
       -0.08178152 0.036519203 -0.06566669 0.041614316
0002f0 f2 24 56 bd 2f 78 28 3d ce 93 37 3d 5a da a0 bd
       -0.052281328 0.04113024 0.044818692 -0.07854147
000300 0a 86 cc 3d b3 24 95 3d d5 eb 36 3d 36 55 c7 3d
       0.099865034 0.072823904 0.0446585 0.097330496
000310 83 30 8a bd a2 5a 00 bc 5e d0 b8 3d 55 ce d1 3d
       -0.06747534 -0.007834109 0.09024118 0.10244433
000320 96 09 75 bd 4f 19 72 ba 51 d1 a4 bd a8 db ec 3d
       -0.059823595 -0.00092353387 -0.080477364 0.115653336
000330 da 5e 6b 3c 29 e5 93 bc bf 10 e5 bd de a0 ba 3d
       0.014365876 -0.018053608 -0.11184835 0.09112714
000340 91 59 79 bd c3 18 9c bd ba b7 c7 bc d2 88 34 bc
       -0.060876433 -0.076219104 -0.0243796 -0.011018949
000350 ee 26 2b bd 64 f0 92 3d 84 73 d1 bd 75 5a 22 bc
       -0.041785173 0.07174757 -0.10227111 -0.009909262
000360 39 a4 d0 bd c4 59 d7 3c e3 b5 87 bd bd d6 a9 bd
       -0.10187573 0.02628792 -0.06626489 -0.08292911
000370 9a 07 bb bc f7 57 50 3c 61 0b 9b bd 8f 62 bd 3c
       -0.022830773 0.012716285 -0.0757053 0.023118285
000380 16 f1 32 bd bc 01 bc 3d f2 43 0f 3d d8 06 4c bb
       -0.04368695 0.09180018 0.034976907 -0.003113201
000390 a1 3d 74 bc ca eb 78 3d 41 29 cc 3d 7e 9b d6 bd
       -0.014907272 0.06077174 0.09968806 -0.104788765
0003a0 f5 61 8d 3d 24 01 9f bd 7b f1 3b bd 3d 8a a2 bd
       0.069034494 -0.077638894 -0.04588459 -0.07936523
0003b0 a1 99 ef 3d 34 76 89 3d 7b ad 47 3c ee 34 c4 3d
       0.11699224 0.067119986 0.012187357 0.09580408
0003c0 27 6b ab bd f1 ab 76 bd 9c c1 aa 3c 01 fa ad 3d
       -0.08370047 -0.06022257 0.020844273 0.0849495
0003d0 29 08 26 3c 0d f0 9c bd 6a 2a 32 3d e5 b7 e2 bc
       0.0101337815 -0.076629736 0.04349748 -0.027675578
0003e0 6a ec 8c 3d 34 c1 2f bd 20 92 aa bd ac 36 cc 3d
       0.0688103 -0.042908862 -0.083286524 0.09971365
0003f0 ea f9 ab bd 6a f0 0f bb 82 e5 81 bd 51 5a 00 bd
       -0.08397277 -0.0021963366 -0.06342603 -0.031336132

receiver.0.bias f4 [64]
000000 01 c5 b8 3d 48 5f 92 bd b1 22 0c be f2 f6 01 3d
       0.090219505 -0.0714708 -0.13685109 0.031729646
000010 96 fc 05 be 5a 7e 08 bd 4a 21 c2 bc ab 03 f9 bb
       -0.13084635 -0.033323623 -0.023697514 -0.007599314
000020 ea 0a 7f bd 83 7a bb bd fd 50 96 bd bc 9c 15 3c
       -0.062266268 -0.09154227 -0.07339666 0.009131607
000030 18 64 bb bc c6 fb 91 bd e4 32 ab bc bd 2f cb 3c
       -0.022874877 -0.071281 -0.02089829 0.024803037
000040 d1 0f 8b 3c 33 9c 0c bc 53 51 8c bd b9 b7 b0 3c
       0.016975315 -0.008582163 -0.06851449 0.02157198
000050 88 37 8b bd 65 7a 77 3c 20 ba 22 3d 4f 44 d8 3c
       -0.06797701 0.015104865 0.039728284 0.02639976
000060 a6 f3 f5 bc c0 a1 89 bd f8 a3 0b bd c3 3d 08 be
       -0.030023407 -0.067203045 -0.03409192 -0.1330481
000070 29 89 6c bc 01 4e f0 3d 2a 68 dd bd ce 27 94 bd
       -0.014436998 0.11733628 -0.10810883 -0.07234155
000080 8f 54 b9 3d 41 ed 9a 3c e0 c7 1c bd d0 e5 a3 bd
       0.090493314 0.01891196 -0.038276553 -0.08002818
000090 f3 82 ae 3d 38 db 85 bd b3 07 85 3c d3 6a 68 3d
       0.0852107 -0.06535953 0.016239023 0.0567425
0000a0 d6 5a 01 be a7 0f 6f 3d e9 1b 8f 3d dd e5 8b bd
       -0.12632307 0.058364537 0.06987745 -0.06830952
0000b0 c3 97 f9 3d d9 79 d7 bd 15 60 32 3d 79 0d be bc
       0.121871494 -0.105212875 0.043548662 -0.023199784
0000c0 c6 63 2a bd 04 ce 3c bc ac cf 42 3d 3e 9e 44 3d
       -0.041599058 -0.011523727 0.047561333 0.048002474
0000d0 51 f5 1e bd 44 10 a4 3d b0 09 43 bd 03 54 e3 3d
       -0.03880817 0.08010915 -0.04761666 0.11100008
0000e0 ae 67 c3 bd 49 64 b4 3b db 02 a9 3d 27 bf dc bd
       -0.0954126 0.005505119 0.08252498 -0.10778647
0000f0 60 14 42 3d 56 61 36 3d 1e a6 1b 3d 46 c3 2e bd
       0.047382712 0.04452642 0.03800022 -0.042666696

receiver.2.weight f4 [2, 64]
000000 f4 76 00 3c 49 d1 59 3c 3d 80 06 3d 05 88 16 bd
       0.007840861 0.013294526 0.03283714 -0.036750812
000010 dc b0 58 bc 96 57 00 bc 10 cb 91 3c ac 6d 89 3b
       -0.01322576 -0.007833382 0.017797023 0.004193982
000020 99 de 79 bb 2a a3 1f 3d 8d a8 a5 3b f8 91 2f 3d
       -0.0038127063 0.038973965 0.005055493 0.042863816
000030 86 89 60 bd 3f 0c 12 3d 96 52 1c 3d 06 d3 c2 bc
       -0.054818653 0.03565621 0.038164698 -0.023782264
000040 cf 28 b4 bb e5 ba 0b 3c d8 be 4b bd 06 38 47 3d
       -0.005498029 0.008528446 -0.04974255 0.048637412
000050 02 ff d1 bc 51 db bd 3b b4 36 5e 3d 35 c8 4e 3d
       -0.025634293 0.005793967 0.054251388 0.0504839
000060 7f e9 28 bd 6f d3 88 bc 10 21 07 bc e5 de 0f bd
       -0.041238304 -0.016702382 -0.008247629 -0.03512468
000070 63 2d 92 bc bd 55 8b bc a1 5e 9d 3c cd 2d 12 bd
       -0.017843908 -0.017008657 0.019210162 -0.03568821
000080 a4 41 cb 3c 16 13 1a 3d 95 db 69 3c b5 31 b5 3c
       0.024811573 0.037615858 0.014273544 0.022118429
000090 f2 ef 05 3d 1d 3d 30 bd 5a 34 a5 3b a9 ea da bc
       0.032699533 -0.043027032 0.005041641 -0.026723223
0000a0 9c b6 22 3b 00 4a a9 bc e4 13 4e b9 3b 4c 43 3c
       0.0024828082 -0.020665169 -0.00019653101 0.01192003
0000b0 e5 0d 30 bb 95 1f a4 3c 26 01 4d 3c 53 b4 a7 bc
       -0.002686375 0.02003459 0.012512481 -0.020471727
0000c0 ea 23 54 bd a2 c6 f2 bb 7d 2b 4a 3c 34 1a 62 bd
       -0.051792063 -0.007408933 0.01233947 -0.05520077
0000d0 f5 e0 15 bd 6c 29 03 3d bd 34 a6 bc 8e 5d 4c bd
       -0.03659149 0.032021925 -0.02028882 -0.04989391
0000e0 18 28 f4 bc 71 7d e2 3c 02 d6 65 39 a7 24 cd 3b
       -0.029804274 0.027647706 0.00021918866 0.006260473
0000f0 81 39 08 3c d2 f0 44 3d 2a 20 19 bd 0b b8 3b 3d
       0.008314491 0.048081227 -0.03738419 0.045829814
000100 2a 79 91 bc 60 94 8c 3b e9 cc 19 3d 61 dc 4e bd
       -0.01775797 0.0042901486 0.037548933 -0.05050314
000110 fa 89 6b 3d 47 85 4a 3c df 30 78 bc b9 5d a3 bc
       0.05750463 0.012360877 -0.0151483705 -0.019942151
000120 93 2b bb bc c2 ce de 3c 6c 75 2b 38 41 80 6a 3d
       -0.022847926 0.0271982 4.0878935e-05 0.05725122
000130 92 eb e0 bc 8d ba ec 3c 98 69 75 bc 45 d8 bf 3c
       -0.027456079 0.028897548 -0.014978789 0.023418555
000140 71 5d 09 3d 32 ac 41 3c c6 7d e7 bb e6 41 49 bd
       0.03353638 0.01182084 -0.007064554 -0.04913511
000150 81 1c e2 bc 99 60 1d 3d bd 98 37 3d 53 5c 24 3c
       -0.027601482 0.0384222 0.044823397 0.010031777
000160 64 c0 73 bd c0 50 07 bd 30 65 b4 3a 17 da 79 ba
       -0.05950965 -0.033035994 0.0013763066 -0.0009531094
000170 78 48 15 bd 08 c6 91 bc 56 0f 12 bd 0f 50 9e bc
       -0.036446065 -0.017794624 -0.035659157 -0.019325284
000180 60 38 b1 bc 16 3b 1c bb 7e 4d 98 39 3f ad 9e bc
       -0.021633327 -0.002383893 0.00029049435 -0.01936972
000190 e6 5e 15 bd 53 f8 0a bd f2 34 53 3d 2c 8f 77 bc
       -0.036467455 -0.033928227 0.051564164 -0.015109818
0001a0 83 b9 1f 3d 2d cf b9 bb 1a e7 83 3c d8 97 4b 3c
       0.038995277 -0.005670449 0.016101409 0.012426339
0001b0 95 3e a1 bc 5d 18 3f 3d 3f ce b1 bc 71 3a 25 3d
       -0.019683162 0.046654094 -0.021704791 0.040338937
0001c0 3f ab 0e 3d 11 e2 33 3d 30 f4 a4 b9 db b6 92 3b
       0.03483128 0.043916766 -0.0003146245 0.0044773645
0001d0 9a c1 64 39 fd ae 2f 3d 16 39 8b 3c 15 df d1 bc
       0.00021815897 0.04289149 0.016994994 -0.02561907
0001e0 69 bb 72 3d 51 ea 25 bc b4 1b f2 bc 24 be d7 bc
       0.05926076 -0.010126666 -0.029554226 -0.026335783
0001f0 f9 67 e9 3b 4b 32 32 3d 7d 60 b6 bc 3e 97 e1 3b
       0.00712299 0.043504994 -0.022262806 0.0068844846

receiver.2.bias f4 [2]
000000 84 97 00 bd d9 59 55 3c
       -0.031394497 0.01302191
