checkpoint.pt (torch, 37639 bytes, 8 tensors)

transmitter.0.weight f4 [64, 2]
0	0x3edd14ac	0.43179834
1	0x3f059a26	0.52188337
2	0x3f1b8b97	0.6075987
3	0x3ef7ef0e	0.48424572
4	0xbeab8fc2	-0.33508116
5	0xbf2cc608	-0.6748967
6	0xbedbbf12	-0.42919213
7	0xbf333e7c	-0.7001722
8	0x3d2b7a73	0.041864824
9	0xbf04abc9	-0.51824623
10	0x3e23ff2a	0.16015306
11	0xbe76e685	-0.24111374
12	0x3d855073	0.06509485
13	0x3de638d3	0.11241307
14	0xbf10b81b	-0.5653092
15	0xbee08efd	-0.4385909
16	0x3f39531b	0.72392434
17	0x3ed5cc9f	0.41757676
18	0xbee8fde3	-0.455062
19	0xbef761f8	-0.48316932
20	0x3f2caa80	0.6744766
21	0x3ec5dfd9	0.38647345
22	0x3f158adb	0.58415
23	0x3f2adf0f	0.6674661
24	0xbe04b543	-0.12959771
25	0x3e3ec6ff	0.18630598
26	0x3efb3ec6	0.4907133
27	0xbe950902	-0.29108435
28	0xbd6a4550	-0.057195008
29	0xbe67098c	-0.22562236
30	0xbec3389c	-0.38129127
31	0x3e274128	0.16333449
32	0xbe0a4c66	-0.13505706
33	0xbdb94c4c	-0.090477556
34	0xbee18f9f	-0.44054887
35	0xbefdbe96	-0.49559468
36	0x3ee3b638	0.4447496
37	0xbe86d1df	-0.26331994
38	0xbe9d8817	-0.3076789
39	0x3f06238f	0.5239801
40	0x3f3138e5	0.6922744
41	0x3ec9fa4d	0.39448777
42	0x3f2b3cb9	0.6688953
43	0xbeead2e7	-0.4586403
44	0x3ec77a01	0.3896027
45	0xbf26f56d	-0.6521824
46	0x3ddc4ca5	0.10756806
47	0x3f2ac277	0.6670298
48	0x3f2637cd	0.64928895
49	0xbe821053	-0.2540308
50	0xbf06adca	-0.5260893
51	0x3cc6812c	0.024231516
52	0x3e659f19	0.22423972
53	0xbd1ed210	-0.03877455
54	0x3dce0504	0.100595504
55	0x3eec96b4	0.46208727
56	0xbef833c7	-0.48477003
57	0xbe7fe899	-0.24991073
58	0x3f334d86	0.70040166
59	0xbc40786b	-0.01174746
60	0x3eff7f3b	0.49901757
61	0xbe6decfb	-0.23234932
62	0xbed2bc9a	-0.41159517
63	0x3eeaec6b	0.45883498
64	0x3f241abd	0.641033
65	0x3f14e8a5	0.5816749
66	0x3e6a9f65	0.22912367
67	0xbf091159	-0.53542095
68	0x3eb654ce	0.35611576
69	0xbed6200f	-0.41821334
70	0x3f22305e	0.6335505
71	0xbee8757d	-0.45402136
72	0xbf190bd7	-0.5978369
73	0x3f0a4a72	0.54019845
74	0xbe0e00e1	-0.13867523
75	0xbf3457ad	-0.7044628
76	0x3f13b387	0.5769581
77	0xbf1dc437	-0.61627525
78	0xbe26ea09	-0.16300215
79	0x3db40009	0.08789069
80	0xbe78e7ee	-0.24307224
81	0x3f2e93ce	0.6819428
82	0x3d6491c9	0.055803094
83	0xbeb6760a	-0.35636932
84	0xbdd86209	-0.10565574
85	0xbf248150	-0.64259815
86	0xbf16cdea	-0.5890795
87	0x3f309b72	0.6898719
88	0xbf03cce0	-0.5148449
89	0xbe73792c	-0.23776692
90	0x3f31b066	0.6940979
91	0xbeaec737	-0.34136364
92	0xbe5a4719	-0.21316184
93	0xbeb1c455	-0.34720102
94	0x3f0bb34a	0.5457045
95	0xbe2e2a6c	-0.1700837
96	0xbe234c58	-0.15947092
97	0x3ea0afa0	0.3138399
98	0x3ef364e3	0.47537908
99	0xbe74f1d4	-0.23920375
100	0xbf2ee9fa	-0.6832577
101	0xbeba3d37	-0.36374828
102	0xbeed7d53	-0.46384677
103	0x3ec378a1	0.3817797
104	0xbcbaac62	-0.022787277
105	0x3f198d7a	0.599815
106	0xbf353897	-0.70789474
107	0xbe5a92d4	-0.21345073
108	0x3e96b5c9	0.29435566
109	0x3f192078	0.5981517
110	0x3ee3bef2	0.44481617
111	0xbf10d4cc	-0.565747
112	0x3f25b4f1	0.6472922
113	0x3d4e94a3	0.05043472
114	0xbe6694cd	-0.225177
115	0x3efc0f52	0.49230438
116	0x3eaa956e	0.3331713
117	0x3eb6b512	0.3568502
118	0x3e8a03e2	0.26956087
119	0xbe5a8006	-0.213379
120	0x3e543b6e	0.20725796
121	0xbeefeb34	-0.46859133
122	0x3e8eb467	0.2787201
123	0x3f1ef7f9	0.62097126
124	0xbe9940d6	-0.29932278
125	0xbd1647cb	-0.03668956
126	0x3c9d2df2	0.019186947
127	0x3eceba16	0.40376347

transmitter.0.bias f4 [64]
0	0x3de6d5a7	0.1127122
1	0x3eaca774	0.33721507
2	0x3f154e8d	0.58322984
3	0xbe516316	-0.20447955
4	0xbf19d2c7	-0.60087246
5	0x3e1dff75	0.1542948
6	0x3e404b6d	0.18778773
7	0x3ec5eb69	0.38656166
8	0xbefe66d8	-0.4968784
9	0xbef4fa31	-0.4784713
10	0x3dbed159	0.09317274
11	0x3eab85c3	0.3350049
12	0x3ea14202	0.31495672
13	0xbec26cb2	-0.37973553
14	0x3f03c388	0.5147023
15	0x3e4901aa	0.19629541
16	0xbe0e935c	-0.139234
17	0x3f17906a	0.59204733
18	0xbeed17aa	-0.46307117
19	0x3d78e77c	0.060767636
20	0x3f2ea0e6	0.6821426
21	0xbe510045	-0.20410259
22	0xbecc8042	-0.39941603
23	0xbf301a75	-0.6879037
24	0xbdf924d3	-0.12165227
25	0x3ef9edcc	0.48814237
26	0x3e0d51db	0.13800757
27	0xbef3394b	-0.4750465
28	0xbd49fece	-0.049315266
29	0xbc9fe4c5	-0.019518266
30	0x3e8cfd5c	0.27537048
31	0xbf037d75	-0.5136331
32	0x3e8dbb25	0.27681842
33	0x3f393daf	0.72359747
34	0x3de923e3	0.11383798
35	0x3ed8cb95	0.4234282
36	0x3ea9e48f	0.3318219
37	0xbd19fcd2	-0.037594624
38	0xbdf1b4b8	-0.118020475
39	0x3e7a3eb4	0.24437982
40	0x3f15ba8d	0.5848778
41	0x3e52e2e2	0.20594361
42	0x3f0c0069	0.54688126
43	0xbf15009e	-0.58204067
44	0x3e6028ab	0.21890514
45	0xbedd6d9b	-0.43247685
46	0xbedfe83b	-0.43731865
47	0x3c9553bb	0.018228402
48	0xbec47ffb	-0.3837889
49	0x3ed5acea	0.41733485
50	0x3e716fde	0.2357783
51	0x3e450434	0.19239885
52	0xbf280c56	-0.65643823
53	0xbef45cb5	-0.4772698
54	0x3e9f1eab	0.31078085
55	0x3ef8b115	0.48572603
56	0x3ebe74fc	0.37198627
57	0xbf0de884	-0.55432916
58	0xbea3f496	-0.32022542
59	0x3e4f985b	0.20272963
60	0xbf28731a	-0.6580063
61	0xbebc2389	-0.3674586
62	0x3b96caa1	0.004601792
63	0xbf280dab	-0.65645856

transmitter.2.weight f4 [64, 64]
0	0xbd70149a	-0.058613397
1	0x3d5dc81a	0.05414591
2	0xbdd59d5a	-0.10430403
3	0x3b91a560	0.004444763
4	0xbc2b6711	-0.010461585
5	0x3d93502f	0.07193028
6	0xbdd201e2	-0.10254265
7	0xbd3f6d30	-0.04673499
8	0xbdcf301b	-0.10116597
9	0xbd2dbd8d	-0.042417098
10	0xbda0dc77	-0.0785455
11	0x3db6358c	0.08896932
12	0xbc354868	-0.011064626
13	0x3dfa0562	0.12208058
14	0x3dafe24f	0.08588087
15	0x3d37198c	0.044702098
16	0x3ddca8f6	0.10774414
17	0x3d5f97cd	0.054588128
18	0x3d2c9018	0.042129606
19	0x3d11f91e	0.035637967
20	0x3cdd74ce	0.027033236
21	0x3d903767	0.07041817
22	0x3de3ba6e	0.11119543
23	0xbbb260a7	-0.0054436508
24	0x3db1f149	0.086885996
25	0xbdce4741	-0.10072184
26	0xbcb8a8e9	-0.02254148
27	0xbbb9fef8	-0.0056761466
28	0xbcd8a46e	-0.026445594
29	0x3dc097bc	0.09403941
30	0x3ce933ed	0.028467143
31	0x3d25e6dc	0.040503368
32	0xbc88cfe0	-0.016700685
33	0x3dea6628	0.11445266
34	0x3c86182b	0.016368946
35	0x3de2c550	0.110727906
36	0x3d05cc68	0.03266564
37	0x3da8c325	0.08240346
38	0xbde5ca16	-0.112201855
39	0x3cc11a86	0.023572218
40	0xba4cc285	-0.0007810968
41	0xbd480a08	-0.04883769
42	0x3d1efa3f	0.038812872
43	0x3da34016	0.07971208
44	0x3d6ee2ba	0.058321692
45	0x3df72935	0.120684065
46	0xbd76ec8d	-0.060284186
47	0xbdfb55f3	-0.12272253
48	0xbd0a8c9a	-0.033825494
49	0xbd67f796	-0.0566326
50	0x3d8ee3d8	0.069770515
51	0xbdf57e46	-0.11986975
52	0x3d084139	0.033265326
53	0x3c4ab9ff	0.0123734465
54	0xbb88d5a6	-0.0041758595
55	0xbd8d678b	-0.06904515
56	0x3c2127c9	0.009836146
57	0xbc6a6516	-0.014306327
58	0x3bac6227	0.005260724
59	0xbc109344	-0.008824173
60	0xbbfd07b1	-0.007721864
61	0xbd9c0b63	-0.07619359
62	0x3e0761ab	0.13220851
63	0xbdc606fd	-0.09669302
64	0xbd138700	-0.036017418
65	0x3d716c76	0.058941327
66	0xbd832ece	-0.06405412
67	0xbd74756d	-0.0596823
68	0xbd2ff49d	-0.04295789
69	0xbd88fec9	-0.066892214
70	0x3dcb247f	0.099190705
71	0x3d9299b5	0.071582235
72	0x3cd6b410	0.026208907
73	0x3d91cdfa	0.07119365
74	0x3c88781a	0.016658831
75	0xbcfe441b	-0.031038335
76	0x3e0b72a0	0.13617945
77	0x3d85dc59	0.065361686
78	0x3c45b0e1	0.012066097
79	0x3d9ad094	0.07559314
80	0x3d98f64a	0.07468851
81	0x3d8c184c	0.06840572
82	0x3dd8813d	0.10571525
83	0x3cdb211f	0.026749192
84	0xbd3c8c86	-0.04603245
85	0xbd7f6b50	-0.0623582
86	0x3cb39642	0.021922234
87	0x3dc1a33d	0.09454963
88	0x3daa8cfa	0.083276704
89	0x3cc16281	0.02360654
90	0x3da341ae	0.07971512
91	0xbbeee42c	-0.007290384
92	0xbcc76dc8	-0.02434434
93	0x3c550214	0.013000984
94	0x3dbe37a9	0.0928796
95	0xbe049069	-0.12945713
96	0xbdda3f9b	-0.10656663
97	0x3db1329f	0.08652233
98	0x3dbd4bab	0.09242948
99	0xbcff1c46	-0.031141412
100	0x3d607d14	0.054806784
101	0xbdb0d057	-0.08633488
102	0x3d954cee	0.07290064
103	0x3d5c68a6	0.053810738
104	0xbda81b5f	-0.082083456
105	0xbcd8ed94	-0.026480474
106	0x3c8ecca9	0.017431574
107	0x3dbeea83	0.09322073
108	0x3dd46f7c	0.103728265
109	0x3ccf69ce	0.025319006
110	0x3d759e5d	0.05996548
111	0xbdb49075	-0.088166155
112	0x3db17330	0.086645484
113	0xbdcd7920	-0.100328684
114	0x3c6e6391	0.014550106
115	0x3d061861	0.032738093
116	0x3d033c24	0.032039776
117	0xbcd822a1	-0.0263837
118	0x3d657b4a	0.05602578
119	0xbdc15b69	-0.09441263
120	0x3d31befe	0.043395035
121	0xbb165a80	-0.0022942126
122	0xbc18e26d	-0.009331328
123	0x3dd80eef	0.10549723
124	0xbd9a06a6	-0.07520799
125	0x3dcbee2c	0.09957537
126	0x3dbeee9f	0.09322857
127	0xbdeb8320	-0.114996195
128	0xbd62d37e	-0.055377476
129	0xbd0b5c13	-0.034023356
130	0x3dafb0ca	0.08578642
131	0x3d87d8ac	0.06633124
132	0xbcdbcfbb	-0.026832452
133	0x3db1c403	0.086799644
134	0xbd6f2107	-0.058381107
135	0x3dc4d572	0.09611024
136	0xbdd7faac	-0.10545859
137	0x3dcf8245	0.10132269
138	0x3d417966	0.047234915
139	0xbd218fcf	-0.039443787
140	0xbceeb030	-0.029136747
141	0x3de5c2da	0.112188056
142	0x3de2ad37	0.11068194
143	0x3dbfb6ad	0.093610145
144	0x3db18890	0.08668625
145	0x3d9b2223	0.075748704
146	0xbd346e55	-0.044050533
147	0xbb950b60	-0.004548475
148	0x3d9665aa	0.0734361
149	0x3d7e4b1b	0.062083345
150	0x3dcadb5c	0.09905121
151	0xbc066627	-0.008203066
152	0xbdfbb621	-0.12290598
153	0x3cb464c3	0.022020703
154	0xbcf55492	-0.029947553
155	0x3e00a9ae	0.12564728
156	0x3d347c0e	0.04406362
157	0x3d7df50e	0.06200128
158	0x3dae14f8	0.08500093
159	0x3dd6a3c4	0.104804546
160	0x3d806a0d	0.062702276
161	0x3d89b903	0.06724741
162	0xbe161c46	-0.14659223
163	0xbde7c844	-0.113174945
164	0x3d68f1ee	0.056871347
165	0xbdfac0dd	-0.12243817
166	0xbe135ab2	-0.14390066
167	0x3dc4619f	0.09588932
168	0x3c16c34d	0.009201837
169	0x3da1c0c1	0.07898093
170	0x3d096612	0.033544607
171	0xbc8f2284	-0.017472513
172	0x3c5a046c	0.013306718
173	0xbd5753a5	-0.052570004
174	0xbd417ee1	-0.04724014
175	0xbba96017	-0.0051689255
176	0x3e0b79c5	0.1362067
177	0xbd3e6453	-0.046482395
178	0x3dc1bb57	0.0945956
179	0xbd1c3649	-0.038137708
180	0xbc27f9e2	-0.010252448
181	0x3e04ac7d	0.12956424
182	0x3d02442c	0.031803295
183	0x3dba8c4e	0.09108792
184	0xbddc1766	-0.107466504
185	0x3d581a7b	0.05275963
186	0xbd06c091	-0.03289849
187	0xbddc0cab	-0.10744604
188	0xbc9afe04	-0.018919952
189	0x3cd53010	0.026023895
190	0x3dd3ac75	0.10335628
191	0x3e03df65	0.12878187
192	0xbd9d8147	-0.07690673
193	0x3d8a5c7f	0.067559235
194	0x3c5b0b55	0.013369401
195	0x3b5ea172	0.003397074
196	0x3d81ba1c	0.06334326
197	0x3d9f3ee6	0.07775669
198	0xbd9e7a2f	-0.077381484
199	0x3e098423	0.13429312
200	0x3c724568	0.014787056
201	0x3de105e4	0.10987452
202	0x3d982d98	0.07430571
203	0x3d04f189	0.03245691
204	0x3d33318d	0.043748427
205	0xbd754344	-0.059878603
206	0xbdbee101	-0.0932026
207	0xbd966271	-0.07342995
208	0xbd2203a4	-0.039554253
209	0x3be6d2f6	0.0070441915
210	0xbbe879d6	-0.007094602
211	0x3d687acb	0.05675773
212	0x3c90353c	0.01760351
213	0x3df724d1	0.12067569
214	0x3d7dde53	0.061979603
215	0x3d71e786	0.05905869
216	0xbd83acea	-0.06429465
217	0x3d02d6b6	0.031943046
218	0x3d27878e	0.04090076
219	0x3dc8468e	0.09779082
220	0x3d479902	0.048729904
221	0xbc82b72b	-0.015956482
222	0x3d177cfe	0.036984436
223	0x3d8b7db5	0.06811086
224	0x3b0ffcaf	0.002197068
225	0x3cb6ff08	0.022338405
226	0x3c8172fb	0.015801897
227	0xbc7d7945	-0.015470807
228	0x3bbee534	0.005825663
229	0x3db6ed8d	0.08932028
230	0x3be2a4a9	0.0069166017
231	0x3dec8d67	0.11550408
232	0x3cfc807a	0.030822981
233	0x3dccf72f	0.10008084
234	0x3e126385	0.14295776
235	0x3dac38bd	0.084092595
236	0x3dd32025	0.103088655
237	0x3d08615e	0.03329598
238	0xbd19332b	-0.037402313
239	0xbdbccb4a	-0.09218462
240	0x3ddfaaa2	0.109212175
241	0x3d22e66f	0.03977054
242	0x3dbc0099	0.091798015
243	0xbd9bc63c	-0.076061696
244	0x3b160d53	0.0022896125
245	0x3bc2bc3e	0.0059428504
246	0xbd498361	-0.04919756
247	0x3dd831b7	0.10556357
248	0xbd659f99	-0.056060407
249	0x3cdc66ec	0.026904546
250	0xbddeb0e8	-0.10873586
251	0xbdd7e274	-0.105412394
252	0x3daf6dbd	0.08565853
253	0xbe050182	-0.12988856
254	0xbd153e4c	-0.036436364
255	0x3a9f5adc	0.0012157816

transmitter.2.bias f4 [64]
0	0x3d3d3457	0.046192493
1	0xbd575bfd	-0.05257796
2	0xbcb395bb	-0.021921983
3	0x3d5dc60a	0.054143943
4	0x3db83c03	0.08995821
5	0x3dd76db5	0.10518972
6	0x3c8bfbb7	0.0170878
7	0x3cfee7b5	0.031116346
8	0x3cef79cb	0.02923288
9	0x3d768713	0.06018741
10	0xbd1218d4	-0.03566821
11	0x3df02505	0.11725811
12	0x3d4753bd	0.048663843
13	0x3d4de04f	0.050262745
14	0x3df7da0f	0.12102138
15	0x3d8a7680	0.06760883
16	0xbdc86129	-0.09784157
17	0x3cfe6ee6	0.03105874
18	0xbdbfbbe1	-0.09362007
19	0x3c02d597	0.007985494
20	0xbd2d694b	-0.042336743
21	0x3c0b5f8e	0.008506669
22	0x3d4f0ee9	0.05055133
23	0xbdb36d09	-0.08761031
24	0x3c89cc18	0.016820952
25	0xbdae47c8	-0.08509785
26	0xbdde7185	-0.10861496
27	0x3d00a401	0.031406406
28	0xbcc9f463	-0.024652665
29	0xbce624ac	-0.028093658
30	0xbd86898f	-0.06569206
31	0xbe09aa2a	-0.13443819
32	0xbddeb5b0	-0.10874498
33	0x3c28e1b6	0.01030772
34	0xbd482fce	-0.048873715
35	0x3df56eb5	0.11984006
36	0x3d677e84	0.05651714
37	0x3dd208e9	0.10255606
38	0x3b8cb512	0.004294046
39	0xbc5e6873	-0.013574707
40	0x3ca5c52f	0.020235626
41	0x3dd95e93	0.10613742
42	0xbd39f468	-0.0453991
43	0x3bae154b	0.005312597
44	0xbc85232b	-0.016252121
45	0xbd0ad928	-0.033898503
46	0xbda0a2ac	-0.07843527
47	0xbda6e5c7	-0.08149295
48	0xbdb89e7a	-0.09014602
49	0x3e00c26b	0.12574165
50	0xbdd88dff	-0.105739586
51	0x3cb64246	0.022248399
52	0x3d64efc3	0.055892717
53	0x3cf9cc24	0.03049285
54	0xbc1b258b	-0.0094694
55	0x3dab2645	0.08356909
56	0x3d9abd8a	0.07555683
57	0x3dd1100b	0.10208138
58	0xbc6fd592	-0.0146383215
59	0xbd1b37ad	-0.037894893
60	0x3a6cfa67	0.00090399984
61	0xbde01ff7	-0.10943597
62	0xbe0033fe	-0.12519833
63	0x3db460a2	0.08807494

receiver.0.weight f4 [64, 64]
0	0x3c427679	0.011869066
1	0x3d8eab07	0.069662146
2	0xbdac5b2e	-0.08415829
3	0x3be97cb1	0.00712546
4	0x3d4dbe22	0.050230153
5	0xbccff92a	-0.025387365
6	0x3d131a3b	0.035913687
7	0x3d016a90	0.031595767
8	0x3dd7725a	0.10519858
9	0xbd47736c	-0.04869406
10	0xbca60360	-0.020265281
11	0xbd9b8690	-0.07594025
12	0xbc87ad98	-0.016562268
13	0xbd4c1b43	-0.049830686
14	0xbdb90646	-0.090344
15	0xbca3a78d	-0.019977355
16	0xbd8509ab	-0.06495985
17	0xbd09c850	-0.0336383
18	0xbd8ce312	-0.06879248
19	0x3d2ecbd4	0.042674854
20	0xbcd78151	-0.02630678
21	0xbd0cc96c	-0.03437178
22	0xbc545f4f	-0.012962176
23	0xbde0eab7	-0.10982268
24	0xbce4a892	-0.027912412
25	0xbda63b76	-0.0811681
26	0x3d81e2be	0.06342076
27	0x3d9b8718	0.075941265
28	0x3dba46a7	0.09095507
29	0x3b7e0b96	0.003876423
30	0xbce07081	-0.027397396
31	0x3cdf6f58	0.027274773
32	0xbda780bf	-0.08178853
33	0x3b0b6fea	0.0021276423
34	0x3c4ebc0a	0.012618074
35	0x3d98230b	0.07428559
36	0xbd98d9cf	-0.07463419
37	0x3cc45deb	0.023970565
38	0x3d899162	0.06717183
39	0xbd84f461	-0.06491924
40	0x3cefe903	0.029285913
41	0x3dba99a0	0.09111333
42	0x3d9ec27d	0.077519394
43	0x3d86d6ac	0.06583914
44	0x3d90c21e	0.07068275
45	0x3cc19e9b	0.0236352
46	0xbda9d975	-0.0829343
47	0x3d9f561e	0.077800974
48	0x3cb15df5	0.021651248
49	0x3c105ba9	0.008810916
50	0x3d411731	0.047141258
51	0xbbd9c90b	-0.0066462806
52	0x3da0a2e0	0.07843566
53	0xbd261dd0	-0.040555775
54	0x3d02198a	0.031762637
55	0xbc9c39b0	-0.019070476
56	0x3d9d6837	0.07685893
57	0xbda449f0	-0.08021915
58	0xbcfc7d2b	-0.030821403
59	0x3d16cb78	0.036815137
60	0x3db534f4	0.08847991
61	0xbd24bcb7	-0.040219035
62	0x3cb628b9	0.022236215
63	0xbdb42ddb	-0.08797809
64	0x3dcc9849	0.099899836
65	0xbd6b1fb3	-0.057403278
66	0xbd040aa6	-0.032236718
67	0x3d14e6c6	0.036352895
68	0xbd1104d5	-0.035405
69	0x3df7e1ce	0.12103616
70	0xbd20e600	-0.039281845
71	0xbd2d5558	-0.04231772
72	0x3ca713d5	0.020395199
73	0x3b913790	0.0044316724
74	0xbda3fd15	-0.08007256
75	0x3d550cca	0.05201415
76	0x3c628574	0.013825763
77	0x3d9370ea	0.07199271
78	0xbda78981	-0.08180524
79	0xbdbcb74d	-0.09214649
80	0x3bfc79c9	0.0077049476
81	0xbd13a3cd	-0.036044884
82	0xbd9e0831	-0.07716406
83	0xbd7de4ec	-0.061985895
84	0xbc93ea1d	-0.01805597
85	0x3d2bd4a9	0.041950855
86	0x3d29854b	0.041386884
87	0x3d9e6fd1	0.07736171
88	0xbd5a313d	-0.053269614
89	0x3dab7b8d	0.08373175
90	0xbd4a0895	-0.04932459
91	0x3d8cab93	0.06868663
92	0xbd3a47be	-0.045478575
93	0xbd916a2b	-0.07100328
94	0x3d2e5696	0.042563044
95	0xbc8ae2b4	-0.016953804
96	0xbd3a0949	-0.04541901
97	0xbdaed43d	-0.08536575
98	0x3d98e9c5	0.07466463
99	0x3b4c1288	0.0031138975
100	0xbd4c3d63	-0.04986323
101	0x3cec56bd	0.028849954
102	0xbd7468c6	-0.059670232
103	0xbbd93aee	-0.0066293394
104	0x3c963235	0.018334487
105	0xbbaec8b9	-0.0053339866
106	0x3d946131	0.072451
107	0xbd6a1733	-0.05715103
108	0xbd65491c	-0.055977926
109	0x3db137fe	0.08653258
110	0x3c35ad89	0.011088737
111	0xbcf7e76f	-0.030261723
112	0xbc50df9c	-0.012748625
113	0xbdc04417	-0.09387987
114	0xbdb42a6d	-0.087971546
115	0xbd59fa5d	-0.05321728
116	0x3d9bbd0b	0.076044165
117	0xbd33dee6	-0.043913744
118	0xbc88d3f5	-0.016702631
119	0xbdac63bd	-0.08417461
120	0xbd8136d2	-0.06309284
121	0xbd9debb4	-0.077109724
122	0xbd0ea35b	-0.034823757
123	0x3d3fc780	0.046821117
124	0xbdc473f0	-0.09592426
125	0xbd5c36d6	-0.053763233
126	0x3b82b3db	0.0039887256
127	0xbdccc6f9	-0.099988885
128	0xbdbee268	-0.09320527
129	0x3de02597	0.1094467
130	0x3d2fac6a	0.042889036
131	0x3d17992c	0.03701131
132	0x3d04f3bf	0.032459017
133	0x3df994fe	0.12186621
134	0x3d544eb7	0.05183288
135	0xbd97b79b	-0.07408067
136	0xbdada4af	-0.084786765
137	0xbd99c0e1	-0.07507492
138	0x3d53774a	0.051627435
139	0x3d23ea01	0.040018085
140	0x3dcb19ab	0.09917005
141	0xbdc53f28	-0.09631187
142	0x3dcef07b	0.10104462
143	0x3bc24faf	0.005929909
144	0xbd4ff1b7	-0.050767627
145	0xbdf965f0	-0.12177646
146	0x3d13daba	0.036097266
147	0x3c74eafa	0.014948601
148	0x3d64af84	0.055831447
149	0x3cc19afd	0.023633474
150	0xbc65b543	-0.014020267
151	0x3d781ce6	0.060574435
152	0xbcfe4aaf	-0.031041471
153	0x3dbf20cc	0.093324274
154	0xbcb8e805	-0.022571573
155	0xbca98809	-0.02069475
156	0x3d6a6878	0.057228535
157	0x3d6979ef	0.05700105
158	0xbdaafb0f	-0.08348667
159	0xbda37c33	-0.079826735
160	0x3c83a1fa	0.016068447
161	0x3d9cb827	0.07652312
162	0x3da49086	0.08035378
163	0x3d7841fe	0.06060981
164	0x3d89ef25	0.06735066
165	0x3cbfedcb	0.023428818
166	0xbd450fcd	-0.048110772
167	0xbdd0aee4	-0.10189608
168	0xbd9e3423	-0.07724788
169	0x3dd488b7	0.10377639
170	0x3cb6922c	0.022286497
171	0x3d69ffc0	0.057128668
172	0x3da238dc	0.07921001
173	0x3dc65b65	0.09685401
174	0xbd04edf7	-0.032453503
175	0xbcaf61f7	-0.021409018
176	0x3cd47348	0.025933877
177	0xbd8090dc	-0.0627763
178	0xbdf1d0c2	-0.118073955
179	0x3d93690e	0.07197772
180	0x3da041ef	0.07825076
181	0x3c98cbb8	0.018651828
182	0xbc336083	-0.010948303
183	0x3d1c2dd6	0.03812965
184	0xbb024d2e	-0.0019882428
185	0xbc234256	-0.009964546
186	0x3d8d3581	0.06894971
187	0x3d9d34f1	0.076761134
188	0xbd7ab063	-0.06120337
189	0x3cf76b6a	0.030202586
190	0xbd850e29	-0.064968415
191	0xbce8ef13	-0.028434312
192	0xbdaf2e36	-0.08553736
193	0xbe0028e0	-0.12515593
194	0xbdc2a2b0	-0.095036864
195	0xbd200830	-0.03907031
196	0xbd0d17f9	-0.03444669
197	0xbdaf5d4c	-0.08562717
198	0xbd841d8e	-0.064509496
199	0xbd83f68e	-0.06443511
200	0xbde0050b	-0.10938462
201	0xbd91a402	-0.0711136
202	0xbde47060	-0.11154246
203	0xbda6f796	-0.08152692
204	0x3c1c6813	0.009546298
205	0xbda07008	-0.07833868
206	0xbd198945	-0.037484426
207	0x3dccfcb0	0.10009134
208	0xbc528e6d	-0.01285134
209	0x3c1ad4f9	0.009450191
210	0xbdb2ace0	-0.087243795
211	0xbcacbcf8	-0.021086201
212	0x3d9b606e	0.07586752
213	0x3da1bbb2	0.07897128
214	0x3d390f2f	0.045180496
215	0xbd9080c4	-0.0705581
216	0xbd8dcaa9	-0.0692342
217	0x3d618dd2	0.05506689
218	0xbccc0fbf	-0.024909852
219	0xbd89380a	-0.06700142
220	0xbdb9b955	-0.090685524
221	0xbc581581	-0.013188721
222	0x3d7a6f4f	0.06114131
223	0x3d595aa0	0.053064942
224	0x3d26ae6d	0.04069369
225	0x3d6d8a75	0.05799337
226	0x3c035e27	0.008018053
227	0x3d29b774	0.04143472
228	0x3dbf7222	0.09347941
229	0x3dd11307	0.10208707
230	0xbdf01682	-0.11723043
231	0x3cb9ae91	0.022666248
232	0xbbfa1922	-0.0076323906
233	0xbd99d353	-0.0751101
234	0xbd866882	-0.06562902
235	0x3dda9c41	0.10674334
236	0xbdbcc055	-0.09216372
237	0x3d908ad4	0.07057729
238	0xbdd1833c	-0.10230109
239	0x3d97a029	0.07403595
240	0x3d7ccb54	0.061717346
241	0x3bef8ca1	0.0073104654
242	0xbda1fde2	-0.079097524
243	0xbc941a0f	-0.018078832
244	0xbad11296	-0.0015950974
245	0xbdcfa539	-0.101389356
246	0xbd034cc2	-0.032055624
247	0xbd90ce6b	-0.07070621
248	0xbde0c926	-0.10975866
249	0x3d99dd8a	0.07512958
250	0xbcb48b82	-0.022039179
251	0xbda6a879	-0.08137602
252	0x3d3576d6	0.044302784
253	0xbd2e7ace	-0.042597584
254	0xba5791f5	-0.00082233484
255	0x3c90da90	0.017682344

receiver.0.bias f4 [64]
0	0xbcd62dcc	-0.026144885
1	0x3d4b509b	0.04963742
2	0xbd6d65dd	-0.057958473
3	0xbd2fd092	-0.042923518
4	0x3de1cdb9	0.110255666
5	0xb931a88f	-0.00016942828
6	0xbd938ab6	-0.072041914
7	0x3db87ebf	0.0900855
8	0xbda34ed8	-0.079740226
9	0x3d430840	0.04761529
10	0x3dd8d1d2	0.10586895
11	0x3b8d1d29	0.0043064547
12	0x3cf94dd6	0.030432623
13	0xbde28acd	-0.110616304
14	0x3d283588	0.041066676
15	0xbdaba69d	-0.08381388
16	0xbde4694d	-0.11152897
17	0xbd2bd5a7	-0.0419518
18	0xbd4d2bb4	-0.050090507
19	0xbe032ad4	-0.12809306
20	0xbd4e73c6	-0.05040338
21	0xbd1e46eb	-0.03864185
22	0xbddf77fb	-0.10911556
23	0x3e08690d	0.13321324
24	0x3d4a0998	0.049325556
25	0xbe1e850f	-0.15480445
26	0xbdf8c3f9	-0.12146754
27	0x3da19586	0.078898475
28	0xbde83c8e	-0.11339675
29	0x3dc20305	0.09473232
30	0xbd85fa50	-0.06541884
31	0x3d91f205	0.0712624
32	0xbde4d4dd	-0.11173413
33	0x3dbd3414	0.09238449
34	0xbdebb4e0	-0.115091085
35	0x3e052fd7	0.1300653
36	0x3d906cf0	0.07052028
37	0xbcfcb255	-0.030846754
38	0xbdbcf31e	-0.092260584
39	0xbdce1fd1	-0.10064662
40	0xbd47a506	-0.048741363
41	0xbdaf1700	-0.08549309
42	0xbbf2947c	-0.0074029546
43	0xbd3de4db	-0.04636083
44	0xbc9f3baf	-0.019437639
45	0x3d41f057	0.047348347
46	0xbd67a100	-0.056550026
47	0x3e0c1c58	0.13682687
48	0x3e0754e3	0.13215975
49	0x3dac7483	0.0842066
50	0x3b38bd64	0.0028189057
51	0x3cd982d3	0.02655164
52	0x3d626464	0.05527152
53	0x3c4a782a	0.012357751
54	0xbb5db3ae	-0.0033829021
55	0x3dababb5	0.0838236
56	0xbb2525d4	-0.002519955
57	0x3d7f52a4	0.06233467
58	0xbe03a3b3	-0.12855415
59	0xbc605dd9	-0.01369425
60	0x3d3fb642	0.046804674
61	0x3d71c4f8	0.059025735
62	0x3d43b9d5	0.047784645
63	0xbdbe25e2	-0.09284569

receiver.2.weight f4 [2, 64]
0	0x3ac2434e	0.0014821084
1	0xbbd86d39	-0.006604817
2	0xbb447b45	-0.00299807
3	0x3b230a7c	0.0024878075
4	0x3c1f52fe	0.009724377
5	0xbba228f2	-0.0049487287
6	0xbc57df16	-0.013175746
7	0xbbf723a0	-0.0075420886
8	0x3c8667bb	0.016406884
9	0x3b2cb9d2	0.0026355875
10	0x3afeec78	0.0019449135
11	0x3b09fc9d	0.002105511
12	0xbb517ee6	-0.0031966507
13	0x3b114007	0.0022163407
14	0x3b7d2b09	0.0038630387
15	0xbad13d8c	-0.0015963777
16	0xbb946925	-0.004529136
17	0x3b0446ef	0.0020183881
18	0xbbf66d85	-0.00752038
19	0xbb574eb9	-0.003285332
20	0x3c508a5e	0.012728302
21	0x3b77313b	0.0037718553
22	0xbc4accbc	-0.012377914
23	0x3ca3ce77	0.019995911
24	0xbc15ec12	-0.009150522
25	0xbd196aef	-0.037455495
26	0xbc80fc35	-0.015745262
27	0x3abe6cff	0.0014528333
28	0x3b2c2630	0.0026267879
29	0x3b85902e	0.0040760254
30	0x3b5a0813	0.0033268973
31	0x3b1b4e71	0.0023697878
32	0x3c5d92a2	0.0135237295
33	0x3c1c78ed	0.009550315
34	0x3b17fcbb	0.002319141
35	0x39c326f5	0.00037222324
36	0x3b96fa17	0.0046074498
37	0xbbbece25	-0.005822914
38	0xbb2106c5	-0.0024570685
39	0xba57c383	-0.00082307326
40	0xbbe5f3a0	-0.0070175678
41	0x3c00b8be	0.007856546
42	0xbc2daa57	-0.010599694
43	0x3a7730aa	0.0009429554
44	0x3b07c93b	0.0020719308
45	0x3c11ab62	0.0088909585
46	0x3c21c429	0.009873428
47	0x3c4e3236	0.012585213
48	0x3bfafdc5	0.007659646
49	0x3b1418a2	0.002259769
50	0x3afbe3d9	0.0019217684
51	0x3b7e2ced	0.0038784102
52	0xba24d13d	-0.00062872824
53	0x3b971dd5	0.0046117106
54	0xbc769f54	-0.015052635
55	0xbba716d5	-0.0050991573
56	0xbac82884	-0.0015270864
57	0x3bdad395	0.0066780546
58	0x3b65c5c6	0.003506051
59	0x3bab7ce6	0.005233395
60	0x3bb63de0	0.0055615753
61	0xbc1f976f	-0.009740694
62	0x3c0cf657	0.008603654
63	0xbbebf7e5	-0.007201182
64	0x3c8cf04f	0.017204432
65	0x3ab04824	0.0013449234
66	0x3b152998	0.0022760388
67	0xbb8b45c4	-0.00425026
68	0x3c73aef8	0.014873259
69	0xbb95669d	-0.0045593516
70	0xbc88a9ba	-0.016682494
71	0xbc2a73f4	-0.010403622
72	0x3c58a367	0.013222552
73	0xbc312204	-0.010811333
74	0xbbc71956	-0.0060760183
75	0x3bd10515	0.0063787797
76	0x3c297228	0.010342158
77	0xbbba808c	-0.0056915935
78	0x3c3c4b5d	0.011492577
79	0x3bd34183	0.0064470186
80	0xbb969166	-0.0045949696
81	0x3c090d9f	0.008365064
82	0x3b0102a4	0.0019685412
83	0xbb83f4c3	-0.0040269806
84	0x3b0361db	0.002004734
85	0x3ba84b16	0.005135904
86	0x3b2d4c2e	0.0026443112
87	0x3b30a524	0.00269539
88	0xbc392ac0	-0.011301696
89	0xbb963ffd	-0.0045852647
90	0x3c13c4fc	0.009019133
91	0xbc16ac56	-0.0091963615
92	0x3aca9a97	0.0015457448
93	0x3b53bdc7	0.003230916
94	0x3c30ffc9	0.010803171
95	0xbb92f88e	-0.0044851964
96	0x3cb093da	0.021554876
97	0xb8e3648f	-0.00010842934
98	0xbbb0135a	-0.0053734006
99	0xbc0d5988	-0.008627303
100	0x3b6085b5	0.0034259383
101	0xb98ee0ba	-0.00027251785
102	0xbb97f84b	-0.004637753
103	0xbbb36807	-0.0054750475
104	0x3bb84e6c	0.005624583
105	0x3aacef72	0.0013193919
106	0xbb8e7d8d	-0.004348463
107	0x3c09b24a	0.008404324
108	0x3bb05770	0.005381517
109	0xbb81af51	-0.003957667
110	0x3c1c0375	0.009522309
111	0x3b5e6f2f	0.0033940782
112	0xbae50e8d	-0.001747565
113	0x3b31db92	0.002713893
114	0x3b91b416	0.0044465167
115	0x3bcdf708	0.006285552
116	0x3ba39c8a	0.004993026
117	0x3b654e10	0.0034989156
118	0xbc596273	-0.013268101
119	0xbbb5916e	-0.005541018
120	0xbb9e0599	-0.0048224446
121	0x3be8f3b9	0.007109132
122	0x3b905374	0.0044044796
123	0x3baefc54	0.0053401385
124	0x3b90d87d	0.0044203387
125	0xbbac013b	-0.00524917
126	0x3a83fc04	0.0010069613
127	0xbc084497	-0.008317134

receiver.2.bias f4 [2]
0	0x3dc0d9e2	0.09416558
1	0x3d5fd33e	0.054644816
