checkpoint.pt (torch, 13703 bytes, 8 tensors)

transmitter.0.weight f4 [32, 8]
0	0xbe6bae3f	-0.23015688
1	0x3e78e62f	0.24306558
2	0x3ea2efe5	0.3182365
3	0xbe6cd750	-0.2312901
4	0x3e427c58	0.18992746
5	0xbd25679f	-0.040382024
6	0xbd8607d4	-0.06544462
7	0x3e7c23f7	0.24623094
8	0xbe091db1	-0.13390233
9	0xbe2d32c9	-0.16913904
10	0x3ec24df0	0.37950087
11	0xbe86ae9d	-0.26305094
12	0x3eabd500	0.33560944
13	0x3e4a3dbd	0.19750114
14	0x3e8129fd	0.25227347
15	0xbe45c494	-0.1931327
16	0x3c31bdd1	0.010848478
17	0x3d394144	0.045228258
18	0x3d8c3fcc	0.06848106
19	0x3ead62a9	0.33864334
20	0xbe920c57	-0.2852504
21	0xbce3eaf6	-0.027821999
22	0x3eac3872	0.33636814
23	0x3e27980b	0.16366594
24	0xbe24d1d7	-0.16095673
25	0x3e8bfbd2	0.2734056
26	0x3e8268dd	0.2547063
27	0x3e83975b	0.25701413
28	0xbe64620e	-0.2230303
29	0x3e16af35	0.14715274
30	0x3e84b6f4	0.25920832
31	0xbe81e56e	-0.25370353
32	0xbd9f0c96	-0.077660725
33	0x3c5cc95a	0.01347574
34	0x3d56cb71	0.05244011
35	0x3e8b4e0f	0.2720799
36	0x3e971461	0.29507735
37	0x3ded1cbe	0.11577748
38	0x3df80729	0.12110741
39	0x3d8eaa5c	0.06966087
40	0xbe49fc06	-0.19725046
41	0xbe928d31	-0.28623345
42	0xbe90f589	-0.28312328
43	0xbc6058f9	-0.013693088
44	0xbe80f65c	-0.25187957
45	0xbe94cc51	-0.2906213
46	0xbe28d112	-0.16486004
47	0x3d1abeaf	0.037779506
48	0x3e3d0ef9	0.18462743
49	0xbe66655c	-0.22499603
50	0x3e055c0b	0.13023393
51	0x3e87b99e	0.26508802
52	0x3c73f962	0.014891
53	0xbda487b3	-0.08033695
54	0x3eb454b6	0.3522088
55	0x3eb1d776	0.34734696
56	0xbe370373	-0.1787241
57	0xbe99563b	-0.299486
58	0x3d9f36d9	0.07774133
59	0xbe2d8ff6	-0.16949448
60	0xbdf46a6e	-0.11934362
61	0xbe4930ba	-0.19647494
62	0xbe143d6d	-0.14476557
63	0x3db76a0c	0.08955774
64	0xbe8e3270	-0.27772856
65	0x3ddd8b93	0.10817637
66	0x3e64ab8b	0.22331063
67	0x3d8ce5bf	0.06879758
68	0xbda4b88d	-0.08043013
69	0xbe241020	-0.16021776
70	0xbe4953a7	-0.19660817
71	0xbdf0918c	-0.11746511
72	0x3e65652a	0.22401872
73	0xbe5491cb	-0.2075874
74	0xbdd348c6	-0.10316615
75	0xbd6c1e01	-0.0576458
76	0xbe7ce114	-0.24695235
77	0xbeb39a14	-0.3507849
78	0xbe176d13	-0.14787702
79	0xbe088bc1	-0.13334562
80	0x3c0bb63e	0.008527337
81	0xbe267278	-0.16254604
82	0xbe70eddf	-0.2352824
83	0x3df4fbdc	0.11962101
84	0xbe961061	-0.2930937
85	0xbe674753	-0.22585802
86	0xbec46eac	-0.38365686
87	0xbe672af8	-0.22574985
88	0xbdb093ee	-0.08621965
89	0x3dbfb156	0.09359996
90	0x3e8484ee	0.25882667
91	0x3e0f52ea	0.13996473
92	0xbe839501	-0.25699618
93	0xbebace98	-0.36485744
94	0xbe076aab	-0.13224284
95	0x3e72aeae	0.23699448
96	0x3e4ce35b	0.20008604
97	0xbe5bff83	-0.21484189
98	0x3e9f23f4	0.31082118
99	0x3da8b49a	0.08237572
100	0x3e90318a	0.28162795
101	0x3ea6eee3	0.3260413
102	0xbc7108a3	-0.014711532
103	0xbe9ae72b	-0.30254492
104	0x3e306f83	0.17230038
105	0x3eb64455	0.35599008
106	0xbc6c068d	-0.014405859
107	0x3e887fbb	0.2665995
108	0x3e17ae2a	0.14812532
109	0xbe9ecbf7	-0.31014988
110	0x3d666bcb	0.056255143
111	0x3e17dcad	0.14830275
112	0x3e21bfd3	0.15795831
113	0x3e2e38b7	0.17013822
114	0x3ea52e9e	0.3226213
115	0xbe6521e0	-0.22376204
116	0xbe833bff	-0.2563171
117	0x3ea974cd	0.33096924
118	0xbde0fada	-0.10985346
119	0x3e4a5cf3	0.1976202
120	0xbe947987	-0.28998968
121	0x3dafa6b1	0.08576716
122	0xbe46a557	-0.1939901
123	0xbe12e357	-0.14344536
124	0x3da0b145	0.078463115
125	0xbd8ac0d0	-0.06775057
126	0xbeb6f6c6	-0.35735148
127	0xbdba072f	-0.090834014
128	0x3e31d18f	0.17365097
129	0xbea69831	-0.32537988
130	0xbece172f	-0.40252063
131	0xbe883b6b	-0.26607832
132	0xbbbf7db2	-0.0058438415
133	0x3df9d18b	0.1219817
134	0xbd8b3be8	-0.067985356
135	0xbeb3c555	-0.3511149
136	0xbe4ebb9b	-0.20188753
137	0xbde310b1	-0.11087168
138	0xbe927a47	-0.28608915
139	0xbe7e72f0	-0.24848533
140	0x3eca0f16	0.39464635
141	0x3ebb9a68	0.3664124
142	0x3e8b36a6	0.2719013
143	0xbe4dd3a9	-0.20100273
144	0x3e6141e5	0.21997793
145	0x3ebb9b79	0.36642054
146	0xbd0327d2	-0.032020397
147	0x3e67c023	0.22631888
148	0xbe8de4bb	-0.2771357
149	0xbd68ce0b	-0.056837123
150	0xbe339b05	-0.17539604
151	0x3da5d34e	0.08096944
152	0xbe77aa5a	-0.24186078
153	0xbe2c95e1	-0.1685405
154	0xbc22de76	-0.009940734
155	0xbe8b93b9	-0.2726114
156	0x3e7c343e	0.24629304
157	0xbe6b9e2d	-0.23009558
158	0x3e81470b	0.25249514
159	0x3e5e6ee8	0.21721995
160	0x3e49fbd2	0.19724968
161	0x3eaf03e4	0.34182656
162	0xbcbd78c3	-0.023128873
163	0x3dad0290	0.084477544
164	0xbe488a86	-0.19584092
165	0xbe85284c	-0.26007307
166	0x3ce5cb2a	0.028050978
167	0xbda085d1	-0.078380235
168	0xbeb120d1	-0.3459535
169	0xbea68b33	-0.32528076
170	0x3e4085a4	0.1880098
171	0xbda80953	-0.082049035
172	0xbdf33142	-0.118746296
173	0x3e1e13f6	0.15437302
174	0xbdcc4a70	-0.09975135
175	0x3e95e93f	0.29279515
176	0x3deee818	0.11665362
177	0x3ea05cba	0.31320745
178	0xbe12e39a	-0.14344636
179	0x3e8a907f	0.27063367
180	0x3e8dcd19	0.2769554
181	0x3e642485	0.22279556
182	0x3d9904d4	0.07471624
183	0x3e7a7c13	0.24461393
184	0xbd819764	-0.063277036
185	0xbea42814	-0.32061827
186	0x3e81817d	0.25294104
187	0xbe97b8a8	-0.2963307
188	0x3e3334e6	0.17500648
189	0xbe397a19	-0.18112983
190	0x3dedcf53	0.116118096
191	0xbec993e0	-0.39370632
192	0xbe347c35	-0.17625506
193	0xbe7f3c13	-0.2492526
194	0xbeb50508	-0.353554
195	0xbe90a429	-0.28250244
196	0x3e9de94c	0.30842054
197	0x3e582f84	0.21111876
198	0xbe11cc7e	-0.14238164
199	0xbea4edbc	-0.32212627
200	0xbda0deaa	-0.0785497
201	0x3e23c3ac	0.15992612
202	0x3e2e2765	0.17007215
203	0x3d5f8edc	0.0545796
204	0xbdf83b37	-0.12120669
205	0xbbbe4f43	-0.0058077886
206	0x3e932003	0.2873536
207	0xbea039f7	-0.31294224
208	0x3e462d37	0.19353186
209	0x3eb33c8f	0.3500714
210	0xbe71bb75	-0.23606665
211	0xbd4df03e	-0.05027794
212	0xbe3f5643	-0.1868525
213	0xbe13108b	-0.1436178
214	0x3cc8b949	0.024502413
215	0x3e8f4a07	0.27986166
216	0x3dbaf8fe	0.09129523
217	0xbe79c7df	-0.24392651
218	0xbe884725	-0.2661678
219	0x3eae3319	0.3402336
220	0xbe941f58	-0.28930163
221	0xbe5dcab1	-0.21659352
222	0xbe8f220b	-0.2795566
223	0xbe3ab12e	-0.18231651
224	0x3e1351f4	0.14386731
225	0x3dafcc3a	0.08583875
226	0x3ea590d5	0.3233706
227	0x3d8f5b86	0.069998786
228	0x3eafa8ab	0.3430837
229	0x3d2deb2e	0.042460613
230	0x3e547d9c	0.20751041
231	0x3d835e2a	0.06414445
232	0xbe806228	-0.25074887
233	0xbd66fcab	-0.056393307
234	0xbe933a24	-0.28755295
235	0xbea132b7	-0.31484005
236	0xbd9f7236	-0.07785456
237	0xbe5e60cc	-0.21716613
238	0xbea97bf8	-0.33102393
239	0x3db0bfd6	0.0863034
240	0xbe67a540	-0.22621632
241	0x3e8b5ec8	0.2722075
242	0xbe2c8423	-0.16847281
243	0x3e1e8d72	0.15483645
244	0x3e09f39f	0.1347184
245	0xbdddff08	-0.10839659
246	0x3d4733bb	0.04863332
247	0x3e533f74	0.20629674
248	0x3e07d784	0.13265806
249	0xbe31ea89	-0.17374624
250	0x3d5bbc6d	0.053646494
251	0xbeb7c2d4	-0.3589083
252	0xbe97a52f	-0.29618213
253	0xbece2add	-0.40267077
254	0x3d0e4295	0.034731466
255	0x3dcc4873	0.09974756

transmitter.0.bias f4 [32]
0	0x3e9c4778	0.30523276
1	0x3eacdb9b	0.33761296
2	0xbc445af8	-0.011984579
3	0x3bec1115	0.007204185
4	0x3e4edb42	0.20200828
5	0xbe6e79cd	-0.23288651
6	0x3d7d5630	0.061849773
7	0x3eb65385	0.35610595
8	0x3e077874	0.13229543
9	0xbe8bc004	-0.27294934
10	0xbdd790c1	-0.105256565
11	0x3dce6ce7	0.10079365
12	0x3e9c5a7d	0.30537787
13	0xbd499ce6	-0.049221896
14	0xbe5f949e	-0.21834037
15	0xbe9cf299	-0.30653837
16	0x3df0ef4b	0.117643915
17	0x3d55aca1	0.052166585
18	0x3ecb080c	0.39654577
19	0x3e44ee0c	0.19231433
20	0x3ea2ac1b	0.3177193
21	0x3db81d76	0.08989994
22	0xbe8cf677	-0.27531788
23	0xbe2bbe71	-0.16771866
24	0xbd908f48	-0.07058579
25	0xbe37f28f	-0.17963623
26	0x3ea1787c	0.31537235
27	0xbe705b1b	-0.23472254
28	0x3e93c4f7	0.2886121
29	0x3e02dd18	0.12779653
30	0xbea9dae3	-0.3317481
31	0xbdcedfe2	-0.10101296

transmitter.2.weight f4 [32, 32]
0	0x3e307197	0.17230831
1	0x3e4fc487	0.20289813
2	0xbc1a4afb	-0.009417291
3	0xbd286bae	-0.041118316
4	0x3df538cc	0.11973724
5	0xbd87b168	-0.066256344
6	0xbd53f58e	-0.05174785
7	0x3dded926	0.108812615
8	0xbd9643aa	-0.07337125
9	0xbe3694e8	-0.1783024
10	0xbda92927	-0.08259802
11	0xbd64f863	-0.055900943
12	0x3dd0bf34	0.10192719
13	0xbd7bf605	-0.06151392
14	0x3d96a304	0.073553115
15	0xbe105f4f	-0.14098857
16	0xbdbb84b0	-0.091561675
17	0xbdcdedad	-0.10055099
18	0x3e097a41	0.13425542
19	0x3e05265d	0.13002916
20	0xbdc0727a	-0.09396835
21	0xbd9136d9	-0.070905395
22	0xbc6bd101	-0.014393092
23	0x3bda2be7	0.0066580656
24	0xbe1a13de	-0.15046641
25	0x3e2ee8e8	0.17081034
26	0x3e0b5eaa	0.1361033
27	0x3d7c00f4	0.061524346
28	0xbdfb0e86	-0.122586295
29	0xbd8fe721	-0.07026506
30	0x3e3c75f8	0.18404377
31	0xbd36c7a9	-0.044624005
32	0xbd8be650	-0.06831038
33	0x3d7a0853	0.061043095
34	0x3b0e2ff1	0.0021696056
35	0xbe1998ca	-0.1499969
36	0xbb8bd4c1	-0.0042673056
37	0x3da8c4e7	0.08240681
38	0xbbf75234	-0.007547641
39	0xbd328a53	-0.043588948
40	0xbe20654d	-0.15663643
41	0x3e2f4807	0.1711732
42	0x3de66b8f	0.11250984
43	0xbe0a0cd0	-0.1348145
44	0xbdb5da26	-0.08879499
45	0xbd6f136a	-0.058368124
46	0xbd39eb76	-0.04539057
47	0xbe100b35	-0.14066775
48	0xbc95d9de	-0.018292364
49	0xbdc53d06	-0.0963078
50	0xbe024bae	-0.12724182
51	0x3da09186	0.078402564
52	0xbc50b54d	-0.012738538
53	0x3db7be39	0.08971829
54	0xbda1fb29	-0.07909233
55	0xbd5914d9	-0.052998397
56	0xbe1c0ca9	-0.15239204
57	0x3df0516f	0.11734282
58	0xbe3f0135	-0.18652804
59	0x3e0ab967	0.13547288
60	0xbe0bf94b	-0.13669316
61	0xbd24373a	-0.04009173
62	0x3df41029	0.11917145
63	0x3db556fd	0.08854482
64	0xbd7bd837	-0.061485495
65	0xbd8c2e3d	-0.06844757
66	0x3b4c2529	0.003115008
67	0x3db6ebcd	0.08931694
68	0xbd130b71	-0.035899583
69	0xbd22ab0b	-0.0397139
70	0xbde71d9a	-0.11284943
71	0x3b16a912	0.0022988957
72	0xbd913745	-0.0709062
73	0xbdc979f4	-0.09837714
74	0xbe150db6	-0.14556012
75	0xbdff521a	-0.124668315
76	0x3ddf5fa9	0.109069176
77	0x3debf3f5	0.115211405
78	0x3e28e916	0.16495165
79	0xbd0486fc	-0.032355294
80	0xbe410ce3	-0.18852572
81	0xbdd2380f	-0.102645986
82	0x3dd13553	0.10215249
83	0xbde92562	-0.11384083
84	0xbdd51b5c	-0.10405609
85	0x3e001bcf	0.12510608
86	0x3d063a2e	0.03277033
87	0xbe209e95	-0.15685494
88	0x3d5ab349	0.053393636
89	0xbc6415b8	-0.013921194
90	0xbe252c34	-0.16130143
91	0xbd5b8036	-0.05358907
92	0x3dad7bf1	0.084709056
93	0x3d475076	0.048660718
94	0x3d59bd83	0.053159248
95	0x3c586f96	0.013210198
96	0xbda2cb53	-0.07948937
97	0xbbfc1b68	-0.0076936968
98	0x3e079e2b	0.1324393
99	0xbddddb36	-0.10832827
100	0x3e0ef1a3	0.13959365
101	0x3d3b8091	0.045776907
102	0xbdb61fa2	-0.08892752
103	0xbe40afc2	-0.18817046
104	0xbc9f921f	-0.019478856
105	0x3da2efe7	0.07955914
106	0xbd334ee4	-0.043776408
107	0xbe13ca03	-0.1443253
108	0x3e5f04c1	0.21779157
109	0x3e2ca53d	0.16859908
110	0x3e318d79	0.17339124
111	0xbe3a4030	-0.18188548
112	0xbdc91956	-0.098192856
113	0xbd8876f6	-0.06663315
114	0x3e54ba24	0.20774132
115	0x3df0a735	0.11750642
116	0x3dadd319	0.08487529
117	0xbd2347eb	-0.03986351
118	0x3e219167	0.15778123
119	0xbe64e7ba	-0.22354022
120	0xbd293190	-0.041307032
121	0x3de33537	0.11094134
122	0x3de5a24f	0.112125985
123	0xbe1eaa22	-0.15494588
124	0x3e5d7617	0.21627079
125	0x3d2fa407	0.042881038
126	0xbde1d230	-0.11026418
127	0xbe336e21	-0.1752248
128	0x3db8d334	0.09024659
129	0x3d6014d2	0.054707356
130	0xbd9c0e62	-0.07619931
131	0x3db16820	0.086624384
132	0x3e00cca6	0.12578067
133	0xbd0e41cd	-0.03473072
134	0x3dbad410	0.09122479
135	0xbc8a6edb	-0.016898563
136	0x3d30117f	0.042985436
137	0x3c19a9f1	0.009378896
138	0xbcb8c738	-0.022555932
139	0xbc9a4449	-0.018831389
140	0xbdc43055	-0.09579531
141	0xbceb303c	-0.028709523
142	0x3c62c239	0.013840252
143	0xbe3196fa	-0.17342749
144	0xbe09ae14	-0.13445312
145	0xbd2e8225	-0.042604584
146	0x3e47d27b	0.19513886
147	0xbe134b38	-0.14384162
148	0x3dd79d9a	0.10528107
149	0x3e083c35	0.13304217
150	0x3dba889c	0.091080874
151	0xbe4a4d56	-0.19756064
152	0x3df9be3e	0.12194489
153	0xbdb0d5db	-0.0863454
154	0xbe08ba61	-0.13352348
155	0x3db09a9e	0.08623241
156	0x3e1bfb62	0.15232614
157	0xbddc6e47	-0.10763221
158	0x3e24e975	0.16104682
159	0x3d19fc28	0.03759399
160	0xbdafe55a	-0.08588667
161	0xbd292b5f	-0.041301128
162	0xbda697cd	-0.081344225
163	0x3d9745e2	0.07386376
164	0x3d129903	0.035790455
165	0xbdf389e0	-0.11891532
166	0x3e4273fb	0.18989556
167	0xbe3862d0	-0.18006444
168	0x3bf8a2cd	0.0075877667
169	0x3d027aed	0.031855512
170	0xbe332b79	-0.17497052
171	0xbe050a0d	-0.12992115
172	0x3b59ff75	0.0033263837
173	0xbdacd26c	-0.08438572
174	0x3e4a8e6a	0.19780889
175	0xbe5b74c8	-0.21431267
176	0xbe4dcdcf	-0.20098041
177	0x3e537cdb	0.20653097
178	0x3e23577b	0.1595134
179	0x3e3ec636	0.18630299
180	0xbc527a72	-0.012846576
181	0xbddbb713	-0.10728278
182	0x3db52631	0.08845175
183	0xbe36395d	-0.1779532
184	0x3c264e0d	0.010150445
185	0xbc07e31a	-0.008293891
186	0xbdd0ab55	-0.10188929
187	0x3d9b08e9	0.07570059
188	0x3d33ee31	0.04392833
189	0x3d8e375d	0.069441535
190	0xbcb92f4e	-0.022605564
191	0xbe34cd5f	-0.17656468
192	0xbe2b0b16	-0.16703448
193	0xbe46c7d6	-0.19412169
194	0xbd850b13	-0.06496253
195	0xbe198f79	-0.14996137
196	0x3db3e7a9	0.0878442
197	0x3c5fb64f	0.013654306
198	0xbde5e654	-0.11225572
199	0x3e38fa22	0.18064168
200	0x3d6e3770	0.058158338
201	0x3da01eb8	0.07818359
202	0xbc36ee95	-0.011165281
203	0xba97ed48	-0.0011591101
204	0x3cab5a86	0.020917188
205	0x3d86c584	0.06580642
206	0x3e1a4295	0.15064462
207	0x3c98ed67	0.01866789
208	0x3e4e98a4	0.20175415
209	0xbda91aae	-0.08257042
210	0x3d8558e7	0.065110974
211	0xbe28a83d	-0.16470428
212	0xbd4bfabf	-0.049799677
213	0x3e0f2d5a	0.13982144
214	0xbe1aeaa0	-0.15128565
215	0x3e17a322	0.14808324
216	0x3dbffd01	0.093744285
217	0xbdd44556	-0.10364787
218	0xbe078049	-0.1323253
219	0x3e0d7146	0.13812742
220	0xbc313e88	-0.010818131
221	0x3c76baf9	0.015059226
222	0x3de7a30d	0.11310396
223	0x3d8e0152	0.069338456
224	0x3dc769b7	0.097369604
225	0xbe0cee19	-0.13762702
226	0xbdcc60cd	-0.09979401
227	0xbcfce857	-0.030872507
228	0xbd1f4de4	-0.03889264
229	0x3d9f9372	0.07791795
230	0x3cf0c53d	0.029390926
231	0x3d91f545	0.071268596
232	0xbd66c7e6	-0.05634298
233	0x3da8e83d	0.08247421
234	0x3bd65411	0.006540783
235	0x3d8b3532	0.067972556
236	0x3ae125e5	0.0017177431
237	0x3e024f4d	0.12725563
238	0x3d121734	0.03566666
239	0x3d1ddd42	0.038541086
240	0x3ce266f6	0.027636986
241	0xbd8c830d	-0.068609335
242	0xbe4871fa	-0.19574729
243	0x3d2849f8	0.041086167
244	0x3cbc400e	0.022979762
245	0x3d34daeb	0.04415409
246	0xbde1ac45	-0.11019186
247	0x3d067dce	0.03283482
248	0x3e4b83fa	0.19874564
249	0xbd427439	-0.04747412
250	0xbe52337f	-0.20527457
251	0xbd4807f5	-0.048835713
252	0x3db94bbb	0.090476476
253	0x3d5f675c	0.05454193
254	0xbba02f34	-0.0048884396
255	0x3cfcbbfb	0.030851355

transmitter.2.bias f4 [32]
0	0x3dbab5a7	0.09116679
1	0xbe441173	-0.19147281
2	0xbe163c24	-0.1467138
3	0x3e161805	0.146576
4	0x3dc43b34	0.095816046
5	0xbd9dfddd	-0.07714436
6	0xbd83338c	-0.06406316
7	0xbd847cf1	-0.06469143
8	0x3d8ac589	0.06775958
9	0xbdae41e3	-0.08508661
10	0x3b83f0ec	0.004026523
11	0x3df312dc	0.118688315
12	0xbe0ef6c8	-0.13961327
13	0x3da2b14a	0.079439715
14	0xbe305814	-0.17221099
15	0x3e2ae7b9	0.16689958
16	0xbe066253	-0.13123445
17	0xbe4d8f11	-0.20074107
18	0xbdec7ba2	-0.115470186
19	0xbe05314c	-0.13007087
20	0x3e4cd0fd	0.20001598
21	0xbd9c15c9	-0.07621343
22	0x3dd6f40f	0.10495769
23	0xbcfaee40	-0.030631185
24	0xbe18de99	-0.14928664
25	0x3cf18175	0.029480675
26	0x3dcf59de	0.10124563
27	0xbc8f33ec	-0.017480813
28	0xbc7508f7	-0.014955751
29	0x3d18bb5b	0.03728805
30	0x3dcc91e0	0.09988761
31	0x3ceedeca	0.029158968

receiver.0.weight f4 [32, 32]
0	0xbd5409bd	-0.0517671
1	0x3d83a379	0.06427664
2	0xbcb09b57	-0.021558447
3	0x3c6e17d9	0.014532053
4	0xbd9c8bc5	-0.076438464
5	0xbd91ca59	-0.07118673
6	0xbd335f64	-0.043792143
7	0x3dd84343	0.10559704
8	0x3da1c4a8	0.07898837
9	0xbdf7058e	-0.12061606
10	0xbd482f05	-0.048872966
11	0x3d21bf90	0.03948933
12	0x3da4e5ae	0.080516204
13	0xbc4a0da4	-0.012332354
14	0xbd30c96d	-0.043160845
15	0xbc8ba29d	-0.017045313
16	0x3d8f80cd	0.07006989
17	0xbd94e94a	-0.07271059
18	0x3d9c8f71	0.07644547
19	0x3dc2fcd4	0.095208794
20	0xbde58e6a	-0.11208804
21	0x3dce91c5	0.10086397
22	0x3d0d16fb	0.034445744
23	0xbd5afc81	-0.053463463
24	0xbc485f2a	-0.01222972
25	0x3d141094	0.036148623
26	0x3d8f2b19	0.06990642
27	0xbd68593c	-0.056725726
28	0x3cf810b1	0.030281397
29	0x3dc8f4f6	0.098123476
30	0xbdb0d78d	-0.08634863
31	0x3d3480d1	0.04406816
32	0xbd121bef	-0.03567117
33	0xbc53a2cc	-0.012917232
34	0xbb6e99c1	-0.0036407562
35	0xbdacf474	-0.08445063
36	0xbd7386e8	-0.05945483
37	0x3e12abfc	0.1432342
38	0xbd72d215	-0.05928238
39	0xbcf0bd27	-0.02938707
40	0x3c174a69	0.009234049
41	0x3d3cfb42	0.046138056
42	0x3da02fab	0.07821592
43	0x3e110444	0.14161783
44	0x3dec4153	0.11535897
45	0xbcb62dbd	-0.022238607
46	0xbdc0f29f	-0.09421276
47	0xbddffe92	-0.10937227
48	0xbd451ea7	-0.048124935
49	0x3d1c86d6	0.038214527
50	0xbd89fa5e	-0.06737207
51	0x3b12585d	0.00223305
52	0xbd76e3c6	-0.060275815
53	0x3d6e0411	0.058109347
54	0xbdc19a62	-0.09453274
55	0x3da9f7c0	0.08299208
56	0x3df77cdb	0.12084361
57	0x3e1d2f07	0.15349971
58	0x3d3669c6	0.044534467
59	0xbc93998b	-0.01801755
60	0x3d7d0bec	0.061778948
61	0x3decb412	0.11557783
62	0xbc0ac62d	-0.0084701
63	0xbd9ec2ca	-0.07751997
64	0x3ca13eec	0.019683324
65	0xbd68eef0	-0.056868494
66	0x3d61df4d	0.055144597
67	0xbd489925	-0.048974175
68	0x3c88e2de	0.016709741
69	0xbda323c5	-0.07965807
70	0xbb974986	-0.004616919
71	0xbcf9c352	-0.030488644
72	0x3c15694c	0.009119343
73	0x3da32a06	0.07967
74	0x3bf3b949	0.007437859
75	0x3d52db35	0.051478583
76	0xbdd34fa4	-0.103179246
77	0x3d78967f	0.0606904
78	0x3a1f71d4	0.00060823304
79	0x3a5593d0	0.0008147331
80	0xbd470d13	-0.048596453
81	0x3d8ad75a	0.06779356
82	0x3c3b7fcb	0.011444042
83	0x3dffcb1e	0.124899134
84	0xbcf6bca5	-0.03011925
85	0x3badb0cc	0.005300617
86	0x3dbed4b6	0.09317915
87	0xbd8b01e7	-0.06787472
88	0xbdc53bd4	-0.09630552
89	0x3cf3fd2f	0.029783813
90	0x3cebe184	0.028794058
91	0xbd82c46a	-0.06385119
92	0x3cb629ab	0.022236666
93	0x3ce6f72c	0.028194033
94	0x3d894341	0.06702281
95	0x3cc63567	0.024195386
96	0x3c8ed274	0.017434336
97	0xbb77f8dd	-0.0037837543
98	0x3d826473	0.063668154
99	0xbd5233f1	-0.051319066
100	0x3d0462b8	0.032320708
101	0x3da64e62	0.08120419
102	0xbbea429a	-0.007149053
103	0xbd1c119a	-0.038102724
104	0xbb69424f	-0.0035592502
105	0xbd331777	-0.04372355
106	0xbb215b7a	-0.0024621175
107	0x3d99366f	0.074810855
108	0xbd0bad29	-0.034100685
109	0xbb2cb292	-0.0026351553
110	0x3d2ff631	0.042959396
111	0xbd0eb4d4	-0.03484042
112	0x3c544ef2	0.012958275
113	0xbd36b926	-0.044610165
114	0x3d73ae42	0.059492357
115	0x3d71b504	0.05901052
116	0x3d612f95	0.05497702
117	0xbd7c4eaf	-0.061598476
118	0x3d3c8d3f	0.04603314
119	0x3d6d2771	0.057898942
120	0xbc6cf159	-0.014461839
121	0x3d04bc77	0.032406297
122	0x3d1864f1	0.03720564
123	0xbd7fecf5	-0.06248184
124	0xbcccfec6	-0.02502383
125	0x3b817289	0.003950421
126	0xbc8ef124	-0.01744897
127	0x3cd789c1	0.026310803
128	0x3dc8086a	0.0976723
129	0xbdd64ffb	-0.10464474
130	0x3cd07481	0.025446178
131	0x3d2bb41d	0.041919816
132	0x3d96c0fe	0.07361029
133	0x3d464d5c	0.04841362
134	0xbd5f4844	-0.054512277
135	0x3da3bf1f	0.07995438
136	0x3cddaa13	0.027058637
137	0x3d105114	0.035233572
138	0x3dc73c1b	0.09728261
139	0x3dc3b924	0.09556797
140	0x3cdd61a3	0.027024096
141	0xbdee5e1c	-0.11639044
142	0x3c731575	0.014836659
143	0xbd423c1b	-0.047420602
144	0xbb8561ee	-0.004070512
145	0x3c933fcd	0.017974759
146	0x3dfb63c9	0.12274892
147	0x3e06626e	0.13123485
148	0x3db2fe93	0.087399624
149	0x3dc2a057	0.09503239
150	0xbd4c9842	-0.049949892
151	0x3d9d3a98	0.076771915
152	0x3d4e222a	0.05032555
153	0xbd81468a	-0.063122824
154	0x3c518af8	0.01278948
155	0xbd184913	-0.037179064
156	0x3badd79a	0.0053052427
157	0x3dc7a090	0.09747422
158	0xbb41fd9d	-0.0029600628
159	0x3d0937e6	0.033500575
160	0x3cfc6e4b	0.03081431
161	0xbc647da9	-0.013945975
162	0x3cb8ddc5	0.022566685
163	0xbd3d72e1	-0.046252135
164	0x3d8515e5	0.06498317
165	0x3cca32c0	0.024682403
166	0x3dc34e07	0.09536367
167	0xbdcefb4a	-0.10106523
168	0x3d070bbd	0.03297018
169	0x3d877f6e	0.06616102
170	0xbd88d4a6	-0.066811845
171	0x3dbed915	0.09318749
172	0xbcdf5bc1	-0.027265431
173	0xbc929484	-0.017893083
174	0x3d1a1125	0.037614007
175	0xbc238e10	-0.009982601
176	0xbd43db8a	-0.04781679
177	0x3d0f7b02	0.03502942
178	0x3cfc81da	0.030823637
179	0x3daa5f97	0.083190136
180	0xbc8e7ae1	-0.017392578
181	0xbdf84a4c	-0.12123546
182	0x3db6a6fb	0.08918568
183	0xbda19757	-0.07890194
184	0x3c3c77d4	0.011503179
185	0x3da611fc	0.08108899
186	0xbc0e2470	-0.00867568
187	0x3dae1e87	0.085019164
188	0x3dbd8d29	0.0925544
189	0xbd8b99c4	-0.06816438
190	0x3d3b3d8a	0.045712985
191	0x3daf1295	0.08548466
192	0xbd9ce522	-0.07660891
193	0xbdf497e9	-0.11943037
194	0xbc25e51a	-0.010125423
195	0xbde20a8c	-0.11037168
196	0x3d56d9bd	0.052453745
197	0x3d6004b2	0.054691978
198	0x3c06f285	0.008236532
199	0x3d776a12	0.06040389
200	0x3d02ddfe	0.03194999
201	0x3d993faa	0.07482846
202	0xbcbd74d0	-0.02312699
203	0x3d223ece	0.039610676
204	0xbd882d55	-0.066492714
205	0xbdcf30d5	-0.10116736
206	0xbd277de4	-0.040891543
207	0xbd843a16	-0.064563915
208	0xbda39a16	-0.07988374
209	0x3e0805cb	0.1328346
210	0x3d4d63c5	0.050143976
211	0x3d06c8bd	0.032906283
212	0x3d8ea5eb	0.0696524
213	0xbd90a420	-0.07062554
214	0xbdb60c72	-0.088890925
215	0x3bd8fa9d	0.0066216723
216	0x3d56ae72	0.052412458
217	0x3cc5fee7	0.024169398
218	0xbe0a52c4	-0.13508135
219	0x3e1bc97e	0.15213582
220	0x3d0e718d	0.03477626
221	0x3d412e75	0.047163446
222	0x3c841ef2	0.016128037
223	0x3d546549	0.051854406
224	0x3db5b32e	0.088720664
225	0xbd9b6f5b	-0.07589599
226	0x3dca46b8	0.0987677
227	0x3de5cc97	0.11220663
228	0x3cc36f1e	0.023856696
229	0x3d23e22e	0.040010624
230	0x3d060edb	0.03272901
231	0x3e11637d	0.14198108
232	0xba3c38aa	-0.00071800745
233	0x3db089c6	0.08620028
234	0x3d4d6f22	0.050154813
235	0x3dc2a0e1	0.095033415
236	0xbd7791d3	-0.060441803
237	0x3d29b0be	0.04142832
238	0x3de64d61	0.112452276
239	0xbc8d9b71	-0.017286034
240	0xbdb80281	-0.089848526
241	0x3ca45440	0.020059705
242	0x3db6cd64	0.08925894
243	0x3e41a1b5	0.18909343
244	0x3d78943e	0.06068825
245	0x3d06c04f	0.032898244
246	0x3c1a9069	0.009433844
247	0xbd7c97ba	-0.061668135
248	0xbd071e24	-0.03298773
249	0xbb939e91	-0.0045049866
250	0x3d8f6cc3	0.070031665
251	0xbd9f9d10	-0.07793629
252	0x3cba14c1	0.022714974
253	0x3d8086a8	0.06275684
254	0x3e17fd53	0.1484273
255	0xbbc00d31	-0.0058609475

receiver.0.bias f4 [32]
0	0xbda3e67f	-0.08002948
1	0xbe58aeb1	-0.2116039
2	0xbe2810a1	-0.16412593
3	0x3d5d82e4	0.054079905
4	0xbcb9fa4d	-0.02270236
5	0xbca47ffe	-0.020080563
6	0xbe05b326	-0.13056621
7	0xbd990d6c	-0.07473263
8	0x3e244c28	0.16044676
9	0x3dfee889	0.12446696
10	0x3e6f25f0	0.23354316
11	0xbd492bd8	-0.04911408
12	0xbc6f2640	-0.014596522
13	0xbe3fd2b3	-0.18732719
14	0x3d068020	0.032837033
15	0xbe710816	-0.23538241
16	0x3ddb3d28	0.10705024
17	0x3ea1fa6b	0.31636366
18	0x3e0f5aac	0.13999432
19	0x3e8fb0c6	0.28064555
20	0x3b88df61	0.0041770195
21	0xbda71c14	-0.08159652
22	0x3d8ac1b5	0.06775228
23	0x3e73e0e0	0.23816252
24	0x3de80967	0.11329918
25	0x3e58e5f4	0.2118147
26	0x3c63b838	0.013898902
27	0xbeb1c5cb	-0.34721217
28	0x3c1d9547	0.00961811
29	0xbd8472a5	-0.06467179
30	0xbe5b9592	-0.21443775
31	0xbb2fac04	-0.002680541

receiver.2.weight f4 [8, 32]
0	0xba1f181b	-0.00060689606
1	0x3c1996bd	0.009374318
2	0xbbfb3e52	-0.0076673413
3	0xb896b60f	-7.1864684e-05
4	0xb9328a0a	-0.00017026826
5	0xbc90d859	-0.017681288
6	0x3ab4cfc2	0.0013794827
7	0x3b2fb6f6	0.0026811934
8	0xbc366885	-0.011133318
9	0x3b6b7a92	0.0035931212
10	0x3b8c8c96	0.00428922
11	0x3b4ac1d3	0.0030938282
12	0x3d5e7851	0.05431396
13	0x3b175251	0.0023089836
14	0x3d813b38	0.06310123
15	0x3ba2cfe1	0.0049686288
16	0xbcd45873	-0.025921082
17	0x3c035a29	0.008017101
18	0xbc1279b8	-0.008940153
19	0x38022cb9	3.1036067e-05
20	0xbba88e50	-0.005143918
21	0x3c25b47d	0.010113833
22	0x3c19298d	0.009348285
23	0x3bcd7dbd	0.0062710927
24	0x3c0230a0	0.007946163
25	0xbbbc11e4	-0.0057394374
26	0x3cfa0e76	0.030524474
27	0xbd96f04c	-0.07370052
28	0xbbd184e6	-0.0063940166
29	0xbbff14ec	-0.0077844765
30	0xbd1a81b2	-0.037721343
31	0xba3c607b	-0.00071860076
32	0x3c64b117	0.013958237
33	0xbb2e01be	-0.0026551331
34	0xbb1c1537	-0.0023816356
35	0xbcd1dcb5	-0.025617937
36	0xbc9a9d29	-0.018873768
37	0xbd3b777c	-0.045768246
38	0xbb232634	-0.0024894597
39	0xbbb9eb81	-0.005673826
40	0x3d25178a	0.04030565
41	0x3cc3d953	0.02390734
42	0x3b9f037f	0.0048527117
43	0x3c458cbc	0.0120574795
44	0xbc1e4c23	-0.009661707
45	0xbd20aa65	-0.039225
46	0x3d51f946	0.051263116
47	0xbc7def38	-0.015498929
48	0xbcd55088	-0.026039377
49	0x3cb8069c	0.02246409
50	0x3bf8b7fa	0.007590291
51	0x3cc4f32f	0.02404174
52	0x3cb4fe25	0.022093842
53	0xbd5eca60	-0.05439222
54	0xbcccff11	-0.025023969
55	0x3bd3f4ab	0.0064683757
56	0x3a429482	0.0007422642
57	0x3ce39ade	0.027783807
58	0x3bc989b3	0.006150448
59	0xbd897764	-0.06712225
60	0x3ccc7c2f	0.02496156
61	0x3c83f3f6	0.01610754
62	0x3c064a8b	0.008196483
63	0x3d1813ce	0.037128262
64	0xbc9685aa	-0.018374283
65	0xbc0a14c7	-0.008427805
66	0xbaec3014	-0.00180197
67	0xbc1197cd	-0.00888629
68	0xbb255c98	-0.0025232192
69	0x3bae3193	0.0053159683
70	0xb9f64614	-0.0004697299
71	0xba8a9975	-0.0010574298
72	0xbb7343ca	-0.0037119263
73	0x3b15d07d	0.0022859864
74	0x3a6021c2	0.0008549952
75	0x3b60f3fe	0.0034325118
76	0x3cad1e70	0.021132678
77	0x3d020266	0.03174057
78	0xbd8465b5	-0.064647116
79	0xbba97eca	-0.005172585
80	0xbc15ab30	-0.009135053
81	0x3b04209e	0.0020161043
82	0x3c506a6e	0.012720687
83	0x3a3b9cc3	0.0007156843
84	0xbcedcbe5	-0.029027889
85	0x3c991078	0.01868461
86	0x3cab6aa9	0.020924883
87	0x3c2a095c	0.010378208
88	0x3b805a2f	0.0039170007
89	0xbb9d7e5d	-0.0048063234
90	0x3b0f774b	0.0021891173
91	0x3db1373b	0.086531125
92	0xbc8ca114	-0.017166652
93	0xbc756cbd	-0.0149795385
94	0xbc6e65c3	-0.014550629
95	0x3c18e4cb	0.009331892
96	0xb98cf018	-0.00026881765
97	0xbd246f83	-0.04014541
98	0xbbe25ef7	-0.0069082933
99	0xbb6c1b04	-0.0036026845
100	0xbc8566a5	-0.016284296
101	0x3ca60f0c	0.020270847
102	0xbbc9bad4	-0.006156305
103	0xbb021408	-0.0019848365
104	0xbc375a00	-0.011190891
105	0x3cd32e27	0.025778843
106	0xba1a5372	-0.0005887068
107	0x3cd5c010	0.02609256
108	0x3d363057	0.044479694
109	0xbb176e7c	-0.0023106625
110	0x3d203b4f	0.03911906
111	0xbce1d45c	-0.027567081
112	0x3bfe65f9	0.007763621
113	0x3b264a8f	0.002537403
114	0x3d7e09a4	0.062020913
115	0x3ba9501d	0.005167021
116	0xbb923493	-0.0044618337
117	0x3b8c59da	0.004283172
118	0x3cc16215	0.02360634
119	0x3bc0ce6f	0.005883984
120	0x3a98be20	0.0011653341
121	0x3b1a9975	0.0023590003
122	0xbb64dbf0	-0.0034921132
123	0xbd2d8028	-0.042358547
124	0xbc0c9c79	-0.008582228
125	0xbcd59dff	-0.026076315
126	0xbd005b7c	-0.031337246
127	0x3c892634	0.01674185
128	0x3b5df00c	0.0033865003
129	0xbcd68ce8	-0.026190236
130	0x3a94668a	0.0011322063
131	0xbb479aff	-0.0030457375
132	0xbb0b3771	-0.0021242762
133	0x3a8c65be	0.0010711474
134	0xb9a6ba3e	-0.0003180075
135	0xb9f7a7bb	-0.0004723648
136	0x3abdb971	0.0014474822
137	0x3bbfd727	0.0058545056
138	0x3b13eb57	0.0022570693
139	0x3b855536	0.004068996
140	0x3cb25c60	0.021772563
141	0xbbcbe064	-0.006221818
142	0xbd37e7ad	-0.044898678
143	0xbc200562	-0.009766908
144	0xbb8fd376	-0.004389222
145	0x3baf2c89	0.005345885
146	0x3d19540d	0.037433673
147	0x3b5f70f1	0.0034094418
148	0x3ac654c0	0.0015131459
149	0xbb4ee508	-0.0031569619
150	0xb93687b9	-0.00017407433
151	0x3b472a04	0.0030390033
152	0x3b871861	0.0041227792
153	0x3aa08808	0.0012247572
154	0xbae4d70c	-0.0017459108
155	0x3d692775	0.056922395
156	0x3b03b1e5	0.0020095047
157	0xba76f181	-0.0009420142
158	0xbc7a0060	-0.0152588785
159	0x3be91b55	0.007113854
160	0xbd18a6ff	-0.037268635
161	0x3cff48b6	0.031162601
162	0xb9807825	-0.00024503577
163	0x3be8490c	0.007088786
164	0x3abcdd2d	0.0014409177
165	0x3d26c07c	0.04071091
166	0x3a52aa84	0.0008036273
167	0xbb52669d	-0.003210462
168	0xbcc1bfa9	-0.023650961
169	0x3a1909ef	0.0005837967
170	0x3a840347	0.0010071778
171	0x3c21c900	0.009874582
172	0x3d043bbf	0.03228354
173	0x3d7a525e	0.061113708
174	0x3dadcc3b	0.084862195
175	0xbbdf15c2	-0.0068080137
176	0x3ccf1ca9	0.02528222
177	0xbc2993e9	-0.010350206
178	0xbd33d971	-0.04390854
179	0x3bbde2f3	0.0057948767
180	0xbd620196	-0.055177294
181	0x3cc7f6b7	0.024409635
182	0x3d10846b	0.035282534
183	0x3cb06f07	0.021537317
184	0xbbb8ba1d	-0.005637421
185	0x39b9576c	0.00035351084
186	0xbc86f253	-0.016472971
187	0xbdd16a32	-0.10225333
188	0xbcb947a8	-0.022617176
189	0xbcf6a39e	-0.030107316
190	0xbc9f8726	-0.019473623
191	0xb9696052	-0.00022256494
192	0x3bdf256b	0.0068098805
193	0xbd0fddc8	-0.035123616
194	0x3c25a326	0.010109698
195	0x3ae975c9	0.0017811592
196	0x3b2f7cda	0.0026777298
197	0x3c638ba7	0.013888276
198	0xba300f95	-0.0006716189
199	0xbb803840	-0.0039129555
200	0x3c2c7553	0.010526019
201	0xbbbe8cea	-0.005815138
202	0x3acccb80	0.0015624613
203	0xbad27456	-0.0016056399
204	0xbc99aec9	-0.018760102
205	0xbc8a5da5	-0.016890356
206	0xbc89ef0f	-0.016837625
207	0xbc33dd22	-0.010978015
208	0x3cc0a975	0.023518303
209	0xbb573f0f	-0.0032843982
210	0x3d4dac1e	0.050212972
211	0x3a2b0e41	0.00065252563
212	0x3c5eba41	0.013594211
213	0xbc30745e	-0.010769932
214	0xbc97bb24	-0.018521853
215	0xbb6af3b9	-0.0035850836
216	0xbbaa1aeb	-0.005191197
217	0x3b9dd46e	0.0048165834
218	0xbcdb59fb	-0.026776304
219	0x3c80ad84	0.015707739
220	0x3c749aef	0.014929517
221	0x3c84fe8a	0.016234655
222	0x3c6af527	0.014340675
223	0x3b49050b	0.0030673172
224	0x3c91dfb2	0.017806862
225	0x3d4dad9d	0.0502144
226	0x3ce41540	0.027842164
227	0x3d2222e2	0.039584048
228	0x3c929a46	0.017895829
229	0x3cd54163	0.026032155
230	0x3bc67bc8	0.0060572363
231	0x3bbb0b18	0.0057081096
232	0x3a8de401	0.0010825397
233	0xbc911a1d	-0.017712647
234	0x3bd977d8	0.006636601
235	0xbcde2021	-0.02711493
236	0xbb9dda64	-0.004817294
237	0xbcd97253	-0.026543772
238	0x3d5b106b	0.053482454
239	0x3d051870	0.03249401
240	0x3c182308	0.009285696
241	0xbb03a812	-0.0020089191
242	0xbd98742d	-0.07444034
243	0xbb41f7a9	-0.002959708
244	0x3cc3a898	0.023884103
245	0x3c1b630f	0.009484067
246	0xbcd87e8b	-0.026427528
247	0xbb999003	-0.004686357
248	0xba57d997	-0.00082340225
249	0xbc72c78d	-0.014818084
250	0xbd0f9d3e	-0.035062067
251	0xbd9ce59d	-0.07660983
252	0x3ca9b535	0.020716289
253	0x3cd3156d	0.025767053
254	0x3bfad185	0.007654371
255	0xbd367f5c	-0.044555053

receiver.2.bias f4 [8]
0	0x3eb3f9b0	0.35151434
1	0x3e36a4ef	0.17836355
2	0x3efb52d9	0.49086645
3	0x3ea7d665	0.32780758
4	0x3ed862ae	0.42262787
5	0x3ed90d43	0.4239293
6	0x3ef91020	0.48645115
7	0x3ea9f4af	0.3319449
