checkpoint.pt (torch, 545891 bytes, 22 tensors)

ob_encoder.0.weight f4 [64, 1000]
0	0xbca0e7b6	-0.019641738
1	0xbbc51836	-0.006014849
2	0xbc8acf92	-0.01694468
3	0xbd0c10b7	-0.034195628
4	0xbd147bbe	-0.036250822
5	0xbb44ab9c	-0.0030009514
6	0x3c0656a7	0.0081993705
7	0xbb45a678	-0.0030159038
8	0x3d19f892	0.03759057
9	0xbc76c0ca	-0.015060613
10	0x3c084ab9	0.0083185965
11	0x3cc42bbf	0.023946641
12	0x3c1081a3	0.00881997
13	0xbce8f3a4	-0.02843649
14	0xbd64df11	-0.055876795
15	0x3d0eec5a	0.03489337
16	0xb940bf87	-0.00018381896
17	0x3c5aa480	0.013344884
18	0x3d3d3f48	0.046202928
19	0x3d07c5ea	0.03314773
20	0xbbd3770f	-0.006453402
21	0xbccf6432	-0.025316332
22	0x3d1ac303	0.037783634
23	0xbd427b76	-0.047481023
24	0x3c37cfc0	0.011218965
25	0xbd182bf6	-0.0371513
26	0x3cb37738	0.021907434
27	0x3cec9a82	0.028882269
28	0x3c614a9b	0.0137506975
29	0x3c0bfb5a	0.008543814
30	0x3cd43b32	0.025907133
31	0x3d3b70ed	0.04576199
32	0xba9084f7	-0.0011025955
33	0x3bf6b6ba	0.007529107
34	0xbd00f5ce	-0.031484418
35	0xbcc52dc8	-0.024069682
36	0xbc3068fe	-0.01076722
37	0xbccaacb8	-0.024740562
38	0xbd9dc8a6	-0.07704286
39	0x3d07365e	0.033010833
40	0x3bd783b0	0.0065769777
41	0xbbfe9448	-0.0077691413
42	0x3ae76efc	0.0017656977
43	0x3cdda768	0.027057365
44	0xbb122b41	-0.0022303613
45	0x3cc322be	0.023820277
46	0x3b281c52	0.0025651646
47	0x3d5b1b76	0.053492986
48	0x3c0b969f	0.008519798
49	0x3b0a1565	0.002106988
50	0xbafe5b3b	-0.0019405851
51	0xbd13628c	-0.035982653
52	0xbd618e60	-0.05506742
53	0xbd21d03f	-0.03950524
54	0x3d502382	0.050815113
55	0xbb3a08bf	-0.002838656
56	0x3d42f8c9	0.04760054
57	0x3d0ccf61	0.03437746
58	0x3d0dc893	0.03461511
59	0xbd00006d	-0.031250406
60	0xbce0061f	-0.027346669
61	0x3d0c251f	0.03421509
62	0x3d1f02e3	0.038821112
63	0xbc1dbb09	-0.009627112
64	0xbd48dd4a	-0.049039163
65	0x3d079442	0.033100374
66	0xbc8b23e5	-0.01698489
67	0xbdb1e6f7	-0.08686631
68	0xbc95e7ff	-0.0182991
69	0xbd22da52	-0.039758988
70	0x3c0b11e4	0.008488152
71	0xbc89e336	-0.016831975
72	0xbc526e97	-0.0128437495
73	0xbd480b05	-0.048838634
74	0x3bd62804	0.006535532
75	0xbdbc5781	-0.091963775
76	0x3ba7ae1b	0.0051171905
77	0xba52fbab	-0.00080483657
78	0x3da47eaa	0.08031972
79	0x3cddc979	0.027073609
80	0xbc2d12c7	-0.010563559
81	0xbc601044	-0.013675753
82	0x3c5e1b2e	0.013556285
83	0x3c7f754b	0.01559193
84	0xbc1b81ac	-0.009491365
85	0xbc14e830	-0.009088561
86	0x3c90c363	0.017671293
87	0xbc845f0b	-0.016158601
88	0xbc7b409b	-0.015335227
89	0xbaa133de	-0.0012298783
90	0x3c3ee84a	0.011652062
91	0xbce667f2	-0.028125737
92	0x3d43a851	0.04776794
93	0xbc6d4580	-0.014481902
94	0xbc951fa7	-0.01820357
95	0xbad99abc	-0.00166019
96	0xbc8fe977	-0.01756738
97	0x3c199473	0.009373772
98	0x3d09622b	0.033540886
99	0xbc8739a1	-0.016506972
100	0x3bab57c4	0.0052289683
101	0xbc681edf	-0.0141675165
102	0x3c8cefdd	0.01720422
103	0x3cb01686	0.021495115
104	0x3d1dbd4c	0.038510606
105	0xbb46aac5	-0.003031419
106	0x3ce40d95	0.027838508
107	0x3cbead8b	0.023276111
108	0xbb6af5c3	-0.0035852052
109	0xbc8ee0f0	-0.017441243
110	0xbbc910aa	-0.0061360197
111	0x3a53958a	0.0008071294
112	0xbc3babaa	-0.011454502
113	0xbb900731	-0.0043953885
114	0xbcff83d2	-0.031190787
115	0xbd5ca08e	-0.053864054
116	0xbd4cba34	-0.049982265
117	0xbb838141	-0.004013211
118	0xbc524d1a	-0.012835765
119	0xbca3d19b	-0.019997409
120	0x3cccb221	0.024987282
121	0xbd31b41d	-0.04338466
122	0x3cc57dd0	0.024107844
123	0x3d052232	0.032503314
124	0x3caf59e8	0.021405175
125	0x3c9f5be2	0.019452993
126	0xbd2a34b2	-0.04155416
127	0x3b1a9908	0.002358975
128	0x3d46c570	0.048528135
129	0xbd182519	-0.037144754
130	0x3cf63806	0.030056011
131	0x3c905fa4	0.01762373
132	0x3d39cb59	0.045359943
133	0x3ccaf4b3	0.024774885
134	0xbcd755c6	-0.026286017
135	0x3d2225bf	0.03958678
136	0xbd7ff061	-0.062485103
137	0x3d8c41d6	0.06848495
138	0xbc032a26	-0.008005654
139	0xbc393be4	-0.011305783
140	0x3cbb55bb	0.022868028
141	0x3c01d384	0.007923964
142	0x3c20b44b	0.00980861
143	0xbd585be0	-0.052821994
144	0x3d3d4703	0.0462103
145	0xbd0b7463	-0.034046542
146	0xbb96ad0f	-0.004598267
147	0x3d3ea0eb	0.046540182
148	0x3ccd843e	0.025087472
149	0x3d3ec592	0.046575136
150	0x3c6a4a17	0.014299891
151	0x3d6fe823	0.058570992
152	0xbac5d106	-0.0015092201
153	0x3d12d84c	0.035850808
154	0xbd443b84	-0.04790832
155	0x3707867d	8.07794e-06
156	0xbd83f514	-0.06443229
157	0x3bc9ac8b	0.006154602
158	0x3ab6a2bf	0.0013934
159	0xbd2d4e97	-0.042311277
160	0x3d447b53	0.047969174
161	0xbb2e8fad	-0.002663593
162	0xbb549bde	-0.0032441537
163	0xbd848f2c	-0.0647262
164	0x3d48d49d	0.04903089
165	0x3d76b74b	0.060233396
166	0xbd158a22	-0.036508687
167	0x3d31e936	0.043435298
168	0xbd55f115	-0.052231867
169	0x3c24f7e0	0.010068864
170	0xbce3066c	-0.027713023
171	0xbcc9c53e	-0.024630185
172	0xbd916ee1	-0.071012266
173	0xbd3a7e3e	-0.04553055
174	0x3c15fb66	0.009154176
175	0xbd2e85bb	-0.042608004
176	0x3d150ec5	0.03639104
177	0xbc89b918	-0.016811892
178	0x3b97ef20	0.00463666
179	0x3d1f8588	0.038945705
180	0x3d8a8c6c	0.067650646
181	0x3d460d3a	0.048352458
182	0xbc4d9434	-0.012547541
183	0x3cfec371	0.031099053
184	0xbd14c38b	-0.036319297
185	0x3d31219f	0.043244954
186	0xbd3cb2ce	-0.04606896
187	0xbba6207b	-0.00506979
188	0xbcf07f83	-0.029357677
189	0xbd07d7de	-0.03316485
190	0x3c7b23b5	0.015328337
191	0xbd3bb12a	-0.045823254
192	0x3d1538b0	0.036431015
193	0xbd17c22d	-0.037050415
194	0x3d104180	0.035218716
195	0x3cbffdad	0.023436392
196	0x3c500c47	0.01269824
197	0x3d713264	0.058885947
198	0x3d344a7e	0.044016354
199	0x3d5ec785	0.054389495
200	0xbcff3bc6	-0.031156432
201	0xbb9ad0b8	-0.0047245882
202	0xbd35d168	-0.04438916
203	0xbcd2d6a5	-0.025737116
204	0xbcef1f88	-0.02918984
205	0xbce3359d	-0.027735526
206	0x3c4aeb6d	0.012385231
207	0xbd7af267	-0.06126633
208	0xbc9be510	-0.019030124
209	0xbce09933	-0.027416801
210	0x3d0c6598	0.034276575
211	0x3d1f241d	0.0388528
212	0x3d6d736c	0.057971403
213	0x3d81518a	0.063143805
214	0x3c10d9b6	0.008840969
215	0x3c68fe0c	0.014220726
216	0xbd63c4c5	-0.055607576
217	0x3d3b900d	0.045791674
218	0xbceae00a	-0.028671283
219	0xbc829491	-0.015939983
220	0xbd580ce6	-0.052746676
221	0x3c246483	0.0100337295
222	0xbce51762	-0.027965251
223	0xbd78ae93	-0.060713362
224	0xbb6e1621	-0.0036329108
225	0xbda27be1	-0.07933784
226	0x3d03797b	0.032098275
227	0xbc74c325	-0.014939104
228	0x3c5fed60	0.013667434
229	0x3d5493df	0.051898833
230	0x3c931f71	0.017959328
231	0x3c849374	0.016183592
232	0xbd3bfd31	-0.04589576
233	0x3d4cbc0c	0.049984023
234	0x3c64b108	0.013958223
235	0x3d18c29f	0.03729498
236	0xbab061bc	-0.0013456861
237	0xbd21b08b	-0.039475005
238	0xbbda2642	-0.0066573927
239	0xbcfea16b	-0.03108283
240	0x3c11482d	0.008867306
241	0xbcacc8d8	-0.021091864
242	0x3d920ff7	0.07131951
243	0x3d2f72c7	0.04283407
244	0x3c940cd5	0.018072525
245	0x3b8b6e3c	0.0042550843
246	0xbcb809c5	-0.022465596
247	0x3c70bee2	0.0146939475
248	0xbd346441	-0.044040922
249	0x3c6e4703	0.014543298
250	0xbd09830b	-0.033572238
251	0x3ca0e8fe	0.01964235
252	0xbd7ba78b	-0.06143908
253	0xbd483e64	-0.048887625
254	0x3cb1914e	0.021675732
255	0xbc6bf631	-0.014401958

ob_encoder.0.bias f4 [64]
0	0x3ced761c	0.028986983
1	0x3c03ad1c	0.008036878
2	0xbb35e136	-0.0027752644
3	0x3d76de9d	0.060270894
4	0x3d77ddab	0.060514133
5	0x3d8289c6	0.063739344
6	0x3d17a8f3	0.037026357
7	0x3d81c985	0.06337265
8	0xbd24a9c9	-0.040200982
9	0x3d55b140	0.052170992
10	0x3d407cf8	0.04699418
11	0xbd511461	-0.051044825
12	0xbd7da2eb	-0.06192295
13	0xbcc6ac16	-0.024251979
14	0x3d9eeeee	0.07760416
15	0xbce8c18e	-0.028412607
16	0x3d80cf0e	0.062894925
17	0xbd058ae3	-0.032603156
18	0xbd9f542a	-0.07779725
19	0x3d786c85	0.060650367
20	0x3d1559e2	0.036462672
21	0xbc21c21a	-0.009872938
22	0xbd073019	-0.033004854
23	0x3d7b0156	0.06128057
24	0xbd0b7ad1	-0.034052674
25	0x3d70f817	0.058830347
26	0xbdc590fb	-0.096467935
27	0xbdb7fbf3	-0.089836024
28	0x3da1eaf5	0.079061426
29	0x3d35b38a	0.044360675
30	0xbe0d877c	-0.13821214
31	0xbb641faa	-0.0034808912
32	0x3d89ed0e	0.06734668
33	0xbdbe4c78	-0.09291929
34	0xbc38bb34	-0.011275101
35	0x3d78f816	0.06078347
36	0xbde519a4	-0.11186531
37	0x3d170c5b	0.036877017
38	0xbd37d2cc	-0.044878766
39	0x3d7ff9c6	0.062494062
40	0x3d2f90c0	0.042862654
41	0xbd5fa5b5	-0.05460139
42	0x3d2dd487	0.04243901
43	0x3dc2e249	0.09515817
44	0xbda1bae1	-0.078969724
45	0xbdb73944	-0.089464694
46	0xbdf5b1ef	-0.11996829
47	0x3d90166c	0.07035527
48	0xbd302d58	-0.043011993
49	0x3d9f29e6	0.07771663
50	0x3b0d34db	0.0021546397
51	0xbd806c3b	-0.06270643
52	0x3d0dae78	0.034590214
53	0x3cdca8ca	0.026935954
54	0xbd9e23b9	-0.07721657
55	0x3d9f910b	0.077913366
56	0x3db2cc7f	0.08730411
57	0x3d0386b1	0.032110874
58	0x3d8fba50	0.07017958
59	0xbd75639a	-0.05990944
60	0x3d879e95	0.06622044
61	0xbd04017c	-0.032227978
62	0xbb788846	-0.0037923022
63	0xbd156eaf	-0.03648251

ob_encoder.2.weight f4 [16, 64]
0	0xb9a54739	-0.00031524317
1	0xbcd3349c	-0.025781922
2	0x3d8f0f12	0.06985296
3	0xbce48275	-0.027894238
4	0x3bdafd3e	0.006683021
5	0x3c88ce11	0.016699823
6	0x3df5967a	0.11991592
7	0x3bccb650	0.0062473193
8	0x3d21c553	0.039494824
9	0xb9ff3a3d	-0.0004868078
10	0xbccd6575	-0.025072793
11	0x3dafe563	0.08588674
12	0x3d80fb04	0.062978774
13	0xbd17958d	-0.037007857
14	0xbdc56eb8	-0.096402586
15	0xbaed1dcb	-0.0018090544
16	0x3e17e493	0.14833288
17	0x3db383fd	0.08765409
18	0x3cc059f3	0.023480391
19	0x3dbe7750	0.09300101
20	0xbae280e6	-0.0017280846
21	0xbc2451c2	-0.010029258
22	0x3d7751af	0.060380634
23	0x3dbdf294	0.09274784
24	0xbca3c340	-0.019990563
25	0x3d9d2ff2	0.076751605
26	0x3d99396b	0.07481655
27	0x3aaf62dc	0.0013380903
28	0x3d568766	0.05237522
29	0xbd904c36	-0.07045786
30	0xbc2bc5aa	-0.0104841385
31	0xbd7be775	-0.06150003
32	0xbc9ee458	-0.019395992
33	0xbd1d7a3c	-0.03844665
34	0x3d87f5e5	0.066386975
35	0x3d3af1bc	0.045640692
36	0xbd12fce5	-0.03588571
37	0xbd6303e8	-0.055423647
38	0x3e1c7320	0.15278292
39	0x3e13830b	0.14405458
40	0x3dded044	0.10879567
41	0x3dbace39	0.09121365
42	0x3dced368	0.10098916
43	0xbdb00227	-0.085941605
44	0xbbff8422	-0.007797734
45	0xbd621d3d	-0.055203665
46	0x3e043975	0.12912543
47	0x3d55018c	0.05200343
48	0xbdab8ced	-0.08376489
49	0x3d33d237	0.04390165
50	0x3b716439	0.003683342
51	0x3d1691ed	0.03676026
52	0xbbed9a33	-0.007251048
53	0xbd908fdf	-0.07058691
54	0x3d32f362	0.04368914
55	0x3dfb8956	0.12282054
56	0xbda53771	-0.08067215
57	0x3aa67e49	0.0012702431
58	0x3cef0ab0	0.0291799
59	0xbd6ac6aa	-0.057318367
60	0x3d5d610c	0.05404763
61	0x3de0b933	0.10972824
62	0xbd6d9438	-0.05800268
63	0xbd9a1bc6	-0.075248286
64	0x3e058818	0.13040197
65	0x3b02d437	0.0019962916
66	0x3ddb25fd	0.10700605
67	0x3d92a2e7	0.071599774
68	0x3df0dba9	0.11760647
69	0xbdbde017	-0.09271257
70	0xbd97868a	-0.07398708
71	0x3db52334	0.08844605
72	0xbd96516f	-0.07339751
73	0xbc163130	-0.009167001
74	0x3dff1cb6	0.12456648
75	0x3bc83e90	0.0061109737
76	0xbd880a5f	-0.06642603
77	0x3dfad54a	0.12247713
78	0x3d5b3e2d	0.053526092
79	0xbced41a9	-0.028961973
80	0xbd99045e	-0.07471536
81	0x3dd52876	0.10408108
82	0xbdfc7616	-0.123272106
83	0xbd5cadda	-0.053876735
84	0x3c18c12b	0.009323399
85	0xbd1eb616	-0.03874787
86	0xbd5ff749	-0.05467919
87	0x3d9df01d	0.077118136
88	0x3df2fa1b	0.1186411
89	0x3dbf3fc1	0.09338332
90	0x3d1f6db5	0.038922984
91	0xbd974e27	-0.07387953
92	0x3da2392f	0.07921063
93	0x3de6a3e1	0.11261726
94	0xbdc03687	-0.093854
95	0xbdaa9e90	-0.08331025
96	0xbd0e6c8d	-0.03477149
97	0x3c9c45cb	0.019076249
98	0x3d41ad50	0.047284424
99	0xbbb318a3	-0.0054655834
100	0x3c12940e	0.008946432
101	0x3ae3381c	0.0017335447
102	0xbcec8cfe	-0.028875824
103	0xbdb0f937	-0.08641284
104	0x3d454ce6	0.04816904
105	0xbd91422e	-0.07092701
106	0x3e01c84f	0.12674068
107	0xbaccdc8c	-0.0015629693
108	0x3dffe6fe	0.1249523
109	0xbb784148	-0.0037880708
110	0x3d2f6d67	0.042828944
111	0xbd58a8ae	-0.05289524
112	0x3e1162c6	0.14197835
113	0x3ddbeeaf	0.10738885
114	0x3c2932e4	0.010327075
115	0x3e0363fa	0.12831107
116	0xbc51c6ff	-0.012803792
117	0xbd4ccb23	-0.049998414
118	0xbd60613d	-0.054780234
119	0xbda6d9a4	-0.081469804
120	0x3decf5d7	0.11570328
121	0x3e057a3b	0.13034908
122	0xbc536ea8	-0.0129048005
123	0x3dac6696	0.08418004
124	0xbd80f6ac	-0.06297049
125	0x3c294ac9	0.010332772
126	0x3ddc3277	0.10751813
127	0x3da91403	0.0825577
128	0x3ded4ca8	0.11586887
129	0xbd6898e4	-0.056786433
130	0xbd492aa9	-0.04911295
131	0x3dbfdfe8	0.093688786
132	0xbd321522	-0.043477185
133	0x3db6fae1	0.0893457
134	0x3dfc51c9	0.12320287
135	0x3dcf997e	0.10136698
136	0xbd5c7288	-0.053820163
137	0xbb1af02a	-0.0023641684
138	0xbcf5dfa2	-0.030013863
139	0x3dea65e7	0.114452176
140	0xbd5f8cef	-0.054577764
141	0xbd46c105	-0.04852392
142	0x3c48564d	0.012227607
143	0x3d72449b	0.05914746
144	0x3e03b4b8	0.12861907
145	0xbdc47d3c	-0.09594199
146	0xbc80eef7	-0.015738947
147	0x3d2f1174	0.042741254
148	0x3e0f3565	0.13985212
149	0xbb68858d	-0.0035479993
150	0x3e0067c7	0.12539588
151	0x3e14df96	0.14538416
152	0x3c767697	0.015042922
153	0x3d906caa	0.07051976
154	0xbdddc834	-0.10829201
155	0x3cf7620b	0.030198118
156	0x3e052048	0.13000596
157	0xbda2ac2f	-0.07942998
158	0xbc98a57b	-0.018633595
159	0x3d927a00	0.07152176
160	0xbd04743e	-0.03233742
161	0x3dc022f7	0.09381669
162	0xbd3c98de	-0.046044223
163	0x3de418e0	0.11137557
164	0xbd4acde0	-0.049512744
165	0x3df0dc7b	0.11760803
166	0xbca014ab	-0.019541105
167	0xbd280acf	-0.041025933
168	0x3dede925	0.116167344
169	0xbd70a820	-0.058754086
170	0xbad5b03b	-0.0016303131
171	0x3d71d9e6	0.059045695
172	0x3dc777fb	0.09739681
173	0x3d229557	0.039693203
174	0x3cc15f7d	0.023605103
175	0x3e043340	0.12910175
176	0x3d0c5c8b	0.034267943
177	0x3da6975d	0.08134339
178	0xbd9e7e2f	-0.07738911
179	0xbd5ee16f	-0.05441421
180	0x3cc01156	0.023445766
181	0x3dfaa906	0.1223927
182	0xbd7acc3b	-0.061229926
183	0x3e02cc6f	0.12773298
184	0x3dbf0c43	0.093285106
185	0x3dd0d55d	0.10196946
186	0xbdd387ec	-0.103286594
187	0x3e06e1b1	0.13172032
188	0xbd6baee5	-0.05753984
189	0x3d0cafa2	0.034347184
190	0xbd53dd56	-0.051724754
191	0x3da5216e	0.08063017
192	0xbc81939c	-0.015817456
193	0xbd628120	-0.055298924
194	0xbd0ec4f6	-0.034855805
195	0xbd10a598	-0.035314173
196	0x3dc4ed5c	0.09615585
197	0x3e12ae43	0.14324288
198	0xbdbf5c7f	-0.09343814
199	0xbdc3d377	-0.09561818
200	0xbd1ee615	-0.038793642
201	0x3dfc4cd7	0.123193435
202	0x3dbc671c	0.09199354
203	0xbdb2d32a	-0.087316826
204	0xbc7418da	-0.014898503
205	0xbd872728	-0.06599265
206	0x3decb5aa	0.11558087
207	0xbcf48299	-0.02984743
208	0x3c21838e	0.009858025
209	0xbd8c489d	-0.068497874
210	0x3dd07aa0	0.10179639
211	0x3db595a9	0.08866436
212	0x3c6c6c0c	0.014430057
213	0x3da168fe	0.07881354
214	0xbcaf48fa	-0.021397103
215	0xbd4dcd30	-0.05024451
216	0xbdbfa4bd	-0.09357593
217	0x3c5f80bd	0.013641533
218	0xbddd381f	-0.1080172
219	0x3d9cf551	0.07663978
220	0xbc1dcb4d	-0.00963099
221	0x3dedd06c	0.11612019
222	0x3d64d922	0.055871136
223	0xbcb7cf44	-0.0224377
224	0x3d6a1b5a	0.05715499
225	0xbd83d60a	-0.06437309
226	0xbdc71d74	-0.097224146
227	0x3c056972	0.008142816
228	0xbc8c8e74	-0.01715777
229	0x3d37fcf4	0.04491897
230	0x3b63b339	0.0034744276
231	0x3d987141	0.074434765
232	0xbd947f33	-0.07250824
233	0x3d1b4218	0.03790483
234	0x3d8f146b	0.06986316
235	0x3d177be3	0.036983382
236	0xbd4ff6c0	-0.05077243
237	0xbcb9107b	-0.022590866
238	0xbd76fbda	-0.060298778
239	0x3d056231	0.032564346
240	0x3bcd9205	0.0062735104
241	0xbc467206	-0.012112146
242	0x3e0ab9ea	0.13547483
243	0xbc5771dc	-0.013149705
244	0x3d8740b0	0.06604135
245	0x3d8e9e05	0.069637336
246	0xbd145621	-0.03621495
247	0x3dea9de1	0.11455894
248	0xbd0f1538	-0.034932345
249	0xbcfd9f66	-0.030959796
250	0x3db5877e	0.08863734
251	0xbcdc6cc8	-0.02690734
252	0x3d96375d	0.073347785
253	0xbd07a8d9	-0.03312001
254	0x3d1c0fba	0.038100936
255	0xbd9a32fd	-0.075292565

ob_encoder.2.bias f4 [16]
0	0x3e07c39c	0.13258213
1	0x3e12f8e1	0.14352752
2	0x3e336ea7	0.1752268
3	0x3e1ac4b4	0.15114099
4	0xbdf19253	-0.11795487
5	0xbdf500bb	-0.1196303
6	0x3dddeb0e	0.10835849
7	0xbdf532dc	-0.11972591
8	0xbcac943e	-0.021066781
9	0xbd6126ce	-0.054968648
10	0xbdf492ae	-0.119420394
11	0x3e48acc8	0.19597161
12	0x3dcfec40	0.10152483
13	0x3b6c6c0c	0.0036075143
14	0xbdb8b1fc	-0.09018323
15	0x3e48f3b1	0.19624211

ob_encoder.4.weight f4 [2, 16]
0	0xbe4dd6ce	-0.20101473
1	0xbe7896d5	-0.24276288
2	0xbe73eedd	-0.23821588
3	0xbe8f6d50	-0.28013086
4	0xbc60c346	-0.013718432
5	0xbdaf7371	-0.085669406
6	0xbdf78497	-0.120858364
7	0x3dad86e8	0.08472997
8	0x3e5adbc1	0.21372892
9	0x3e045875	0.12924369
10	0x3b9d8a80	0.0048077703
11	0xbe81ac62	-0.2532683
12	0xbb0e5ca6	-0.0021722703
13	0x3db8cfc5	0.09024004
14	0xbe4c1d5e	-0.19933078
15	0xbe2cc7cc	-0.16873091
16	0x3d90f249	0.07077462
17	0xbdcee330	-0.10101926
18	0xbd9d39fa	-0.07677074
19	0xbe80c05a	-0.25146753
20	0x3e0bf3df	0.13667248
21	0x3e3c2f7f	0.18377493
22	0x3cdc4f8a	0.026893396
23	0xbdfba2a4	-0.122868806
24	0xbe02bb3d	-0.12766738
25	0xbe276b40	-0.16349506
26	0xbe760044	-0.24023539
27	0xbe48da18	-0.19614446
28	0xbe44ac49	-0.19206347
29	0xbe8b7405	-0.27236953
30	0x3d9a9f7a	0.07549949
31	0x3d2c5450	0.042072594

ob_encoder.4.bias f4 [2]
0	0xbcbf275c	-0.023334198
1	0xbe449279	-0.191965

ob_decoder.0.weight f4 [64, 1000]
0	0x3d8a257a	0.06745429
1	0xbd30dbe2	-0.043178447
2	0x3d29c07e	0.04144334
3	0xbcbf0f2e	-0.023322668
4	0x3cd9d974	0.026592948
5	0x3d08376c	0.03325598
6	0x3cf04a05	0.02933217
7	0x3cfa10dd	0.03052562
8	0xbd25d619	-0.040487383
9	0x3d8d8016	0.06909196
10	0xbd2f011d	-0.04272567
11	0x3c4bab3e	0.012430964
12	0xbda384cb	-0.079843126
13	0xbdad2287	-0.08453851
14	0x3d0afa8f	0.033930358
15	0xbd8db46b	-0.069191776
16	0xbb664edc	-0.0035142219
17	0xbd202290	-0.03909546
18	0x3d233b71	0.03985161
19	0xbcf10d0f	-0.029425172
20	0xbb6afa28	-0.003585467
21	0x3cf227ed	0.029560054
22	0xbbad837d	-0.0052952156
23	0x3d3b18df	0.045678016
24	0x3b986e5f	0.004651829
25	0x3d856ee7	0.065152936
26	0xbd3d9d9d	-0.04629289
27	0xbc8aaf3c	-0.016929261
28	0xbda75dcd	-0.08172188
29	0x3cd70df1	0.026251765
30	0x3c5689b6	0.013094356
31	0xbd60a688	-0.054846317
32	0x3d1efcbc	0.038815245
33	0xbcc7f721	-0.024409832
34	0x3ce05004	0.027381904
35	0xbcbf87a6	-0.023380112
36	0x3d537705	0.051627178
37	0x3d068753	0.0328439
38	0x3c7589c4	0.014986459
39	0x3d484a58	0.048899025
40	0x3ac85acb	0.0015285847
41	0x3d9a99fe	0.07548903
42	0xbb734e72	-0.0037125614
43	0xbbd8a112	-0.006610998
44	0xbcb9d888	-0.022686258
45	0x3c35ed88	0.011103995
46	0xbc7f9542	-0.015599551
47	0xbc80afc8	-0.015708819
48	0x3d064c64	0.032787696
49	0xbccf0bec	-0.02527424
50	0x3d62b3f7	0.05534741
51	0xbc01ce79	-0.007922762
52	0x3a28955a	0.00064309465
53	0xbb90cb5d	-0.004418774
54	0xbc76a3b3	-0.015053677
55	0x3d1e3126	0.03862109
56	0xbc80cf9f	-0.015724001
57	0x3d4cd429	0.05000702
58	0xbd858e8a	-0.06521328
59	0xbd108e60	-0.03529203
60	0xbd4cfda6	-0.050046586
61	0x3d06188c	0.032738253
62	0x3c011ee9	0.007880905
63	0x3b70403e	0.0036659385
64	0xbc0f65cb	-0.008752297
65	0xbcef6922	-0.029224936
66	0x3d29fd27	0.04150119
67	0xbca8ad40	-0.020590425
68	0xbc537576	-0.012906423
69	0x3d664354	0.056216553
70	0xbce61b3d	-0.02808916
71	0x3d4ddc9e	0.050259225
72	0xbd6cb506	-0.057789825
73	0xbc9e4c9f	-0.019323645
74	0x3ceefd6d	0.029173577
75	0x3d1e2f7d	0.038619507
76	0xbcb22016	-0.021743815
77	0x3bd2309a	0.006414485
78	0x3d571d26	0.052518032
79	0xbc61d76d	-0.013784272
80	0x3bd4c124	0.0064927507
81	0xbd1f4d53	-0.0388921
82	0x3c7eddda	0.015555823
83	0x3d0bc251	0.03412086
84	0x3b495d87	0.0030725913
85	0x3d0113b6	0.03151294
86	0xbcbe8664	-0.023257442
87	0x3b4ed995	0.0031562794
88	0x3bdb3045	0.006689104
89	0x3d4dc444	0.050236
90	0x3c07c727	0.008287228
91	0xbc061fdc	-0.008186307
92	0xbd1c3460	-0.038135886
93	0x3abe78c9	0.0014531846
94	0xbda22500	-0.079172134
95	0xbc6cde76	-0.014457336
96	0x3d9f6826	0.077835366
97	0xbd45ec5a	-0.048321106
98	0x3d26183f	0.040550467
99	0xbcf17ade	-0.029477533
100	0x3c5d9c77	0.013526074
101	0x3ca9b029	0.020713883
102	0x3cdad98d	0.026715064
103	0xbd060cc9	-0.032727037
104	0x3c3830f2	0.011242138
105	0x3d1db9b1	0.038507167
106	0xbca1efc5	-0.019767651
107	0x3d420b62	0.047374137
108	0xbc9e5c80	-0.019331217
109	0xbd1dc27c	-0.038515553
110	0x3c13cacf	0.009020521
111	0xbd4f6dac	-0.0506417
112	0x3c78a2e7	0.015175558
113	0xbd95ee81	-0.07320882
114	0x3d8c9d62	0.06865956
115	0xba2ce452	-0.00065953017
116	0x3c0d8e94	0.00863995
117	0xbbcaeaea	-0.0061925547
118	0xbc7af321	-0.0153167555
119	0x3c499999	0.012304687
120	0xbb6020b8	-0.003419919
121	0x3a8b8da8	0.0010647075
122	0x3b8c8675	0.0042884895
123	0x3d85a250	0.06525099
124	0xbd19e69b	-0.03757344
125	0xbd4d7063	-0.05015601
126	0x3d4aa8c7	0.049477365
127	0xbda6e517	-0.08149164
128	0x3d1b7cfc	0.03796099
129	0xbcc145f5	-0.023592928
130	0x3b385e86	0.0028132512
131	0xbc7c2b8e	-0.015391244
132	0x3d579244	0.052629724
133	0x3c9f1dfc	0.019423477
134	0xbc33c71f	-0.010972767
135	0x3d8c85de	0.06861471
136	0x3d20258a	0.0390983
137	0x3cad277f	0.021136997
138	0xbd8be596	-0.068308994
139	0x3d1473c3	0.03624321
140	0x3d0e3376	0.034717046
141	0xbd546b39	-0.051860068
142	0xbb50e967	-0.00318774
143	0xbd8f01e6	-0.06982784
144	0x3d15f2dd	0.036608566
145	0xbbd00085	-0.006347718
146	0x3d5feb65	0.05466785
147	0x3c7060f9	0.014671558
148	0x3b44de07	0.0030039565
149	0x3d1657f9	0.03670499
150	0x3baeb1dc	0.005331261
151	0x3d219360	0.03944719
152	0xbccaab7d	-0.024739975
153	0x3d32a07d	0.043610085
154	0xbcb26ec9	-0.021781342
155	0xbd014265	-0.03155746
156	0xbd8092c2	-0.06277992
157	0xbc9d1686	-0.01917578
158	0xbd192946	-0.037392877
159	0xbc463c03	-0.012099269
160	0x3cf0b706	0.029384147
161	0xbd3d0b65	-0.046153445
162	0xbb0e7044	-0.0021734396
163	0x3c4a4ebd	0.012347874
164	0x3d318d4c	0.04334764
165	0x3c26a48c	0.010171067
166	0xbdc407e3	-0.09571817
167	0x3d047739	0.032340262
168	0xbcc848ed	-0.024448836
169	0x3d9d7d49	0.07689912
170	0xbcc9a290	-0.024613649
171	0xbca33305	-0.019921789
172	0x3be1321d	0.006872429
173	0xbccd7993	-0.025082385
174	0x3d8068f1	0.06270016
175	0xbd94f9fe	-0.07274245
176	0x3ccf9f82	0.025344614
177	0xbb72ff4c	-0.0037078438
178	0x3d2a4bb5	0.041576106
179	0x3bc39e94	0.0059698317
180	0x3d9d0817	0.07667559
181	0x3c12ef12	0.008968132
182	0xbcb5702f	-0.02214822
183	0x3b8aeae6	0.004239428
184	0xbc54d384	-0.012989882
185	0x3cae55aa	0.021281082
186	0xbdacfbd4	-0.0844647
187	0x3c9fbce4	0.01949925
188	0xbd0b3c6f	-0.03399318
189	0xbc00d242	-0.007862629
190	0x3d0f86ea	0.035040773
191	0xbce718ee	-0.02821013
192	0x3ce43b99	0.02786045
193	0xbc489060	-0.012241453
194	0x3d437c8f	0.04772621
195	0x3cc98500	0.024599552
196	0x3d49885c	0.049202308
197	0x3cf69597	0.030100627
198	0xb91576b3	-0.00014253966
199	0x3d214ae4	0.039378062
200	0xbd831b17	-0.06401651
201	0x3d08979c	0.03334771
202	0xbd205c13	-0.03915031
203	0x3d62a3a1	0.05533183
204	0xbd068d83	-0.0328498
205	0xbb4781e2	-0.0030442406
206	0x3b9e4e53	0.0048311143
207	0xbd8f527d	-0.06998155
208	0x3d4750a8	0.048660904
209	0x3b2b63ea	0.0026152083
210	0x3d1b7c03	0.037960064
211	0x3c2e2015	0.010627766
212	0x3d26db9e	0.040736787
213	0x3ca4438f	0.020051746
214	0x3d534635	0.051580627
215	0x3d5cee39	0.053938124
216	0xbbda314a	-0.0066587077
217	0x3c6f7074	0.014614213
218	0x3c71d703	0.014760735
219	0x3bf4ef4d	0.007474816
220	0xbd741610	-0.059591353
221	0xbd357479	-0.04430053
222	0xbca0c581	-0.019625427
223	0xbd64d131	-0.055863563
224	0x3ce417fe	0.027843472
225	0xbd36a8d9	-0.04459462
226	0x3d5c83d4	0.05383666
227	0x3a3e73cd	0.00072651805
228	0x3d22ce91	0.03974778
229	0x3d0c446d	0.034244943
230	0xbcf1e620	-0.029528677
231	0xbc17d9b4	-0.009268213
232	0xbd150456	-0.03638109
233	0x3d6ba566	0.057530783
234	0x3b1ca0f2	0.0023899642
235	0xbb8e3964	-0.0043403376
236	0xbd7c5b99	-0.06161079
237	0x3c344f66	0.011005258
238	0x3c51068d	0.0127579095
239	0xbd7642d7	-0.060122337
240	0x3d0f81c0	0.03503585
241	0xbd3ba4eb	-0.045811575
242	0xb8ff7d0b	-0.000121826386
243	0xbc471271	-0.012150393
244	0x3c91a0d4	0.017776884
245	0x3bd8e774	0.0066193882
246	0x3b0fedc7	0.0021961795
247	0x3c36e2b8	0.011162452
248	0xbdac0fd6	-0.08401458
249	0x3d52bde2	0.051450618
250	0xbd463b58	-0.04839644
251	0xbbc20cbf	-0.0059219296
252	0xbc850cc2	-0.016241435
253	0xbd8a91a8	-0.06766063
254	0x3aead96b	0.0017917579
255	0xbbfd1407	-0.0077233347

ob_decoder.0.bias f4 [64]
0	0x3e25638e	0.16151258
1	0xbe5e2318	-0.21693075
2	0x3e3e4320	0.18580294
3	0x3e0aef34	0.13567811
4	0x3db1c35a	0.086798385
5	0xbc5e7778	-0.013578288
6	0x3e4c9b3f	0.19981097
7	0x3de4f408	0.11179358
8	0x3e19ff75	0.15038855
9	0x3db6c81d	0.08924887
10	0x3e3c476e	0.18386623
11	0x3e132b27	0.1437193
12	0x3ded28c1	0.11580039
13	0x3e24fcc5	0.16112049
14	0x3da7dbd1	0.081962235
15	0x3e043b9a	0.12913361
16	0x3e03194e	0.12802622
17	0x3e18bd14	0.14915878
18	0x3e3729e7	0.17887078
19	0x3e1d3959	0.15353908
20	0x3e2c4c2b	0.16825931
21	0x3e1131ec	0.141792
22	0x3e5dc7f5	0.21658309
23	0xbe0d70a0	-0.13812494
24	0x3ddf3309	0.10898406
25	0x3cd6216f	0.02613899
26	0x3dde115f	0.10843157
27	0x3df62fef	0.12020861
28	0x3e2746bb	0.16335575
29	0x3dafc26c	0.08582005
30	0x3e383ffa	0.17993155
31	0x3e05ffd7	0.13085876
32	0x3e038598	0.1284393
33	0x3e2aea2a	0.16690889
34	0x3e599930	0.21249843
35	0x3e23f2e9	0.16010632
36	0x3e2977ad	0.16549559
37	0x3e0ee523	0.13954596
38	0x3dfee504	0.12446025
39	0x3dc652a9	0.09683735
40	0x3dea970b	0.114545904
41	0xbe751978	-0.23935497
42	0xbd1264cb	-0.035740655
43	0x3de7b651	0.11314071
44	0x3df6c973	0.12050142
45	0x3e02d706	0.12777337
46	0xbe570f63	-0.21001963
47	0x3e1890f0	0.1489904
48	0x3e09931f	0.13435028
49	0x3e0ab2dd	0.13544793
50	0xbd8385cf	-0.06422006
51	0x3e0df84b	0.13864248
52	0x3da2d5eb	0.07950958
53	0xbe05b813	-0.130585
54	0x3e26548f	0.16243194
55	0xbe21b33f	-0.15791033
56	0x3e19d5df	0.15022992
57	0x3e161af3	0.14658718
58	0x3e03df1d	0.1287808
59	0x3e157cc4	0.14598376
60	0x3e415454	0.18879825
61	0x3e2a8c9b	0.16655199
62	0x3e00178c	0.12508982
63	0x3de4da18	0.111744106

ob_decoder.2.weight f4 [16, 64]
0	0xbdc3aa00	-0.09553909
1	0xbd400e8d	-0.046888877
2	0xbd26f6f0	-0.04076284
3	0x3c86ae65	0.01644058
4	0xbe0edb8d	-0.1395094
5	0xbe0f5a22	-0.13999227
6	0xbda6657b	-0.081248246
7	0x3d5b3388	0.05351594
8	0xbd82373e	-0.06358193
9	0x3d3ab05e	0.045578353
10	0x3d513cf6	0.051083528
11	0xbc854fc0	-0.01627338
12	0xbd9f4987	-0.07777696
13	0xbd6cd761	-0.05782259
14	0xbcbc4d12	-0.022985969
15	0x3daadfed	0.08343492
16	0x3da9a848	0.0828405
17	0x3d0899a0	0.033349633
18	0xbc6cdc88	-0.014456876
19	0x3cc98c75	0.024603108
20	0xbd1c47d6	-0.038154446
21	0xbd3ea2c9	-0.046541963
22	0x3d5beba9	0.05369154
23	0xbddb4e47	-0.107082896
24	0x3cc1a79e	0.023639496
25	0xbd711e2c	-0.058866665
26	0xbddd2d72	-0.10799684
27	0x3d94c464	0.07264021
28	0xbe0dadf2	-0.13835886
29	0x3d7a57da	0.061118938
30	0xbdfc1816	-0.123092815
31	0xbd1f8071	-0.03894085
32	0x3d192efe	0.03739833
33	0x3d71e636	0.059057437
34	0x3da4959c	0.08036348
35	0xbdfee592	-0.12446131
36	0xbd84cda6	-0.06484537
37	0xbdd32284	-0.10309318
38	0xbcb3c544	-0.02194465
39	0x3d8709ef	0.065936916
40	0x3d53b16a	0.051682867
41	0xbe042703	-0.12905507
42	0x3d3a7016	0.04551705
43	0x3d1de8ef	0.03855222
44	0x3cc6bbb1	0.02425942
45	0xbc2efac6	-0.010679906
46	0x3b8c8c84	0.0042892117
47	0xbd6d59b9	-0.057946894
48	0xbd885315	-0.06656472
49	0x3d76616f	0.060151514
50	0x3cc52de5	0.024069736
51	0xbe16dc80	-0.14732552
52	0x3c9c2032	0.01905832
53	0xbca42b36	-0.020040136
54	0xbd6a3dcd	-0.057187844
55	0xbdeb4629	-0.11487991
56	0xbc49c51d	-0.012315062
57	0xbd71adc9	-0.059003625
58	0x3d43a6f7	0.047766652
59	0x3d0bcae8	0.034129053
60	0x3cf82e9d	0.030295664
61	0xbe018aec	-0.1265065
62	0xbe03e12a	-0.12878862
63	0xbe0610e6	-0.13092384
64	0xbdf3aaa1	-0.11897779
65	0xbdaf37c6	-0.0855556
66	0xbd0f08e0	-0.034920573
67	0xbd831a63	-0.06401517
68	0xbd91e133	-0.071230315
69	0x3d12109f	0.035660382
70	0x3d928f93	0.07156291
71	0xbd9beacc	-0.07613143
72	0x3db4fcdc	0.088372916
73	0xbd364457	-0.044498768
74	0xbd60e6c3	-0.05490757
75	0xbdc35279	-0.09537215
76	0x3d6e8dbe	0.058240645
77	0xbde5ff9a	-0.11230393
78	0xbc9fffc2	-0.019531135
79	0xbd8f7a95	-0.070058025
80	0xbd2b3bd7	-0.041805115
81	0x3c8ed9d0	0.017437845
82	0x3d1557ff	0.036460873
83	0x3dc723f2	0.09723653
84	0x3db9ca84	0.0907183
85	0xbe07dc2e	-0.13267586
86	0x3cb539b6	0.022122245
87	0xbdbebe7c	-0.09313676
88	0xbdbaa9fc	-0.09114453
89	0x3d1c506d	0.038162638
90	0xbc9c7f91	-0.019103797
91	0x3d7efe8b	0.06225447
92	0xbe15c4a1	-0.14625789
93	0x3d24df79	0.040252183
94	0x3d821427	0.063515
95	0xbddf1f60	-0.10894656
96	0xbd7b9531	-0.061421577
97	0xbd2e125e	-0.042497985
98	0x3d22b39c	0.03972207
99	0x3dae1dcf	0.08501779
100	0xbe11d295	-0.14240487
101	0x3c1075d8	0.008817159
102	0xbe0e567f	-0.13900183
103	0xbd919e14	-0.07110229
104	0xbd6d6f3b	-0.057967406
105	0x3d0c069e	0.034186
106	0xbd2a1dff	-0.041532513
107	0xbdd5d403	-0.10440829
108	0x3d0747bb	0.033027392
109	0x3831f0f4	4.2424494e-05
110	0x3da96553	0.08271279
111	0xbe064839	-0.13113488
112	0x3c98da61	0.018658819
113	0xbdbec40a	-0.09314735
114	0x3d474e30	0.04865855
115	0xbd71cd3d	-0.05903362
116	0x3d420626	0.047369145
117	0x3dd24cfa	0.10268588
118	0x3d8f2f77	0.06991475
119	0xbd6a3ec9	-0.057188783
120	0xbd35f0cb	-0.04441909
121	0xbe2402dd	-0.16016717
122	0xbe177439	-0.14790429
123	0x3d99ffcc	0.075194925
124	0xbdd9d903	-0.10637095
125	0x3d9fad48	0.07796723
126	0xbca0b0b6	-0.019615512
127	0x3d0739c4	0.033014074
128	0x3e1879dc	0.14890236
129	0xbdcf2d51	-0.10116065
130	0x39aaade6	0.0003255449
131	0x3d751409	0.05983356
132	0x3df5c656	0.1200072
133	0xbd8b0d57	-0.06789654
134	0x3de71aef	0.11284434
135	0x3de72f75	0.112883486
136	0x3dc307b5	0.095229544
137	0x3e30b6f1	0.17257287
138	0x3d914078	0.070923746
139	0x3c446a28	0.0119882
140	0x3e147d9b	0.1450104
141	0x3b72f257	0.0037070715
142	0x3e276577	0.163473
143	0x3e1eef00	0.15520859
144	0x3e2bb75d	0.16769166
145	0x3ddee157	0.10882824
146	0x3e4de1c2	0.20105651
147	0x3d33afe2	0.043868907
148	0x3e045045	0.12921245
149	0x3e2d7d61	0.1694236
150	0x3d6c16cd	0.057638932
151	0xbd8b3212	-0.067966595
152	0x3e2496a1	0.16073085
153	0x3df84986	0.121233985
154	0x3dcd1a77	0.100148134
155	0xbc06490a	-0.008196125
156	0x3bab923f	0.0052359398
157	0x3da56c92	0.08077349
158	0x3e21101e	0.15728804
159	0x3df158c3	0.11784508
160	0xbc724201	-0.014786244
161	0x3dc48772	0.09596147
162	0x3d3068ac	0.043068573
163	0x3d6fbd78	0.0585303
164	0x3d946bc7	0.072471194
165	0x3dd42b0f	0.10359775
166	0x3dc36f04	0.09542659
167	0x3dbe2582	0.09284498
168	0x3d8f0642	0.069836155
169	0x3c7f29fd	0.015573976
170	0xbc52bebc	-0.012862857
171	0x3da802a4	0.08203629
172	0x3d72a52f	0.059239563
173	0x3e3b12af	0.18268846
174	0xbe07ff9d	-0.13281102
175	0x3ddc9568	0.107706845
176	0x3e12ea78	0.14347255
177	0xbd0f70cd	-0.035019685
178	0x3d414f9e	0.04719507
179	0x3e18bc6f	0.14915632
180	0x3d4f84c8	0.05066374
181	0xbd98e75f	-0.074660055
182	0x3e30470a	0.17214599
183	0x3c6f4802	0.01460457
184	0x3e2273b8	0.15864456
185	0x3dabcbe1	0.08388496
186	0x3ddd45dd	0.10804341
187	0x3db55856	0.08854739
188	0x3e0d7ae1	0.13816406
189	0x3d7f670a	0.062354125
190	0x3e1c11b3	0.15241127
191	0xbd0c72d2	-0.03428919
192	0xbb8f1ffc	-0.0043678265
193	0xbe1878c1	-0.14889814
194	0x3e289947	0.1646472
195	0xbc241ac2	-0.010016145
196	0x3e34b9f7	0.17649065
197	0x3d2a06e9	0.041510496
198	0x3df43d9f	0.11925816
199	0x3d856fb3	0.065154456
200	0xbce084c1	-0.027407052
201	0xba275b00	-0.00063841045
202	0x3d9dd2a0	0.07706189
203	0x3d7e917b	0.06215046
204	0x3d0e62ff	0.03476238
205	0x3df170d3	0.11789098
206	0xbd1a74db	-0.0377091
207	0x3e395545	0.18098934
208	0x3cacf87b	0.021114578
209	0x3e003e74	0.12523824
210	0x3e0005d4	0.12502223
211	0x3c92063d	0.01782524
212	0x3e088f86	0.13336
213	0x3aaca9a1	0.0013173112
214	0x3dea5c46	0.11443381
215	0xbd009456	-0.031391464
216	0x3e2ba04b	0.16760366
217	0xbda2c30b	-0.07947358
218	0x3d17996f	0.03701156
219	0x3e10de13	0.14147215
220	0x3dc2fe2c	0.09521136
221	0x3e09e006	0.13464364
222	0x3dfb540c	0.1227189
223	0x3d005589	0.031331573
224	0x3b1633ef	0.0022919138
225	0x3ddbfecd	0.10741959
226	0x3d318f5a	0.0433496
227	0x3c7f28c1	0.015573681
228	0x3c8329ae	0.016011085
229	0x3dceb47b	0.10093018
230	0x3d0c7016	0.03428658
231	0x3e3c0f5b	0.18365233
232	0xbd944076	-0.072388574
233	0xbd53b89c	-0.05168973
234	0x3e2e3837	0.17013632
235	0x3e023f6e	0.12719509
236	0x3db35161	0.08755756
237	0xbd03213b	-0.032014113
238	0x3d3a8e8d	0.045546103
239	0x3d324a0c	0.043527648
240	0x3e077db1	0.13231541
241	0x3d04fc47	0.032467153
242	0xbdb184ac	-0.08667883
243	0xbcaa3ee1	-0.020781936
244	0x3d6d7b5b	0.05797897
245	0x3c3e9e51	0.011634425
246	0x3b5927bf	0.0033135263
247	0x3dada3c3	0.08478501
248	0x3e2c51e5	0.16828115
249	0xbd0434d0	-0.03227693
250	0xbca0947a	-0.01960205
251	0x3de2b1eb	0.110690914
252	0x3e1f5867	0.15561067
253	0xbd2bf6d2	-0.041983433
254	0x3e037fc0	0.12841702
255	0x3d11343a	0.035450198

ob_decoder.2.bias f4 [16]
0	0x3bc5a20e	0.0060312813
1	0xbdc3d214	-0.095615536
2	0x3dcdb17c	0.10043618
3	0x3de243d4	0.110480934
4	0xbe16e10c	-0.14734286
5	0x3d96bc16	0.07360093
6	0x3e91eaf0	0.28499556
7	0x3ccdc4e6	0.025118303
8	0x3cfebe7f	0.031096695
9	0x3bfa5b3d	0.007640271
10	0xbe00dfb9	-0.12585343
11	0x3e1e401b	0.15454142
12	0x3e7cbf25	0.24682291
13	0x3dad40ea	0.08459647
14	0x3dc8f357	0.098120384
15	0x3d8f8d17	0.070093326

ob_decoder.4.weight f4 [2, 16]
0	0x3e35ace3	0.17741732
1	0x3d14e364	0.03634967
2	0xbe8be391	-0.27322057
3	0xbdef805f	-0.11694407
4	0x3d7e94c9	0.06215361
5	0x3ca0fe02	0.01965237
6	0xbe5bef1b	-0.2147793
7	0xbd54d6aa	-0.051962532
8	0x3d377016	0.044784628
9	0x3b7760e4	0.003774696
10	0x3e42d5c5	0.19026859
11	0xbe8ddc3e	-0.27707094
12	0xbe4ab6bd	-0.19796272
13	0x3e387260	0.1801238
14	0xbe5e92c5	-0.21735676
15	0x3d1fc6fa	0.03900812
16	0xbdd7b992	-0.105334416
17	0x3c7bcf14	0.0153691955
18	0x3d6979ef	0.05700105
19	0xbd1fdf7c	-0.03903149
20	0xbe017629	-0.12642731
21	0x3e603862	0.21896508
22	0xbe1555cf	-0.14583515
23	0xbda75727	-0.0817092
24	0xbe1de82c	-0.15420598
25	0x3dd0b85e	0.10191415
26	0xbbe0dd56	-0.006862323
27	0x3d4e669b	0.05039082
28	0x3df5bea9	0.11999256
29	0x3d6c4526	0.057683133
30	0x3ccc2020	0.024917662
31	0xbb8765ad	-0.0041319937

ob_decoder.4.bias f4 [2]
0	0xbe891823	-0.26776227
1	0xbe8637ae	-0.26214355

encoder.0.weight f4 [8, 4]
0	0x3f03658f	0.5132684
1	0xbe56dbc9	-0.20982279
2	0x3eb1e1bc	0.34742534
3	0x3e753402	0.2394562
4	0x3e9fd1ca	0.31214744
5	0xbed8971e	-0.42302793
6	0x3d0f58c0	0.034996748
7	0xbee66c44	-0.45004475
8	0x3e4e3a1c	0.20139354
9	0x3eb4e3b6	0.3532998
10	0xbec53bea	-0.38522273
11	0x3e78e66c	0.24306649
12	0xbe4c1f7b	-0.19933884
13	0xbeb78963	-0.35847005
14	0x3e8b4af4	0.27205622
15	0x3e63c4e9	0.22243084
16	0xbe33f55e	-0.17574069
17	0xbe04e932	-0.12979582
18	0xbef20575	-0.47269788
19	0x3e4a82ca	0.19776455
20	0xbdf97040	-0.12179613
21	0xbef4ca51	-0.47810605
22	0xbedc591b	-0.43036732
23	0xbe8c800f	-0.2744145
24	0x3e1199b9	0.14218797
25	0x3cf8da6e	0.030377593
26	0xbdf35ec4	-0.118833095
27	0x3f26858a	0.65047514
28	0x3e99e48c	0.3005718
29	0x3f069a04	0.5257876
30	0x3ecd6e53	0.40123233
31	0x3e7ab85c	0.2448439

encoder.0.bias f4 [8]
0	0x3e88d0ac	0.26721704
1	0xbe5c4fd8	-0.21514833
2	0xbedc57c6	-0.43035716
3	0x3de23d6a	0.1104687
4	0x3eaf0df2	0.34190327
5	0xbe296e5f	-0.1654601
6	0x3e4f9838	0.2027291
7	0xbe5023d8	-0.20326173

encoder.2.weight f4 [2, 8]
0	0xbe207de6	-0.15673026
1	0x3d4e485e	0.050361983
2	0xbd04dd1e	-0.032437436
3	0x3e61d024	0.22052056
4	0xbeae3700	-0.34026337
5	0xbea0ae65	-0.31383052
6	0xbdf8fba7	-0.12157374
7	0xbe9b41e1	-0.303237
8	0x3e3f763f	0.18697451
9	0x3e00a5d1	0.12563254
10	0xbe1d4561	-0.15358497
11	0xbea08aae	-0.31355804
12	0xbe81d51d	-0.25357905
13	0x3e3b3a05	0.18283851
14	0xbe3b49ba	-0.18289843
15	0xbcdff598	-0.027338788

encoder.2.bias f4 [2]
0	0x3dae0323	0.08496692
1	0x3e840717	0.2578666

decoder.0.weight f4 [32, 130]
0	0xbec0b1ca	-0.37635642
1	0x3d2c8d5d	0.042127002
2	0x3ea738d8	0.32660556
3	0x3ed1a6b6	0.40947503
4	0x3e7dd1b0	0.2478702
5	0x3c85247a	0.016252745
6	0xbea91c8a	-0.33029586
7	0xbea17574	-0.31534922
8	0xbe8e68c6	-0.2781431
9	0x3d9e6d5b	0.07735702
10	0x3e9aac6c	0.30209672
11	0x3eb7ec2b	0.3592237
12	0x3eb790ab	0.3585256
13	0x3d83b042	0.06430103
14	0xbea0e78f	-0.31426665
15	0xbe9e45cc	-0.30912626
16	0xbe7f0b44	-0.24906641
17	0x3d9ea303	0.07745936
18	0x3e9f17cb	0.3107284
19	0x3ee424cd	0.44559327
20	0x3ea56170	0.323009
21	0xbcbbaec1	-0.022910478
22	0xbe72e00f	-0.23718284
23	0xbedfbd57	-0.43699142
24	0xbe8e46f7	-0.27788517
25	0xbc44094a	-0.011965105
26	0x3e3fca45	0.18729503
27	0x3eb004c1	0.34378627
28	0x3e95e679	0.292774
29	0xbceae910	-0.028675586
30	0xbeb6d453	-0.35708866
31	0xbea092d8	-0.31362033
32	0xbe9dfd80	-0.30857468
33	0xbbd06ec1	-0.006360859
34	0x3e989b7e	0.2980613
35	0x3eeb1526	0.45914572
36	0x3e7d3482	0.24727061
37	0xbcccc22a	-0.024994928
38	0xbec028c6	-0.37531108
39	0xbeba502c	-0.3638929
40	0xbe8259cd	-0.25459138
41	0x3bc84ad5	0.0061124363
42	0x3e7f9a57	0.2496122
43	0x3ea83d4c	0.32859266
44	0x3ebb78b2	0.3661552
45	0xbbdf2464	-0.006809758
46	0xbe9303f9	-0.28713968
47	0xbeae7dd9	-0.3408039
48	0xbec315ff	-0.3810272
49	0x3cea8af4	0.028630711
50	0x3e71560c	0.2356798
51	0x3ebe2bac	0.37142694
52	0x3e993091	0.29919866
53	0x39ee5c36	0.000454636
54	0xbeb91494	-0.36148512
55	0xbec0e74b	-0.37676463
56	0xbea4b18d	-0.3216671
57	0xbcf86a65	-0.03032417
58	0x3eb836a1	0.3597918
59	0x3eafbded	0.3432459
60	0x3e6789f5	0.2261122
61	0x3c6b8a3e	0.014376221
62	0xbeb3a40c	-0.35086095
63	0xbef2ce22	-0.47422892
64	0xbe8f97c9	-0.2804549
65	0xbee6b94e	-0.4506325
66	0xbec322ad	-0.38112393
67	0x3d9ca0ab	0.076478325
68	0x3eaade35	0.33372656
69	0x3ed257bf	0.4108257
70	0x3ebb7c3e	0.36618227
71	0xbc9da4da	-0.019243646
72	0xbebdb62f	-0.37053058
73	0xbecb3b8f	-0.39693877
74	0xbeb5386e	-0.35394615
75	0x3d0df8ee	0.034661226
76	0x3ec185a2	0.37797266
77	0x3ed4ddc6	0.4157545
78	0x3e8be858	0.27325702
79	0x3c5cfd36	0.013488105
80	0xbe8b2cca	-0.2718261
81	0xbec6d1b5	-0.3883187
82	0xbeb49dd7	-0.35276672
83	0x3d22f4e4	0.039784327
84	0x3eb23ad8	0.3481052
85	0x3ecf85c6	0.4053175
86	0x3e8661a8	0.2624638
87	0xbdaba9af	-0.08381974
88	0xbe9ba2bc	-0.30397594
89	0xbeb57c0f	-0.35446212
90	0xbea0d310	-0.31411028
91	0xbdaeebb2	-0.08541049
92	0x3e6bdd7a	0.23033705
93	0x3e9aba73	0.30220374
94	0x3eac9ef0	0.3371501
95	0x3d931ac8	0.071828425
96	0xbe7d83d7	-0.24757324
97	0xbef0a136	-0.46997994
98	0xbe8265b9	-0.25468233
99	0x3c893f22	0.016753737
100	0x3eac674d	0.33672562
101	0x3ea3f532	0.32023007
102	0x3ea400ff	0.3203201
103	0xbccc46dc	-0.024936132
104	0xbea808bd	-0.32819167
105	0xbed44e8b	-0.41466174
106	0xbea45e8f	-0.32103392
107	0xbdb11684	-0.08646873
108	0x3e86b316	0.26308507
109	0x3ec35792	0.38152748
110	0x3ebb5fe1	0.36596587
111	0x3d07f043	0.033188116
112	0xbeb86651	-0.3601556
113	0xbed08e61	-0.40733626
114	0xbebe36cb	-0.3715118
115	0xbdcb6297	-0.09930914
116	0x3e876b9c	0.26449287
117	0x3ee03eff	0.43798062
118	0x3eaf9f20	0.3430109
119	0xbd7d13b9	-0.061786387
120	0xbea38985	-0.31940857
121	0xbec2ee49	-0.38072422
122	0xbe93470b	-0.2876514
123	0x3cddf0c5	0.027092347
124	0x3e84fbd3	0.25973377
125	0x3eafd1a3	0.34339628
126	0x3eb139a3	0.34614286
127	0x3ca4d568	0.020121291
128	0xbdfe2009	-0.12408454
129	0xbd9cab84	-0.076499015
130	0x3d8af6ff	0.06785392
131	0xbd8af72d	-0.06785426
132	0xbd8b4d48	-0.068018496
133	0x3d719d41	0.05898786
134	0x3da104f5	0.078622736
135	0x3d4942d1	0.049135987
136	0x3d9b62b9	0.07587189
137	0x3d520cb6	0.051281653
138	0xbd8bd47f	-0.0682764
139	0xbc9ac3c7	-0.018892182
140	0xbd7e7321	-0.062121514
141	0x3aedc26c	0.0018139607
142	0x3dae747d	0.08518312
143	0xbd5dc313	-0.054141115
144	0x3db0e333	0.08637085
145	0x3d81dab5	0.06340543
146	0x38cdcd39	9.8133874e-05
147	0x3d2aca10	0.041696608
148	0x3d43bcff	0.047787663
149	0x3dac059d	0.08399508
150	0x3cf9616c	0.030441962
151	0xbd87a34f	-0.066229455
152	0xbd78c7b5	-0.06073733
153	0xbba86cdf	-0.0051399316
154	0x3d2cd67b	0.042196732
155	0xbd7ade6b	-0.06124727
156	0xbd4a658f	-0.04941326
157	0xbd5f3b36	-0.054499827
158	0x3db21a50	0.08696425
159	0xbc98e859	-0.01866548
160	0xbcc6424b	-0.024201533
161	0x3d09038e	0.033450656
162	0x3cba0fd6	0.02271263
163	0xbda71929	-0.08159096
164	0xbd981175	-0.07425205
165	0xbccfab6b	-0.025350293
166	0x3d1a36d3	0.03764994
167	0xbd78defe	-0.060759537
168	0x3cb53b3a	0.022122968
169	0x3d323802	0.043510444
170	0x3c8d7038	0.017265424
171	0x39368409	0.0001740606
172	0xbc1ca893	-0.009561676
173	0x3dabab83	0.08382323
174	0x3cc50eb0	0.024054855
175	0xbd9a1a78	-0.0752458
176	0xbd8447d7	-0.06459015
177	0x3d22a890	0.039711535
178	0xbd45a705	-0.048254985
179	0x3d74674d	0.059668828
180	0x3c8bd213	0.017067945
181	0xbc34c882	-0.011034133
182	0xbd84fd94	-0.06493679
183	0x3cc39bcd	0.023878003
184	0xbd80658c	-0.062693685
185	0xbc8107bc	-0.015750758
186	0x3d8c6600	0.068553925
187	0xbc999860	-0.018749416
188	0x3c9a0b34	0.01880417
189	0xbd4beda0	-0.049787164
190	0xbd4c092b	-0.04981343
191	0xbd59676d	-0.05307715
192	0x3b097096	0.0020971647
193	0xbcd1a7df	-0.025592742
194	0x3d38daf2	0.045130678
195	0x3be2bc39	0.0069194105
196	0x3d836c2a	0.06417115
197	0xbd1fd006	-0.039016746
198	0xbd353899	-0.04424343
199	0x3da2d6df	0.0795114
200	0xbd8fdc46	-0.07024436
201	0x3d8f39f6	0.06993477
202	0x3d943530	0.07236707
203	0x3c8f7cfd	0.017515654
204	0x3d0a7b6b	0.033809107
205	0xbdb19932	-0.08671798
206	0x3da2e453	0.07953706
207	0x3d8c77fb	0.06858822
208	0x3da946a4	0.08265427
209	0x3ccfd579	0.025370346
210	0x3c9cb991	0.019131454
211	0x3d9f86ad	0.07789359
212	0xbcf0205c	-0.029312305
213	0xbd4d3291	-0.050097052
214	0x3c932a07	0.017964376
215	0x3ce65bf4	0.028120019
216	0x3d566f7a	0.052352406
217	0x3cc8e8c3	0.024525052
218	0x3d4af660	0.049551368
219	0x3d8ef344	0.06979993
220	0x3da3ff84	0.0800772
221	0xbcab7a49	-0.020932334
222	0xbd99eb89	-0.07515628
223	0xbc7f24bf	-0.015572726
224	0x3c862411	0.01637462
225	0xbdaede86	-0.08538537
226	0x3cd12794	0.025531568
227	0xbd39156a	-0.045186438
228	0x3d2bd811	0.041954104
229	0x3da360fa	0.07977481
230	0xbda89699	-0.08231849
231	0x3d5de6c0	0.05417514
232	0xbd8578cf	-0.06517183
233	0xbd6a367b	-0.057180863
234	0x3acaede6	0.0015482276
235	0x3d915332	0.07095946
236	0xbda1518b	-0.07876881
237	0xbd4cde23	-0.050016534
238	0xbd1b8972	-0.037972875
239	0x3d82b623	0.06382396
240	0xbd0a2c70	-0.033733785
241	0xbd2e6ea9	-0.042586002
242	0x3c158f5a	0.009128416
243	0xbdb0f975	-0.0864133
244	0xbcf24e8a	-0.029578466
245	0xbbd3e53f	-0.0064665372
246	0xbc863cc1	-0.016386392
247	0xbbfea1ee	-0.0077707684
248	0x3da7614c	0.08172855
249	0xbc20b5c8	-0.009808965
250	0xbca9c4cf	-0.020723728
251	0xbd87b137	-0.06625598
252	0xbd8faed5	-0.070157684
253	0xbd9081f2	-0.07056035
254	0x3d84f020	0.06491113
255	0x3ca240ad	0.01980623

decoder.0.bias f4 [32]
0	0xbcbb519c	-0.022866063
1	0xbd95bbb1	-0.0731119
2	0xbcbf5fc1	-0.023361089
3	0x3ce411e1	0.027840557
4	0x3e2a37f3	0.16622905
5	0x3e2b5f48	0.16735566
6	0xbc79524d	-0.015217376
7	0xbc02662a	-0.007958928
8	0x3b002612	0.0019553942
9	0xbd8e0212	-0.06933989
10	0xbd3afcd1	-0.04565126
11	0xbd9d3d8f	-0.07677757
12	0xbce48efd	-0.027900213
13	0x3e148bb4	0.14506418
14	0x3cee9bf4	0.029127099
15	0x3e4bdab1	0.19907643
16	0x3ddc750c	0.107645124
17	0xbd2b4bc5	-0.041820306
18	0x3e42e8d0	0.19034123
19	0xbd1cabb5	-0.03824969
20	0x3dab1068	0.083527386
21	0x3e070c28	0.13188231
22	0x3da571ff	0.08078384
23	0x3b848d88	0.004045192
24	0xbcb28181	-0.021790268
25	0xbdbd4bab	-0.09242948
26	0xbdee5919	-0.11638088
27	0xbb4904df	-0.003067307
28	0xbd2c19f5	-0.042016942
29	0xbcd6ac3f	-0.02620518
30	0x3e5195af	0.20467256
31	0x3e0b2c48	0.1359111

decoder.2.weight f4 [8, 32]
0	0xbd29352f	-0.041310485
1	0x3d5f70ce	0.05455094
2	0xbd8f3ef4	-0.06994429
3	0x3e24989d	0.16073842
4	0xbc795150	-0.01521714
5	0x3d99bf00	0.075071335
6	0xbdff994c	-0.12480411
7	0x3e1ff3a4	0.15620285
8	0xbddbf36c	-0.107397884
9	0xbe23990a	-0.15976349
10	0x3d1abb20	0.037776113
11	0xbdcf0da4	-0.101100236
12	0xbe103901	-0.14084245
13	0xbd337ce1	-0.043820266
14	0xbd4343f6	-0.047672234
15	0xbe010cfd	-0.12602611
16	0xbe24984b	-0.1607372
17	0xbd1e9053	-0.038711857
18	0xbe0491a5	-0.12946184
19	0xbd86c27b	-0.06580063
20	0xbe04459c	-0.12917179
21	0x3e142fb1	0.14471318
22	0x3d3698d7	0.044579353
23	0x3cb57e9e	0.022155102
24	0xbcd3cbaa	-0.02585395
25	0xbe22b190	-0.15888047
26	0x3dc811e3	0.097690366
27	0x3d3c12ca	0.045916356
28	0xbd931c9e	-0.07183193
29	0xbe1dbdaa	-0.15404382
30	0x3e2d9aa9	0.1695353
31	0xbdd724d5	-0.10505072
32	0xbeceb977	-0.40375873
33	0x3d92f7d6	0.07176177
34	0x3d7837fb	0.060600262
35	0x3d7b166d	0.061300684
36	0x3ecf9436	0.40542763
37	0x3e966a55	0.29378
38	0x3e9b55ee	0.30338997
39	0x3ec4e3f4	0.38455164
40	0x3eb61a28	0.3556683
41	0x3e18769c	0.14888996
42	0xbdd02090	-0.10162461
43	0x3d17d4c1	0.037068132
44	0xbdc15715	-0.09440438
45	0x3e7537aa	0.23947015
46	0xbed87457	-0.4227626
47	0xbd22fa46	-0.03978946
48	0xbd9d864c	-0.07691631
49	0xbcf25017	-0.029579205
50	0x3ddb22c0	0.106999874
51	0x3d0cfdde	0.034421794
52	0x3e53b2af	0.20673631
53	0x3e86377e	0.26214212
54	0x3e6bc7bd	0.23025413
55	0xbed2c3a1	-0.41164878
56	0xbe074a9e	-0.13212058
57	0xbe2268b4	-0.15860254
58	0x3dd2e7e4	0.10298136
59	0xbe188f41	-0.14898397
60	0xbc4809fe	-0.012209414
61	0xbc36d880	-0.011160016
62	0x3e83d5b1	0.2574897
63	0x3e97bf1d	0.29637995
64	0x3e74d82f	0.23910592
65	0x3d71e688	0.059057742
66	0xb98e3213	-0.0002712166
67	0xbdd11560	-0.10209155
68	0xbdf44651	-0.11927474
69	0x3e715722	0.23568395
70	0xbddb5ebf	-0.10711431
71	0xbd5cc4a2	-0.05389846
72	0xbe8896e0	-0.26677608
73	0xbd20ceed	-0.03925984
74	0xbb88421b	-0.004158271
75	0xbc0c93ab	-0.008580129
76	0x3d6c52cd	0.057696152
77	0x3db0939d	0.08621905
78	0x3f00a42b	0.502505
79	0x3e962538	0.2932527
80	0x3e450a25	0.19242151
81	0x3bba50a6	0.0056858836
82	0x3e7eafc1	0.24871732
83	0xbe1557e3	-0.14584307
84	0x3dcf23bc	0.10114238
85	0x3e1b3f16	0.15160784
86	0xbdad6fb8	-0.08468574
87	0xbd9da001	-0.07696534
88	0x3dcac0c2	0.09900047
89	0xbd861b04	-0.065481216
90	0xbdae1af3	-0.08501234
91	0xbd456947	-0.048196103
92	0xbd6113f7	-0.05495068
93	0xbdce9a04	-0.1008797
94	0x3e3391e0	0.17536116
95	0x3e8482b3	0.25880966
96	0xbdd6eb6a	-0.104941204
97	0xbdfe6e4a	-0.1242338
98	0x3e24ff0d	0.16112919
99	0xbdb5acd6	-0.088708565
100	0xbe23b7a2	-0.15988019
101	0xbe27e0f3	-0.16394405
102	0x3dd7a277	0.105290346
103	0xbde1380f	-0.109970205
104	0x3df13be9	0.11779005
105	0xbe13c52f	-0.14430688
106	0x3e242bc3	0.16032319
107	0xbd4caae9	-0.04996768
108	0xbce69d56	-0.028151195
109	0xbc434f6a	-0.011920789
110	0xbd12b173	-0.03581376
111	0xbe4baa33	-0.19889145
112	0xbdb228a9	-0.086991616
113	0xbe007e2e	-0.12548134
114	0x3d0cadd4	0.034345463
115	0x3d99921c	0.07498571
116	0xbe5bce77	-0.21465479
117	0x3d82a8a1	0.0637982
118	0x3c99e147	0.018784178
119	0xbe21cfb6	-0.15801892
120	0x3e11f2c9	0.14252771
121	0xbe29c2d8	-0.16578233
122	0x3d98a779	0.07453818
123	0x3d13c5ff	0.036077496
124	0x3d3b3de9	0.04571334
125	0xbe1eb207	-0.154976
126	0x3d40f8b6	0.04711219
127	0xbe0f6abe	-0.14005563
128	0x3d747644	0.0596831
129	0xbdde28ff	-0.10847663
130	0x3d3336fa	0.0437536
131	0x3e0f0678	0.13967311
132	0x3dfd478a	0.123671606
133	0x3c7a68e4	0.015283797
134	0x3daeefdb	0.085418426
135	0x3e2cf4e3	0.16890292
136	0xbcd7f8d0	-0.02636376
137	0x3dc633c3	0.096778415
138	0x3e30d2bc	0.17267889
139	0xbddd8793	-0.10816874
140	0x3dc47c11	0.09593976
141	0xbca77a3a	-0.020444024
142	0x3df18512	0.11792959
143	0xbdb98e6e	-0.090603694
144	0xbde0a2ad	-0.10968528
145	0xbdd24675	-0.10267345
146	0xbd9be0d8	-0.07611245
147	0xbe1eccdc	-0.15507835
148	0x3da9388d	0.08262739
149	0x3c53ae75	0.012920012
150	0xbe28b057	-0.16473518
151	0x3ddb1bce	0.10698663
152	0xbd229f1a	-0.039702512
153	0x3e2fa386	0.17152223
154	0x3e1c7e0c	0.15282458
155	0xbe1a415c	-0.15063995
156	0xbcde1e35	-0.027114013
157	0x3ddd3107	0.10800367
158	0xbe3048d8	-0.17215288
159	0xbe0c329d	-0.13691182
160	0x3c97370e	0.01845887
161	0x3d2ef715	0.042716105
162	0xbdb62918	-0.08894557
163	0x3e181bec	0.14854401
164	0x3e02f7f6	0.12789902
165	0xbe170b26	-0.14750347
166	0xbe02b5ab	-0.12764613
167	0xbe1e69da	-0.15470067
168	0x3c1c1322	0.009526046
169	0xbe2cb883	-0.1686726
170	0x3dedf5a8	0.11619121
171	0xbe069e57	-0.1314634
172	0x3cbd42c0	0.023103118
173	0xbe3edfcb	-0.18640058
174	0xbdb04a3b	-0.08607908
175	0xbddb3949	-0.10704286
176	0xbdd785d0	-0.105235696
177	0xbdea47b9	-0.11439461
178	0x3de2edd0	0.110805154
179	0xbd846765	-0.064650334
180	0xbdfd368f	-0.12363922
181	0x3e04c5d4	0.1296609
182	0xbdfcc1c8	-0.12341648
183	0xbdda2dd7	-0.106532745
184	0xbe0a5a29	-0.13510956
185	0xbccafaa0	-0.02477771
186	0xbe19a888	-0.15005696
187	0x3dbd00b9	0.092286535
188	0x3d90df89	0.07073886
189	0xbe157aab	-0.14597575
190	0xbe297d16	-0.16551623
191	0xbd5e5684	-0.054281726
192	0x3e5d0c91	0.21586825
193	0xbcdd0824	-0.02698142
194	0x3db0e7f2	0.0863799
195	0x3d0af7c7	0.033927705
196	0xbcd74333	-0.02627716
197	0xbd90d6ae	-0.07072197
198	0x3e0cadb1	0.13738133
199	0xbe1bda8c	-0.15220088
200	0x3dba19d8	0.090869606
201	0x3d0b2abf	0.033976313
202	0x3ddaccb9	0.10683579
203	0xbe2c337f	-0.16816519
204	0x3e032d60	0.12810278
205	0x3cb34dc4	0.021887667
206	0x3e812efb	0.25231156
207	0x3dccc5e1	0.0999868
208	0xbdd47773	-0.10374346
209	0x3dd6e586	0.10492997
210	0xbd957501	-0.07297707
211	0xbc889f9f	-0.016677676
212	0x3db8874c	0.09010181
213	0x3da9821f	0.08276772
214	0xbe79f7dd	-0.24410959
215	0x3d7aa218	0.06118974
216	0x3d6658a9	0.056236897
217	0xbd69bd85	-0.057065506
218	0xbded690a	-0.115923
219	0x3ca2d306	0.019876014
220	0xbe087f15	-0.13329728
221	0xbda09a64	-0.07841948
222	0x3d900c69	0.07033617
223	0xbdf12521	-0.1177466
224	0xbe4d4c84	-0.2004872
225	0xbd7f0b4d	-0.062266637
226	0xbb87a1f3	-0.004139179
227	0xbdfda452	-0.12384857
228	0xbd892425	-0.06696347
229	0x3dcd1f98	0.10015792
230	0xbdda5eec	-0.10662636
231	0x3d620c18	0.055187315
232	0x3dd43a21	0.1036265
233	0xbd4d0ad6	-0.050059162
234	0x3df99f7b	0.121886216
235	0x3cc05cc6	0.023481738
236	0x3e34d6ed	0.17660113
237	0xbe51acb8	-0.20476043
238	0x3e02a6c0	0.12758923
239	0x3de8e972	0.11372651
240	0x3d0f009f	0.0349127
241	0x3d90970a	0.070600584
242	0xbe1fbd99	-0.1559967
243	0xbd826935	-0.06367723
244	0xbd9f84d5	-0.077890076
245	0x3de98952	0.11403145
246	0x3dd05e92	0.10174288
247	0xbcd156bd	-0.025554055
248	0x3e23de90	0.1600287
249	0xbdf82f37	-0.121183805
250	0x3e02ec46	0.12785444
251	0x3da40ab8	0.08009857
252	0xbd92847d	-0.071541764
253	0x3cc0c3e0	0.0235309
254	0x3e14e5ae	0.14540741
255	0x3b15aad9	0.002283743

decoder.2.bias f4 [8]
0	0xbd76b74f	-0.06023341
1	0x3d99d5fb	0.07511517
2	0x3e0599b0	0.13046908
3	0x3dabe5e6	0.08393459
4	0x3c68d638	0.01421123
5	0x3df33eea	0.11877234
6	0x3d614d29	0.055005226
7	0xbe3a97b1	-0.18221928

decoder.4.weight f4 [2, 8]
0	0xbd3a0174	-0.045411542
1	0x3f098c73	0.53729934
2	0x3e6964ae	0.22792313
3	0xbdd565e3	-0.10419824
4	0xbe9464f1	-0.28983262
5	0x3d6855f0	0.05672258
6	0xbe35eac6	-0.1776534
7	0xbd3efa6f	-0.04662555
8	0x3e13b8be	0.14425942
9	0xbeaff7a9	-0.34368637
10	0x3f0bc398	0.5459533
11	0xbd2b0066	-0.041748427
12	0x3e73ca69	0.23807682
13	0xbe04e11b	-0.12976496
14	0xbbfa78d5	-0.007643799
15	0x3eaa74e0	0.33292294

decoder.4.bias f4 [2]
0	0xbe87998a	-0.26484329
1	0x3e620a8b	0.22074334
