checkpoint.pt (torch, 37639 bytes, 8 tensors)

transmitter.0.weight f4 [64, 2]
00000000: 7eef 0abf c827 223f 97bb 1d3f 5cb1 773e
00000010: 6334 6dbe aa1c efbe 42ff c33e cc0d 09bf
00000020: 8a89 263f 5b7a b43b fb27 2ebf b141 313f
00000030: 65c0 71be bb38 3c3e 9ed9 9b3d 1604 f0bd
00000040: b414 d3bd bdf1 18bd 44f4 d8be e572 653e
00000050: effd babd b9a1 a3be 506f ecbe 4bfd b0be
00000060: cbb9 dfbe 699d aabd a3ff 75bd 4607 0a3d
00000070: 9a6e 6f3e 669c 903d a1d8 a23d cf38 2b3f
00000080: 62cf e9be 9a75 df3e 27da c0be 288b 1fbf
00000090: be46 2abf a045 463d 5ef3 91be ef84 a03d
000000a0: 2aa6 ebbe 138b 1fbf 3438 893e abb9 003f
000000b0: db80 e83e 5383 8f3c e565 f73e 7c38 dabd
000000c0: 5013 0bbf b96c 233e 37b3 87be 19fe b4be
000000d0: 29b5 66be 2be5 873d 4959 84bd 3012 d23e
000000e0: db13 763e 916f d3be 7d5f 773e c586 ff3e
000000f0: 116d 003f ff6d e2be acd4 483e eb34 25bf
00000100: 1341 ee3e 856a 1e3f ffb5 f5be be78 d83e
00000110: 0170 33bf 8582 823e d24b 5abe ab84 d1be
00000120: 18eb 7c3e a7e4 a63e cb0e 89be 61c8 d23c
00000130: 3148 8f3d 67d4 c9be 8609 28bf 8c55 29bf
00000140: 8bd1 bc3e bca2 ca3e af80 82be 4c3b 1abf
00000150: a0eb d43e 629e c5be cbb1 0bbf 7c18 34bf
00000160: 145a 25bf 4059 5f3e 6eaf 153f 54d4 c63e
00000170: 49e6 243f 1a25 213f eb94 94be 218c 23bf
00000180: f56a 063f 2cdd 6bbd 715b 08bf 4311 cbbe
00000190: 0be4 8bbe ebde d4be dbcc b6be 7443 d4be
000001a0: 85fd e3be 2a3b 613e 7527 503e feb2 773e
000001b0: c181 1bbf 70e1 493e 05cd 0abe f092 e53e
000001c0: 72bb 00bf cf4e b3be 5aa8 323f eccf 2ebf
000001d0: 7163 863d a8e0 29bf 1665 c3bd 1c71 e63e
000001e0: ff8f a63d bb8b 333e 86d2 cbbe 84f5 233f
000001f0: 4441 c53e dcfd 32bf 5e70 d2be 49e4 f23e
-0.54271686 0.6334195 0.61614364 0.24188751 -0.23164515 -0.46701556 0.38280684 -0.5353668
0.6505362 0.00550775 -0.68029755 0.6924086 -0.23608549 0.18381016 0.076098666 -0.11719529
-0.10306683 -0.037339915 -0.4237386 0.2240711 -0.09130465 -0.31959322 -0.46178675 -0.34568247
-0.43696436 -0.08330805 -0.060058247 0.033698343 0.23382035 0.07061081 0.07951475 0.6688356
-0.45666033 0.4364441 -0.37666437 -0.6232171 -0.66514194 0.048406243 -0.28505987 0.07837855
-0.4602521 -0.62321585 0.26800692 0.50283307 0.4541081 0.017518675 0.48319927 -0.10655305
-0.54326344 0.15959443 -0.26503918 -0.3535011 -0.22530045 0.06635507 -0.06462342 0.410295
0.24031012 -0.41296056 0.2415752 0.49907508 0.5016642 -0.44224545 0.19612378 -0.6453387
0.46534023 0.61881286 -0.47990415 0.4227962 -0.7009278 0.25490203 -0.21317986 -0.4092153
0.24699056 0.32596323 -0.267691 0.025730314 0.06996191 -0.39419863 -0.6563953 -0.6614616
0.3687862 0.3957728 -0.25488803 -0.6024673 0.41586018 -0.385974 -0.54568166 -0.7034986
-0.64590573 0.2181139 0.5847081 0.38833869 0.6441389 0.6294724 -0.29019865 -0.63885695
0.52506953 -0.057583973 -0.5326453 -0.39661607 -0.2732242 -0.41576323 -0.35703167 -0.41457713
-0.44529358 0.21995226 0.20327552 0.24189374 -0.60744864 0.19714904 -0.13554771 0.44838667
-0.5028602 -0.35021064 0.69788134 -0.68286014 0.06561936 -0.66358423 -0.09540765 0.4500817
0.08132934 0.17533772 -0.39809054 0.640465 0.38526356 -0.6991861 -0.41101354 0.47439793

transmitter.0.bias f4 [64]
00000000: 3582 bdbe ad6b 14be 4abf 9fbe b8d6 953e
00000010: 3d96 4e3e 3831 323f 01ca c33e f950 afbe
00000020: 2705 c53e ded3 d0be 3a00 08bf 04a5 f9be
00000030: 4b92 c8be f361 1dbe 7f4f ed3e 426d 223f
00000040: fb8d 273f d276 45be 9938 243f 34c3 34bf
00000050: a9ee 8b3e cf9f 11bf ffd7 18be c378 aabe
00000060: 5858 1d3f 9562 d73e bc48 d83e 0893 c83e
00000070: c497 febe 14f4 363e 3182 f9bd 5765 aa3e
00000080: 3b38 cbbd 806a 2e3e 930a 82be 0d8c 233f
00000090: 7a70 28be 8ce4 be3e b9fe ee3d 1e74 5bbe
000000a0: 3fde 093f a711 eabe a1e6 99be 93d9 81bd
000000b0: 6879 b03c 655a 2cbf a0f7 5e3e 8c9f b4be
000000c0: 54fa 17bf b88f 87be de60 323e 7c55 84be
000000d0: 9eca 89be 0a52 033f 015b 283f 47b9 cbbe
000000e0: 395d 2a3f 6d36 acbd 4e4f 07bd 8c05 82bd
000000f0: e909 483e dc4f 20be 7cca 9e3e 8a25 03be
-0.37013403 -0.144942 -0.3120063 0.2926538 0.20174499 0.6960635 0.38240054 -0.34241465
0.38480493 -0.40786642 -0.53125346 -0.4875871 -0.39174113 -0.15369396 0.46349713 0.63447964
0.6545102 -0.19283608 0.6414886 -0.70610356 0.2733052 -0.56884474 -0.14926146 -0.3329526
0.61462927 0.420674 0.42242992 0.39174676 -0.49725163 0.17866546 -0.12183035 0.3328044
-0.099228345 0.17032814 -0.25398692 0.63885576 -0.16449156 0.37283742 0.11669678 -0.21431014
0.53854746 -0.45716593 -0.30058768 -0.06340327 0.021542266 -0.6732543 0.21774149 -0.35277975
-0.59366345 -0.26476836 0.17419764 -0.2584647 -0.26912397 0.51297057 0.6576386 -0.39789793
0.66548496 -0.084088184 -0.033034615 -0.06348714 0.1953503 -0.15655464 0.31013858 -0.12807289

transmitter.2.weight f4 [64, 64]
00000000: 12de c23d cecd 9ebd 8c3d 3b3d a4f5 283d
00000010: 408f 7abb a030 90bc 283b 49bd 0023 333a
00000020: 9012 c6bc 9e16 c8bd e02b 8e3b d04e 49bd
00000030: a88f 4bbd d4ba fc3d 0078 24ba 744a 443d
00000040: ce9a d9bd 6817 b23c 7836 a7bd febb fb3d
00000050: 6c4c ddbd 2241 c43d 3e1b ba3d 7814 ab3c
00000060: d4ba 563d 9c3d 96bd a096 47bc 360f 96bd
00000070: 38fd 9bbd 40e2 1e3c 04e1 5b3d 40b9 663b
00000080: f0c6 413d 3860 48bd 8246 843d a0fa 9d3b
00000090: 34ed 013d 062e ed3d 84df 2bbd ba8e d23d
000000a0: c419 7fbd a20c e53d 5806 ed3d 6adf 823d
000000b0: 9c66 733d 3c3d 51bd d234 c83d 103f 163c
000000c0: 2089 a8bc d87a d5bd ea7b 9c3d 70b6 463c
000000d0: 80b3 923a daa5 abbd ec94 9e3d 5841 373d
000000e0: 5844 b03c 9e22 8bbd 400d 293b c637 c0bd
000000f0: 3069 0a3c 863d b23d 82aa b93d 84f7 613d
00000100: 2035 f3bb c664 c1bd 4c80 e43d 3cc1 f93d
00000110: c8cd a03d ccce ad3d 083c f33d 2278 8c3d
00000120: d076 3e3d a0b4 53bd 2026 673c 8c55 473d
00000130: e02b 6abd c0b6 c7bd f4ca 39bd 3e69 b23d
00000140: 34b2 973d 1039 263c b49e a3bd 3c26 7a3d
00000150: 0289 febd beba a13d d40b 53bd 3420 ca3d
00000160: dcd3 5bbd 0012 c9b9 daa3 bd3d b8e8 6cbd
00000170: e294 a4bd ea6d 8f3d bc11 c13d 7268 93bd
00000180: f8b9 8dbc 6aa7 cb3d 4c22 f1bd 5e81 a43d
00000190: 00ad 59ba 6edc ec3d 3cd0 c23d a4b6 113d
000001a0: 8a51 81bd f04d 2bbc 7c07 66bd a0f6 b9bc
000001b0: e0d9 2e3d 8801 75bd fc79 ea3d 3ae3 b93d
000001c0: 42fa b23d e08a 203c b89e 683d 08bf b1bd
000001d0: 58e2 f5bc 1cc4 65bd 7604 de3d 1e81 e5bd
000001e0: 48aa 863c 08a5 fe3d 88ce 16bd 543d b8bd
000001f0: 4861 50bd e466 0dbd 2632 c9bd 0098 87bd
00000200: e8ed b53d 801b 81bb c8e0 ffbc ec61 f93d
00000210: e030 d5bb 08de 7e3d 8ebf 90bd 16cc be3d
00000220: c410 d8bd e692 f5bd 38d0 d63d d4ac dcbd
00000230: dc16 fd3d 4839 9dbd 1888 613d 60a8 bcbb
00000240: e81a 853d d46f e8bd 7a95 a8bd b0a2 86bd
00000250: ac60 f03d e023 fabc 0813 c9bc f0da c83d
00000260: 802c a33a acdf b43d 62d1 b03d 2229 ba3d
00000270: 3cce af3d 5e61 fcbd 2cdf 11bd e056 64bc
00000280: 98aa 913c a800 b5bd 8072 9c3c 10d1 903c
00000290: 64de a6bd ea57 ef3d 807d 4abd c087 293b
000002a0: 58d4 8b3d a897 093d 5051 c13c 90e1 b33c
000002b0: 9a87 d43d 4896 703d 0ec0 a5bd 18a3 d7bc
000002c0: 003b a73b 6a4a ccbd e03d aebd 90dc bdbd
000002d0: e890 b73d 9e68 c53d ee24 a93d 6cd9 b4bd
000002e0: 2cc9 94bd b4a3 e5bd a001 8cbb 381d adbc
000002f0: 0049 5a3c 2c9e 7b3d 9e6c dc3d 10a7 b9bc
00000300: c05f 5cbd 3870 1a3d ace1 353d d021 9a3c
00000310: a878 95bd 44aa e13d e819 b0bc e86d 903d
00000320: dc30 d7bd a020 03bd 20ad c9bd 0244 c8bd
00000330: 1047 c8bc 8017 a7bb ec47 47bd 4078 983b
00000340: cc10 2cbd a887 6b3d dc3e e33d c0de 063c
00000350: 50bb 9cbd a0cd 983c 6028 973b a0f1 a9bd
00000360: 00b0 7a3b c040 9e3c 7019 603c eafe a23d
00000370: 5842 14bd e041 a5bd ca02 c1bd b812 6cbd
00000380: d82f 54bd 1c8a 5e3d dc6a 433d 6427 683d
00000390: 60e2 59bd 744d 473d c230 cdbd f0ec 65bd
000003a0: fa8f df3d a879 c73c 22a2 9b3d a8bf c5bc
000003b0: 9499 843d 721e d6bd d483 dfbd 4887 bcbc
000003c0: 8826 b83d bcdf c4bd 68f1 ab3c 30d2 053c
000003d0: 90f9 1b3d 5033 8f3c 44d1 ddbd 1ca5 713d
000003e0: 8a4e a93d d0d4 643c 60c7 973b 3420 a8bd
000003f0: 98d1 bbbd 82e5 b7bd 08a6 2f3d c453 9d3d
0.09515013 -0.07754098 0.045712993 0.041249886 -0.0038232356 -0.017601311 -0.04912868 0.00068335235
-0.024178773 -0.09769939 0.0043387264 -0.049147427 -0.04969755 0.12340322 -0.0006273985 0.047922567
-0.1062523 0.021739677 -0.08164686 0.12291716 -0.10805592 0.095827356 0.09087227 0.020883784
0.052424267 -0.0733597 -0.012181908 -0.0732712 -0.07616657 0.009697497 0.05368139 0.0035205632
0.047308862 -0.048919886 0.06458761 0.0048211366 0.031720355 0.11581044 -0.041961208 0.10281129
-0.06228043 0.1118405 0.115734756 0.06390269 0.059424028 -0.05108379 0.097757 0.009170309
-0.020573199 -0.10423821 0.07640822 0.012128457 0.0011192411 -0.08381243 0.07743248 0.04474005
0.021516964 -0.06793712 0.002579525 -0.09385638 0.00844793 0.08703141 0.09065725 0.05516769
-0.0074221045 -0.09443049 0.11157283 0.1219506 0.0785175 0.08486709 0.118766844 0.06858851
0.046500027 -0.05168593 0.014108211 0.04866557 -0.05717075 -0.09751654 -0.045359567 0.087114796
0.074070364 0.010145441 -0.079892546 0.06107162 -0.12428476 0.07896946 -0.051524952 0.098694235
-0.05366884 -0.0003835112 0.09259768 -0.057839125 -0.0803621 0.07003386 0.09427211 -0.07197656
-0.01730059 0.09944041 -0.1177412 0.08032487 -0.0008303672 0.11565481 0.09512374 0.03557457
-0.063143805 -0.0104555935 -0.05615948 -0.022700608 0.04268825 -0.059815913 0.11449048 0.09076543
0.08739139 0.009798735 0.05679199 -0.086790144 -0.030015156 -0.056095228 0.108406946 -0.11206268
0.016438618 0.12433821 -0.036818057 -0.089960724 -0.050874025 -0.034521952 -0.09824018 -0.066207886
0.08883268 -0.003940046 -0.031235114 0.1217688 -0.0065060705 0.062223464 -0.07067786 0.0931627
-0.10550073 -0.11990909 0.10488933 -0.10775152 0.12357876 -0.07676941 0.05506143 -0.0057573766
0.064992726 -0.113494545 -0.082316354 -0.06573999 0.11737189 -0.030534685 -0.024545208 0.09807384
0.0012449175 0.088317245 0.086336866 0.09089877 0.08584258 -0.12323259 -0.035613224 -0.013936728
0.01778154 -0.08838016 0.019097567 0.017677814 -0.081478864 0.1168669 -0.049436092 0.0025868267
0.06827611 0.033591896 0.023598343 0.021958143 0.103774264 0.05873707 -0.08093272 -0.026322886
0.005103469 -0.09975131 -0.085078955 -0.092705846 0.089631855 0.09639095 0.08258997 -0.088305324
-0.07264933 -0.112128645 -0.0042726547 -0.021132097 0.013323069 0.06143014 0.107629046 -0.02266267
-0.05380225 0.037704676 0.04440467 0.018814951 -0.07298404 0.11018804 -0.021496728 0.07052213
-0.10507366 -0.032013535 -0.09847474 -0.097785965 -0.024447948 -0.005099237 -0.048652574 0.004653007
-0.042008206 0.05750242 0.11095974 0.008231819 -0.076529145 0.018652737 0.0046129674 -0.082980394
0.0038251877 0.019317985 0.01367794 0.07958777 -0.036196083 -0.08069205 -0.0942436 -0.05763504
-0.05180344 0.05433093 0.04770933 0.05667819 -0.053194404 0.04865785 -0.100190654 -0.056134164
0.10916133 0.024350002 0.07599284 -0.02413924 0.06474605 -0.10455026 -0.10913816 -0.023013726
0.08991724 -0.096129864 0.020989135 0.008167788 0.0380798 0.017480522 -0.1083093 0.05899535
0.08266933 0.013966754 0.0046319216 -0.08209267 -0.09170836 -0.08979322 0.04288295 0.07681993

transmitter.2.bias f4 [64]
00000000: 38da 56bd 562f f83d 6ab1 87bd f4cc b43d
00000010: b078 36bc 4043 063c f2d3 f13d 5446 593d
00000020: c4a9 febd 8426 253d 0417 893d 70a3 963d
00000030: d8f1 f7bd 78aa d83c 48cd bebd d01b babc
00000040: 406b db3d d851 cc3d 38ff 73bd f42f 0dbd
00000050: d06c d0bc 3077 383d d009 953c a484 3ebd
00000060: e486 6bbd a69d a5bd 4ab4 febd 8c83 5d3d
00000070: 42c5 ec3d 60b1 1f3d d897 babc c2a9 ec3d
00000080: 2cc1 073d c0be bfbd 0427 4ebd 7ae1 d6bd
00000090: a054 f53c 4ca6 c4bd 6085 c13c 7283 f4bd
000000a0: b8e4 e53c c0fa 3e3b 18a5 d5bc 70e6 f93d
000000b0: 38aa 03bd 0026 febc a494 c2bd d04e e2bd
000000c0: ecfe 85bd 88d7 75bd a872 bb3d b65e da3d
000000d0: 7a0f e4bd 00be 73bb 309f 3f3d 5872 28bd
000000e0: 4010 293b c63a 9abd 2a7d 883d 18fb fbbd
000000f0: b61d ba3d 5cb3 1dbd 4cd3 0c3d bcbe d93d
-0.052454203 0.121184036 -0.06625636 0.08828154 -0.011137173 0.008194745 0.118080035 0.053045586
-0.12434724 0.040319934 0.06693843 0.07355392 -0.12106675 0.026448473 -0.09316498 -0.02271834
0.10713816 0.09976548 -0.059569567 -0.03446956 -0.02544251 0.04503554 0.018193156 -0.046513215
-0.05750169 -0.0808671 -0.12436731 0.05408053 0.115610614 0.038987517 -0.022777483 0.11555816
0.033143207 -0.093625546 -0.050330177 -0.10492225 0.029947579 -0.09602031 0.023623168 -0.11939134
0.028063163 0.0029141158 -0.0260797 0.122021556 -0.032144755 -0.03102398 -0.09501007 -0.110501885
-0.06542763 -0.06002 0.09152728 0.10662596 -0.111357644 -0.0037192106 0.046782672 -0.04112467
0.002579704 -0.075307414 0.06664498 -0.12303752 0.09087698 -0.03850113 0.034381196 0.10632083

receiver.0.weight f4 [64, 64]
00000000: 9099 613d d680 bfbd 00f6 47bd 808e a63a
00000010: c882 183d 6e71 87bd badf b5bd c0b2 5d3d
00000020: 18f1 f8bc 8234 8d3d f092 dfbd c892 ffbd
00000030: c8dc 31bd ec39 a5bd 4867 7cbd 3c65 533d
00000040: 8cfa 5e3d c024 c2bd f4f7 6bbd 4c00 bc3d
00000050: f8de 4f3d f048 ec3d 005b 88bd 54de abbd
00000060: 22e2 ae3d 0cc6 99bd 020e e03d 58c6 1abd
00000070: ba26 d2bd 307f 543d 4857 273d accf babd
00000080: e2bf babd 0089 29ba 60c0 10bc 607e c4bc
00000090: 584d a3bd 78d6 e93c 808d 0bbc 0093 3f3c
000000a0: d267 d63d a025 5fbc 609f d3bd 68b2 66bd
000000b0: 8055 e5bc 7417 c93d c80a 253d 24cb fcbd
000000c0: f433 1e3d 8824 c7bd 588f 46bd 685f c23d
000000d0: 9c47 e33d 2082 debd f8e8 cbbc 90ec b53c
000000e0: 88fe 7a3d 16d5 cf3d 2cc5 c5bd 78dc d73d
000000f0: 8822 843c 1c67 473d 423d f73d 7644 af3d
00000100: 989b cdbd b000 bd3c 0a72 803d 4276 cfbd
00000110: 10b1 b73c d04b d9bc 007f acbc 300a 703c
00000120: 2af8 9c3d b826 9e3c 42ad ef3d 3cf8 7c3d
00000130: 2a19 fb3d 785e b33c e013 773c 66e8 b6bd
00000140: acc2 c73d 361b c33d 3c29 53bd dc2e 50bd
00000150: b81f bebd e0bb a63c 0aab bbbd a051 67bc
00000160: 08f0 2b3d 5aaf ea3d 4adb adbd 88fb 02bd
00000170: 8a9e d5bd 143d 9bbd dcfa 18bd 3036 24bd
00000180: 1004 373d 002c c93d 3c34 993d eabd 833d
00000190: dcca c13d 3458 213d 7499 463d 3003 c33c
000001a0: 58c5 343d 8202 eebd d0da 6bbd dc35 da3d
000001b0: 80a1 e4bc d28c e0bd a471 febd 746d 1a3d
000001c0: 8255 a1bd c2b3 a7bd 3ee8 8abd 98aa d5bd
000001d0: 4062 ffbd 264a bdbd 2e2d b1bd 0a02 c23d
000001e0: ac90 7c3d 1023 edbc 60fd d9bb f8f3 a93c
000001f0: 8208 813d 60c4 6f3d 349c ecbd d6fb 87bd
00000200: 002f 8a3b 845a 293d 7c39 903d 5ab2 c43d
00000210: a6ac a2bd d0b2 d23c 5c92 1a3d d01a ccbd
00000220: 78d1 da3c 36d6 e03d e8e5 933d 08ac a7bd
00000230: 4415 b43d 406b 23bd 480b 2e3d 6a60 dcbd
00000240: 6a78 ae3d 0a35 d8bd 2693 ac3d 708b 7bbd
00000250: 1c7e 8b3d 4a00 ba3d 50e2 073c 080d d4bd
00000260: 0281 f3bd 189b e33c b087 e83d 7a7e a13d
00000270: 4422 ffbd a83d 923d 9031 0dbd a0be 9fbb
00000280: 042f ebbd 2cbe 7cbd 248a 6c3d d0f3 783d
00000290: 5cd3 353d 3631 d03d a059 023c 7ebc e3bd
000002a0: e4c8 3a3d f032 67bc c855 d53d 3086 9a3c
000002b0: 96f5 fbbd 405d 9ebd 240e 3f3d b871 a13d
000002c0: 2472 9b3d 3c8e 6cbd f052 99bc 1226 dcbd
000002d0: dede cebd dccc 823d 1ce9 c03d 4e30 d2bd
000002e0: 68e2 90bd 40fe 60bd 1a70 8bbd c0df 233c
000002f0: e099 ed3d a614 f73d 7cf6 afbd 7807 a23d
00000300: b0b6 c0bd 80f2 993a 5051 44bc 40da be3c
00000310: 144d 1dbd 9c8d edbd 8cfe d4bd 4eb7 f0bd
00000320: 822e e13d 921f e83d a0ed bcbd a0e4 843c
00000330: b8d7 cebc c0c0 c7bd e28c 9a3d c832 13bd
00000340: 9432 853d 9423 5e3d 58b5 ca3d b458 fdbd
00000350: 90f1 413d e293 a73d 10f3 a6bd b691 b83d
00000360: fcc2 d6bd e09d 013c ae06 c03d 3003 b33c
00000370: 5c8c 883d 70b3 c73c f499 b7bd 5409 c63d
00000380: b421 6ebd 1681 aabd d879 ebbd 186e dd3c
00000390: ea21 c23d cc24 88bd f40c 74bd c087 633c
000003a0: 4c7f 88bd dc39 2ebd b0d8 913c f82f afbd
000003b0: 7ac0 e3bd 4cd0 c83d 049d bcbd 12cf be3d
000003c0: 749a d33d 4003 7ebc 1801 2b3d 58fa 3b3d
000003d0: 0afe a9bd a8da 8b3d 488b c73c d8bc b53c
000003e0: 069a b0bd 80cd a0bc 281c 4a3d 7ca9 673d
000003f0: 0410 78bd 6c77 5d3d ba60 c33d 1817 ea3c
0.05507809 -0.093507454 -0.04881859 0.0012707263 0.037234098 -0.06613432 -0.08880563 0.054125547
-0.0303884 0.06894781 -0.10916698 -0.12479168 -0.043423444 -0.08067688 -0.061621934 0.051610216
0.05443816 -0.09479666 -0.057609513 0.09179744 0.05074975 0.11537349 -0.06657982 -0.08392015
0.08539225 -0.075084776 0.10940172 -0.03778681 -0.10261293 0.051879108 0.040854722 -0.091216415
-0.0911863 -0.0006467253 -0.008834928 -0.023986042 -0.079737365 0.02854465 -0.008517623 0.011692762
0.10469021 -0.01361981 -0.10333133 -0.056322485 -0.027994871 0.098189265 0.040293485 -0.123434335
0.038623765 -0.09723765 -0.048476547 0.094908535 0.11097643 -0.10864663 -0.024891362 0.022207528
0.061277896 0.10148065 -0.09656748 0.10540098 0.016129747 0.048682317 0.12072231 0.0855798
-0.10039443 0.023071617 0.06271751 -0.10129978 0.022423297 -0.026525408 -0.021056652 0.014650866
0.07664521 0.019305572 0.11702968 0.061760172 0.12260659 0.021895632 0.015080422 -0.08931045
0.097539276 0.095266744 -0.051552996 -0.05082594 -0.092833936 0.020353258 -0.091634825 -0.014118582
0.04197696 0.11459227 -0.08489092 -0.03197816 -0.104306296 -0.07580009 -0.037348613 -0.04009074
0.04468161 0.098228455 0.07480666 0.064327076 0.094625205 0.039390758 0.048486188 0.02380523
0.044133514 -0.11621572 -0.057581723 0.10654804 -0.02790904 -0.10964359 -0.12424019 0.03770204
-0.078776374 -0.08188583 -0.06782578 -0.10432929 -0.124699116 -0.09242658 -0.086511955 0.09473045
0.061661407 -0.028947383 -0.006652519 0.020746216 0.06300451 0.058536887 -0.11553231 -0.06639831
0.0042170286 0.041346088 0.07042214 0.0960433 -0.07943086 0.02572003 0.037737235 -0.099660516
0.02671121 0.109783575 0.072215855 -0.08187109 0.087931186 -0.039897203 0.042491227 -0.10760577
0.08519061 -0.105569914 0.08426504 -0.061412275 0.06811163 0.090820864 0.008293703 -0.10354048
-0.11889841 0.027783915 0.11354005 0.078854516 -0.124577075 0.07140666 -0.034471095 -0.004875019
-0.11483577 -0.0617048 0.05774893 0.060779393 0.04439102 0.10165636 0.007955939 -0.111199364
0.04560174 -0.014111266 0.10416752 0.018862814 -0.12302701 -0.0773263 0.046644345 0.07883018
0.0759013 -0.057752833 -0.018716305 -0.10749449 -0.10101102 0.0638673 0.09419462 -0.1026312
-0.070744336 -0.05492997 -0.06808491 0.010002077 0.11601615 0.12064485 -0.08591935 0.07911581
-0.09409845 0.0011745244 -0.011982277 0.02329743 -0.038403586 -0.115992755 -0.104001135 -0.117537126
0.10995199 0.113341466 -0.09225011 0.016222298 -0.025249347 -0.09753561 0.075464025 -0.0359371
0.06503788 0.05423315 0.0989787 -0.123704344 0.047349513 0.08182503 -0.08151829 0.09012167
-0.10486409 0.0079111755 0.09376274 0.021852106 0.066673964 0.024377555 -0.08964911 0.09669748
-0.05813761 -0.083254024 -0.11497849 0.027030036 0.09479125 -0.066476434 -0.059582666 0.013887346
-0.06664905 -0.042535648 0.01780352 -0.08554071 -0.11120696 0.098053545 -0.09209636 0.09316839
0.10332194 -0.015503705 0.04174909 0.045893043 -0.08300407 0.06828815 0.024358407 0.022184774
-0.08623128 -0.01962924 0.04934326 0.056558117 -0.06056215 0.054068968 0.095399335 0.028575465

receiver.0.bias f4 [64]
00000000: f8ec 1fbd 78be 4fbd dcb1 453d a077 0abd
00000010: 5232 ef3d d83d 62bd 1814 813d 6278 eb3d
00000020: 08fb e1bc bafe dabd 8e62 ffbd e06b ea3c
00000030: 60ae cf3b 8859 d13c 4c0f 003d 40f3 403b
00000040: ae47 c6bd 760c a53d 403e 7abc 526a ecbd
00000050: 606d 8a3c 5829 99bd ceea d23d a8cc f13c
00000060: 1e45 dd3d b898 743d 302d 263d 0e0d f63d
00000070: 503a bfbd 1c42 8dbd 4073 693c 24d9 003d
00000080: da8e ad3d 98ae bc3d 00ce 733a 3e62 d9bd
00000090: 6a46 973d fc4b 53bd 1832 e03d 4edf babd
000000a0: 9c18 803d 3e2c 9d3d 9eba fa3d b262 a3bd
000000b0: 14d9 a03d c451 d8bd 52a5 aa3d 9eeb e0bd
000000c0: 60a6 b23b a488 0fbd 4ec7 87bd 985c 8abd
000000d0: f025 9b3c 8809 95bc 9ea1 febd 9070 043c
000000e0: 2868 8dbd f869 bbbd fa03 d83d e06b 2dbc
000000f0: 40a6 a9bb 4049 ddbb 401f a13b e67b 8bbd
-0.03904435 -0.050718755 0.048265323 -0.03380549 0.1167952 -0.05523476 0.06302661 0.114975706
-0.027585521 -0.106931165 -0.1246997 0.028615892 0.006337926 0.025555387 0.03126459 0.0029441863
-0.096816406 0.08059017 -0.015273631 -0.115437165 0.016897857 -0.07478589 0.10298692 0.029516533
0.10804199 0.059715956 0.040570438 0.12014209 -0.09337294 -0.06897375 0.014248669 0.03145708
0.084745124 0.092129886 0.0009300411 -0.10614441 0.07386477 -0.051586136 0.109470546 -0.09124623
0.06254694 0.07674454 0.12242626 -0.07977809 0.07853904 -0.105624706 0.083323136 -0.109824404
0.0054519624 -0.03504242 -0.06629811 -0.06755942 0.018938988 -0.018193021 -0.1243317 0.008083478
-0.06904632 -0.09151071 0.105476335 -0.010584801 -0.0051772892 -0.006753117 0.0049170554 -0.06810741

receiver.2.weight f4 [2, 64]
00000000: 702e 05bd 6e20 e03d cea7 9bbd 00f1 88bd
00000010: 8e7e eb3d acf9 5d3d 08c4 b3bd 2ee9 95bd
00000020: c0f8 d53b f8f6 f93c 78df 3fbd 6884 7a3d
00000030: 042c d8bd 52f6 c3bd e4e1 0e3d 7e54 d53d
00000040: 78a3 a23c 40a9 31bc ec1b 633d 58ff f6bd
00000050: a093 473c 0032 713d 6c66 b1bd 90cc 453d
00000060: b047 953d 4096 ccbd d44b e4bd 8088 d93c
00000070: 0811 80bd 50b1 663d 8061 5fbd c6f0 e2bd
00000080: 8026 b1ba 741e dd3d 0adc eebd f817 6a3d
00000090: b027 8fbc 6a03 a63d 7640 9f3d 64a2 0f3d
000000a0: 204d b53d 9082 9f3c 004a 8bbc 34c8 973d
000000b0: e047 83bc 6a80 c9bd 001c e23c 9023 c6bc
000000c0: b8e7 0fbd 00e5 4bbc 70a6 f9bd 4c0d 323d
000000d0: fc75 69bd 3c45 eb3d 2220 b5bd 0011 d9bb
000000e0: 3e29 eabd 0c6e 443d 80ea b83a bc75 ecbd
000000f0: 186a 9a3d 9896 973c 9013 3b3d 8641 fe3d
00000100: dc8a df3d 4a7c eebd 5299 cf3d 2090 953b
00000110: bab9 f3bd 20a9 af3d 2026 63bd f0fc 9ebc
00000120: 2422 3a3d 900f 8abd 5205 e6bd a2b1 c2bd
00000130: 68d7 69bd 8018 db3b 7051 0ebd 901c aabc
00000140: 32df c5bd bc7a d03d 9e65 973d 829b 8a3d
00000150: cc75 aabd 782d f63d 7639 d13d a4b8 62bd
00000160: 0041 89bb 10b9 b1bd b0b3 493d 5216 aebd
00000170: 26e7 85bd 4013 a53b 802c a3bc 0acf a0bd
00000180: ca4c fbbd 96c9 e8bd f058 f1bc 7e8b 90bd
00000190: 94bc a73d c015 863c a02b 2d3d 029d a6bd
000001a0: 68a0 003d 9041 c13c 400d 513b 146b 2c3d
000001b0: ac34 87bd e086 d2bd a088 c93b e44a 96bd
000001c0: 546a 96bd b872 e13c 80ef e1bb c0e0 4ebd
000001d0: 002e 743d 4029 bc3d 7cad 4b3d b0cb 6c3d
000001e0: 10a2 4cbd 2abf 9b3d 4eb0 843d e284 aa3d
000001f0: 3835 bebd 0c28 ecbd a80f d83d fed5 b4bd
-0.03251499 0.109436855 -0.076003656 -0.06686592 0.11498748 0.054193184 -0.08777624 -0.07319866
0.0065298975 0.030513272 -0.046843976 0.06116143 -0.1055527 -0.09568466 0.034883395 0.10416506
0.019853339 -0.010843575 0.05544655 -0.12060422 0.012181193 0.058885574 -0.086621135 0.04829079
0.07289064 -0.099895954 -0.111472756 0.026554346 -0.062532485 0.056321442 -0.054536343 -0.1108108
-0.0013515502 0.10796824 -0.11663063 0.057151765 -0.01747498 0.0810612 0.07775967 0.035066977
0.08852601 0.019471437 -0.01700306 0.074112326 -0.016025484 -0.09838946 0.027601242 -0.02418688
-0.035133094 -0.012444735 -0.121899486 0.043469712 -0.056997284 0.11487815 -0.088440195 -0.006624341
-0.114336476 0.04795651 0.0014107972 -0.115458935 0.07539767 0.018504426 0.045672953 0.12414841
0.10915157 -0.116448 0.101366654 0.0045643 -0.11900659 0.0857718 -0.05545628 -0.01940772
0.045442715 -0.067412496 -0.112314835 -0.09506537 -0.057090193 0.0066862702 -0.034745634 -0.020765573
-0.09661712 0.1017966 0.07392429 0.06767942 -0.08323249 0.12020391 0.10216038 -0.05535187
-0.004188657 -0.08677876 0.04924363 -0.08500351 -0.06538229 0.005037695 -0.01991868 -0.078519896
-0.12270506 -0.113665745 -0.029461354 -0.07057856 0.08190265 0.016367793 0.042277932 -0.081354156
0.031402975 0.023590833 0.0031898767 0.042094305 -0.06601843 -0.102796316 0.00615032 -0.07338503
-0.07344499 0.027520522 -0.0068950057 -0.050507307 0.05961418 0.09187555 0.049725994 0.05781144
-0.049959242 0.07604821 0.0647894 0.08326127 -0.092874944 -0.11531076 0.10549861 -0.08829878

receiver.2.bias f4 [2]
00000000: 6072 413c 44d9 0fbd
0.011807054 -0.03511931
