checkpoint.pt (torch, 37639 bytes, 8 tensors)

transmitter.0.weight f4 [64, 2]
0	0x3e9e0137	0.30860302
1	0x3ef23292	0.47304207
2	0xbdf19247	-0.11795478
3	0x3dc66f91	0.09689248
4	0xbf2e5abf	-0.6810722
5	0xbe91379e	-0.28362745
6	0xbec9749f	-0.39346787
7	0xbf03ce34	-0.51486516
8	0x3f08688d	0.5328453
9	0xbcb35c55	-0.021894613
10	0xbeba0993	-0.3633543
11	0xbf06f966	-0.527243
12	0xbef8c3af	-0.48586795
13	0xbec03bf5	-0.37545744
14	0xbeed383b	-0.46331963
15	0x3ec794b2	0.38980633
16	0xbe94cc02	-0.29061896
17	0x3ed71d47	0.42014524
18	0x3ad2d138	0.001608408
19	0xbe0f8e76	-0.14019188
20	0x3eaf7f06	0.342766
21	0x3ea460c6	0.32105082
22	0x3e2aa317	0.16663776
23	0xbe3d6480	-0.18495369
24	0xbd4f3480	-0.050587177
25	0xbf181e5c	-0.59421325
26	0x3dfd6868	0.123734295
27	0xbedf6a88	-0.43635964
28	0x3d424fd0	0.047439396
29	0xbaf76350	-0.0018874202
30	0x3ed9c53f	0.425333
31	0x3e977381	0.2958031
32	0x3f1ba696	0.60801065
33	0x3f0e5584	0.55599236
34	0x3e208747	0.15676604
35	0x3e32ed29	0.17473282
36	0xbe6f1143	-0.23346429
37	0xbf0b93ad	-0.5452221
38	0xbe85e96c	-0.2615465
39	0xbe00fcd3	-0.12596445
40	0x3dc02850	0.09382689
41	0xbe4bdee9	-0.19909252
42	0x3f00dd52	0.5033771
43	0xbea91440	-0.33023262
44	0x3e68f157	0.22748314
45	0x3dca4e01	0.09878159
46	0xbd82f022	-0.06393458
47	0xbe9ffe7c	-0.31248844
48	0x3ec7b827	0.39007685
49	0xbf0a7762	-0.54088414
50	0x3f1c9c7b	0.6117627
51	0xbefe24c3	-0.49637422
52	0x3e3e77be	0.18600366
53	0xbede4c2f	-0.43417498
54	0x3f003b52	0.50090516
55	0x3f13da82	0.5775529
56	0x3e929acc	0.28633726
57	0x3e0e8365	0.1391731
58	0xbec2dd52	-0.3805948
59	0x3e8f7ccb	0.28024897
60	0xbe555c27	-0.20835935
61	0xbec5ff59	-0.38671377
62	0xbeecce0b	-0.46250948
63	0x3eb53b30	0.3539672
64	0x3ecdfc93	0.4023176
65	0x3f07af69	0.5300203
66	0xbe81b5cd	-0.25334015
67	0x3ed0bc8e	0.40768856
68	0x3eae7762	0.34075457
69	0xbf2d99d9	-0.6781288
70	0xbf2a5b5d	-0.6654566
71	0x3f319ca5	0.69379646
72	0xbeef679b	-0.46758732
73	0xbed0c84d	-0.40777817
74	0x3f1fe3c2	0.62456906
75	0xbf203003	-0.6257326
76	0xbf0eba3d	-0.5575293
77	0xbd0ea2e8	-0.03482333
78	0x3efe82b8	0.49709105
79	0x3eed30a9	0.46326187
80	0x3d8c5cbc	0.06853625
81	0xbd51f6e6	-0.05126085
82	0xbe91ba3c	-0.28462398
83	0x3ea3001b	0.31836018
84	0x3e2410e8	0.16022074
85	0x3f029286	0.5100483
86	0x3f03c3ad	0.5147045
87	0x3dbb4d7c	0.09145638
88	0x3e577227	0.2103964
89	0xbf20258b	-0.62557286
90	0x3eb9a82e	0.36261123
91	0xbe4c7efb	-0.19970314
92	0x3f1dc0d7	0.61622375
93	0x3f2e6639	0.6812473
94	0x3ed16ac8	0.4090178
95	0xbe2c2296	-0.16810068
96	0x3e9419df	0.28925988
97	0x3efd51ef	0.49476573
98	0x3f067ee4	0.5253737
99	0x3f346666	0.7046875
100	0x3f253b9a	0.6454407
101	0xbeacae4e	-0.33726734
102	0x3ef5014c	0.47852552
103	0xbd9766bb	-0.07392641
104	0x3e2a2dfa	0.16619101
105	0x3f04b87f	0.5184402
106	0x3ef26b7e	0.47347635
107	0xbe3c0f58	-0.18365228
108	0x3dcd2455	0.100166954
109	0x3e498738	0.19680488
110	0xbe96ea50	-0.2947564
111	0xbf2b427e	-0.66898334
112	0xbb7267b1	-0.0036988074
113	0x3d469e5e	0.048490874
114	0x3f227873	0.6346504
115	0xbd885254	-0.06656328
116	0xbea92976	-0.33039445
117	0xbe75803f	-0.23974703
118	0x3e370cfb	0.17876045
119	0xbe6b0cff	-0.22954176
120	0xbe5ba54f	-0.21449779
121	0xbf2cf1f7	-0.6755671
122	0x3e27f5f8	0.16402423
123	0xbe8899c7	-0.26679823
124	0x3dc33572	0.09531678
125	0xbede4edc	-0.4341954
126	0x3eb46c83	0.35239038
127	0xbf1221fb	-0.570831

transmitter.0.bias f4 [64]
0	0xbf1365b1	-0.57577044
1	0x3ecf6bdd	0.4051198
2	0x3e23388d	0.15939541
3	0xbe96dce1	-0.29465392
4	0xbed767ad	-0.42071286
5	0xbe29fa45	-0.16599376
6	0x3e02d3de	0.12776133
7	0x3f253cd7	0.6454596
8	0x3ebb2e0a	0.36558563
9	0xbefaf999	-0.49018553
10	0x3d2a7e41	0.04162431
11	0xbf2c0046	-0.6718792
12	0x3f34f818	0.7069106
13	0x3d67df95	0.05660971
14	0x3f28e98d	0.6598137
15	0xbd90ce40	-0.07070589
16	0xbe2a9470	-0.16658187
17	0xbc4f8e7a	-0.012668246
18	0xbe4c04b2	-0.19923666
19	0x3c21a389	0.00986565
20	0x3eab43d3	0.33450183
21	0x3efd5a9b	0.4948319
22	0x3f20410f	0.6259927
23	0x3d82296f	0.06355559
24	0xbef8913c	-0.48548305
25	0xbeb81508	-0.35953546
26	0xbe009580	-0.1255703
27	0xbead676f	-0.33867976
28	0x3ec33651	0.38127378
29	0x3e977789	0.29583386
30	0xbe8f44ab	-0.27982077
31	0x3ee5cde1	0.44883636
32	0xbc85b6af	-0.016322462
33	0x3e4b43be	0.1985006
34	0xbd07cc8d	-0.03315406
35	0xbe5993af	-0.21247743
36	0x3bf6d03c	0.0075321477
37	0x3e88db0b	0.26729617
38	0x3e694c9a	0.22783127
39	0xbd93262f	-0.07185017
40	0x3e899656	0.2687251
41	0xbe3a4b75	-0.18192847
42	0x3ed5b0b8	0.41736388
43	0xbe812da6	-0.2523014
44	0xbf014f1c	-0.50511336
45	0xbee1f4ed	-0.44132176
46	0x3e3c77c6	0.18405065
47	0x3f21ec0d	0.6325081
48	0x3e422ed8	0.18963182
49	0x3dcb21bd	0.099185444
50	0xbf2c1343	-0.6721689
51	0xbd9639ae	-0.0733522
52	0xbefb28c1	-0.4905453
53	0xbe756769	-0.23965229
54	0x3aeefae1	0.0018232727
55	0xbe18e1a7	-0.1492983
56	0xbeb86a26	-0.36018485
57	0xbda962e1	-0.08270813
58	0x3f1020f1	0.56300265
59	0xbeb4c922	-0.35309702
60	0x3e852b38	0.26009536
61	0x3da54277	0.08069318
62	0x3db761d6	0.089542076
63	0xbf30d35d	-0.69072515

transmitter.2.weight f4 [64, 64]
0	0xbcf15d40	-0.02946341
1	0xbda13bc8	-0.078727305
2	0x3df5232c	0.11969599
3	0xbdbf10e8	-0.093293965
4	0x3d929f78	0.071593225
5	0xbcabf810	-0.020992309
6	0x3cb533a0	0.022119343
7	0x3db65cb6	0.08904402
8	0x3de4481a	0.11146565
9	0xbdf9b430	-0.12192571
10	0xbb94f720	-0.004546061
11	0x3d8e6122	0.0695212
12	0xbd8121f2	-0.06305303
13	0xbdc92462	-0.098213926
14	0xbae76500	-0.0017654002
15	0xbc83be58	-0.016081974
16	0x3db3d43e	0.08780716
17	0x3cbfe230	0.023423284
18	0x3de5ddee	0.1122397
19	0xbdc63f40	-0.09680033
20	0x3dbe9be6	0.09307079
21	0xbd25f80c	-0.04051976
22	0x3c4ce870	0.012506589
23	0xbcc3d7c8	-0.023906603
24	0x3be3ef40	0.006956011
25	0x3cf4a9c0	0.0298661
26	0xbddf426e	-0.10901342
27	0x3dcab608	0.09898001
28	0x3cbc6608	0.022997871
29	0x3d992702	0.07478143
30	0x3db3e1e6	0.08783321
31	0x3d6fb824	0.05852522
32	0x3d68b1bc	0.056810126
33	0x3dcc3d0c	0.09972581
34	0xbb95aaa0	-0.004567459
35	0xbd919b0e	-0.071096525
36	0xbdf3195a	-0.1187007
37	0x3dba6bba	0.091025785
38	0x3dbf34ac	0.09336218
39	0xbd07da70	-0.033167303
40	0x3d9d4d24	0.07680729
41	0x3d9ed196	0.07754819
42	0xbd11c50c	-0.03558831
43	0x3da8a536	0.082346365
44	0xbd832bb0	-0.06404817
45	0x3c9fe578	0.019518599
46	0xbce2e540	-0.027697206
47	0x3d6223d4	0.05520995
48	0xbc980b70	-0.018560141
49	0xbd9b56d2	-0.07584919
50	0x3ab22a80	0.0013592988
51	0x3b2d2bc0	0.0026423782
52	0xbd5c99ac	-0.05385749
53	0x3dbaa6d8	0.09113854
54	0xbdb66c32	-0.08907355
55	0xbda3a00c	-0.07989511
56	0xbdd1b66c	-0.10239872
57	0xbaac7b80	-0.0013159364
58	0xba5bf700	-0.0008390993
59	0x3dab738a	0.08371647
60	0xbd0c0420	-0.03418362
61	0x39e03400	0.00042763352
62	0x3dcfa462	0.101387754
63	0x3dc88c14	0.09792343
64	0xbc2ada20	-0.010427982
65	0xbc871378	-0.016488776
66	0xbdeec92e	-0.11659466
67	0xbd3c6540	-0.045994997
68	0x3da5917a	0.08084388
69	0x3dbdb33c	0.09262702
70	0x3dee8c4a	0.11647852
71	0x3c35bdc0	0.011092603
72	0xbda66fd0	-0.08126795
73	0x3d3d936c	0.04628317
74	0x3db7a392	0.089667454
75	0x3c34fa50	0.011046007
76	0x3b5b9540	0.0033505708
77	0x3daeb08a	0.08529766
78	0x3d95dca8	0.073174775
79	0xbdefb6bc	-0.11704776
80	0x3d61eea0	0.05515921
81	0xbdf6e620	-0.120556116
82	0x3d242934	0.040078357
83	0x3db96368	0.09052163
84	0xbdb74478	-0.08948606
85	0x3de7a10c	0.11310014
86	0xbd46be70	-0.04852146
87	0x3dc3ad52	0.095545426
88	0x3d6dfa5c	0.05810009
89	0xbdbe860e	-0.09302913
90	0x3c891f98	0.016738698
91	0x3d027708	0.0318518
92	0xbdf2d106	-0.11856274
93	0xbcc830c8	-0.024437323
94	0xbcac3b40	-0.021024346
95	0xbd8701fe	-0.06592177
96	0x3dfb59e0	0.12273002
97	0xbd06c2b8	-0.032900542
98	0x3cc5b5a0	0.024134457
99	0x3d57a7c8	0.052650243
100	0x3d01e374	0.031711057
101	0xbde61f34	-0.1123642
102	0x3cf4dce8	0.029890493
103	0xbd8d979c	-0.06913683
104	0xbca4b158	-0.020104095
105	0xbd68f9ec	-0.05687897
106	0x3dccff5a	0.10009642
107	0x3de5d45e	0.112221465
108	0xbc94c030	-0.018158048
109	0xbdc49344	-0.09598401
110	0xbde7398e	-0.112902746
111	0x3d227a94	0.03966768
112	0x3db65a04	0.08903888
113	0xbd89521c	-0.06705114
114	0x3d8152ba	0.06314607
115	0x3d617854	0.055046394
116	0xbde8ef38	-0.11373752
117	0x3d5adf58	0.053435653
118	0xbdd96976	-0.10615818
119	0x3dc1524a	0.094395235
120	0x3d8716d2	0.065961495
121	0xbdc0bab2	-0.09410609
122	0x3dff1c12	0.12456526
123	0x3cd03668	0.025416568
124	0x3df6fbd6	0.12059753
125	0x3d7c0110	0.06152445
126	0xbb98bb60	-0.0046610087
127	0xbd340e24	-0.043958798
128	0x3dd23dd0	0.10265696
129	0x3d7cec08	0.061748534
130	0xbd9a028a	-0.075200155
131	0x3d4a46a8	0.04938379
132	0x3dc37304	0.09543422
133	0x3cd7b018	0.026329085
134	0xbceb1e38	-0.028700933
135	0x3ded5032	0.11587562
136	0x3d701d30	0.058621585
137	0xbd90cda6	-0.07070474
138	0xbdbb3b72	-0.09142198
139	0xbdfbb356	-0.12290065
140	0x3d4a28a0	0.04935515
141	0xbd9b32a6	-0.0757802
142	0xbdd42828	-0.10359222
143	0xbcd19e08	-0.02558805
144	0xbd4f5ef8	-0.05062768
145	0x3c84f1e8	0.016228631
146	0x3d8acb50	0.0677706
147	0x3dfaefc0	0.1225276
148	0xbd36bb5c	-0.044612274
149	0xbda0049a	-0.07813378
150	0xbd284790	-0.041083872
151	0x3db4ce84	0.08828452
152	0x3dcc78b0	0.09983957
153	0xbd8c1dfc	-0.068416566
154	0x3df6cc44	0.12050679
155	0xbdf7f456	-0.1210715
156	0x3db2336a	0.08701213
157	0x3c9fb3b0	0.019494861
158	0x3b376300	0.0027982593
159	0xbde2340c	-0.110450834
160	0xbdb7980c	-0.089645475
161	0xbdedb196	-0.116061375
162	0x3d525fec	0.05136101
163	0xbc7a4c60	-0.015276998
164	0xbb8deda0	-0.0043313056
165	0x3dee6b62	0.116415754
166	0xbdc9f9ce	-0.098620996
167	0xbddcbe60	-0.10778499
168	0x3d4f0350	0.05054027
169	0xbdb02000	-0.085998535
170	0xbd1b5300	-0.03792095
171	0xbdab7c38	-0.08373302
172	0xbce3b1d0	-0.027794749
173	0x3d90a4b6	0.07062666
174	0x3d3314b8	0.04372093
175	0xbdb4ab06	-0.08821683
176	0x3d908c2c	0.07057986
177	0xbd9a2e16	-0.075283214
178	0xbd85afe4	-0.06527689
179	0x3a5f7000	0.0008523464
180	0x3b95a7a0	0.0045671016
181	0xbd6db5c4	-0.058034673
182	0x3be66aa0	0.0070317537
183	0x3c200bb0	0.0097684115
184	0xbd227228	-0.03965965
185	0x3cd1fb20	0.025632441
186	0xbc4266f0	-0.0118653625
187	0xbd894ee8	-0.06704503
188	0xbde760fc	-0.11297795
189	0xbc911578	-0.017710432
190	0xbdfb40ae	-0.12268196
191	0xbdca5e3e	-0.098812565
192	0x3d8393be	0.06424664
193	0x3c6978f0	0.014250025
194	0x3def8e5e	0.11697076
195	0x3d46266c	0.048376486
196	0xbdbb9fd2	-0.09161343
197	0xbdb90592	-0.090342656
198	0xbcdd6090	-0.027023584
199	0x3da7327e	0.081639275
200	0x3cd48c68	0.025945857
201	0xbdf14634	-0.11780968
202	0x3c0c63c0	0.008568704
203	0x3cfcc3f0	0.030855149
204	0xbd6fbb18	-0.058528036
205	0xbd230414	-0.03979881
206	0xbce20f80	-0.027595282
207	0xbbeed3a0	-0.0072884113
208	0xbd07bfac	-0.033141777
209	0xbdc95e68	-0.0983246
210	0x3de80b5e	0.11330293
211	0x3db947aa	0.09046872
212	0x3c20d080	0.009815335
213	0xbde1e5ce	-0.1103016
214	0xbb7a7cc0	-0.003822133
215	0xbd8622f4	-0.065496355
216	0x3d2e8c94	0.042614534
217	0xbac51e80	-0.0015038997
218	0xb9f3b600	-0.00046484172
219	0x3d11d5a8	0.03560415
220	0xbd069658	-0.032858223
221	0x3dae0b32	0.08498229
222	0xbd6d7eb4	-0.05798216
223	0x3df89830	0.121384025
224	0xbc957cb0	-0.018247932
225	0xbdbeecc2	-0.09322502
226	0x3bd41280	0.006471932
227	0xbcc360f0	-0.023849934
228	0x3cba4f18	0.022742793
229	0x3df7993a	0.120897725
230	0x3d9a055c	0.075205535
231	0x3d7db77c	0.061942562
232	0x3b77abc0	0.003779158
233	0x3d1fd5d8	0.039022297
234	0xbdce00f4	-0.100587755
235	0xbd19c530	-0.03754157
236	0xbc97c438	-0.018526182
237	0x3dc8ec9e	0.09810756
238	0x3d9fe318	0.078069866
239	0xbda4132a	-0.08011468
240	0xb940c800	-0.00018385053
241	0xbd4e52f4	-0.05037208
242	0x3dbaef6e	0.09127699
243	0x3df4b778	0.119490564
244	0x3d520540	0.051274538
245	0xbd4b5b94	-0.049647883
246	0x3d7ad13c	0.061234698
247	0x3d5111ec	0.051042482
248	0x3dbe1db2	0.09283008
249	0x3d0f9a24	0.03505911
250	0x3ced3530	0.028956026
251	0x3d0a5518	0.033772558
252	0x3d008c3c	0.031383738
253	0xb9b79e00	-0.000350222
254	0xbd531da8	-0.051541954
255	0xbcdc76b0	-0.026912063

transmitter.2.bias f4 [64]
0	0xbdd5c150	-0.10437262
1	0xbdf21c98	-0.1182186
2	0x3d9dd3c4	0.07706407
3	0x3dbe4968	0.09291345
4	0xba392100	-0.00070621073
5	0x3d8fd8bc	0.07023761
6	0xbdde06a4	-0.1084111
7	0x3d8f695e	0.07002519
8	0x3dfe7062	0.12423779
9	0xbc27e3c0	-0.010247171
10	0x3d2939f0	0.04131502
11	0xbdcd7c44	-0.100334674
12	0xbd0fc7d4	-0.03510268
13	0x3dd8bdec	0.105831
14	0xbdcd81ac	-0.100344986
15	0xbc3e5820	-0.01161769
16	0xbd91f266	-0.07126312
17	0xbd92050c	-0.07129869
18	0xbccf1530	-0.025278658
19	0xbdd26976	-0.10274021
20	0xbdf5c2b2	-0.12000026
21	0x3df128dc	0.117753714
22	0xbb4f5080	-0.0031633675
23	0x3ce21440	0.027597547
24	0x3ccd9678	0.025096163
25	0xbd4cb8e4	-0.049981013
26	0xbd72a78c	-0.059241816
27	0xbd070d00	-0.032971382
28	0x3dbb58b6	0.0914778
29	0x3abda800	0.0014469624
30	0x3c8d51a8	0.01725085
31	0xbde4188a	-0.11137493
32	0x3caae228	0.020859793
33	0xbdf043ca	-0.1173168
34	0x3d8db7f2	0.069198504
35	0x3d994a0e	0.07484828
36	0x3db0816a	0.08618434
37	0xbcc04820	-0.023471892
38	0xbd875c6a	-0.066094235
39	0xbd4330b0	-0.047653854
40	0x3dc690f0	0.096956134
41	0x3d8026be	0.062573895
42	0x3db891ee	0.09012209
43	0x3c6f8620	0.01461938
44	0x3dd7bac6	0.10533671
45	0x3dd831dc	0.10556385
46	0xbd012078	-0.031525105
47	0x3d370ef0	0.04469198
48	0xbdf68bd4	-0.12038389
49	0xbcf02d18	-0.029318377
50	0x3dfc620a	0.12323387
51	0x3da300c4	0.079591304
52	0x3ccdb978	0.025112852
53	0x3df9ccd2	0.121972695
54	0xbd83d800	-0.06437683
55	0xbd808628	-0.06275588
56	0xbd53c8b0	-0.051705062
57	0x3ced0b10	0.02893594
58	0x3cc308b8	0.023807868
59	0x3dff4ac4	0.12465432
60	0xbda0cf38	-0.07852024
61	0x3dd7db22	0.10539843
62	0xbdfe17d0	-0.124068856
63	0x3c90b820	0.017665923

receiver.0.weight f4 [64, 64]
0	0xbcd4dd88	-0.02598454
1	0x3da7d074	0.08194056
2	0xbd50cfe4	-0.05097951
3	0xbde90a3e	-0.11378907
4	0xbdc2b6c6	-0.095075175
5	0x3dab1ebc	0.083554715
6	0x3dd3915a	0.10330458
7	0x3d6ab150	0.057298005
8	0xbd691d50	-0.05691272
9	0xbdb84102	-0.08996774
10	0x3d9a020c	0.07519922
11	0xbde57378	-0.112036645
12	0x3dca29fa	0.09871288
13	0xbd91190c	-0.070848554
14	0xbdfb11f6	-0.12259285
15	0x3d931fd8	0.07183808
16	0x3cc22bb8	0.023702487
17	0x3c452f70	0.012035236
18	0x3d2129f8	0.039346665
19	0xbd5d1ecc	-0.05398445
20	0xba356600	-0.0006919801
21	0x3d928e46	0.07156043
22	0x3c06fba0	0.008238703
23	0xbd44ca40	-0.048044443
24	0xbd1a47fc	-0.037666306
25	0xbd1346dc	-0.03595625
26	0x3d104424	0.035221234
27	0x3de638aa	0.112412766
28	0xbc244420	-0.010026008
29	0x3dda5630	0.1066097
30	0x3cb87388	0.022516027
31	0x3d076494	0.033054903
32	0x3d0e7e0c	0.034788176
33	0x3dc63278	0.09677595
34	0xbc1af820	-0.009458572
35	0x3b4fe880	0.0031724274
36	0x3b8b79e0	0.004256472
37	0xbcc0f860	-0.023555934
38	0x3c9ecc28	0.019384459
39	0xbd8948f0	-0.06703365
40	0xbded8b16	-0.11598794
41	0x3d1f7188	0.03892663
42	0x3de3d850	0.11125243
43	0x3d3b3ab4	0.04571028
44	0xbd593158	-0.053025573
45	0x3c90ac00	0.017660141
46	0xbb0b5000	-0.00212574
47	0xbc6ff490	-0.014645711
48	0xbd96dd50	-0.07366431
49	0x3ca52800	0.020160675
50	0xbd1d4f38	-0.038405627
51	0x3dff01fa	0.12451549
52	0x3d1b9fa0	0.037994027
53	0xbcba1600	-0.022715569
54	0x3b8f34c0	0.004370302
55	0xbdb84530	-0.089975715
56	0xbbce12a0	-0.0062888414
57	0xbc70cba0	-0.0146969855
58	0x3de9847c	0.114022225
59	0x3d144554	0.03619893
60	0x3c3be600	0.0114684105
61	0xbdd54a62	-0.10414578
62	0x3d0656c4	0.03279759
63	0xbdc208e8	-0.09474355
64	0xbd88c840	-0.0667882
65	0x3dd92610	0.10602963
66	0x3d5b8060	0.053589225
67	0x3d9e10ec	0.07718071
68	0x3dbbd416	0.091713116
69	0xbccba8b8	-0.024860725
70	0x3dadf612	0.084942
71	0x3dac7f48	0.084227145
72	0xbcfc4f88	-0.030799642
73	0xbdbd5b9e	-0.0924599
74	0x3d8a1608	0.067424834
75	0xbc2b2b00	-0.010447264
76	0x3bb51080	0.0055256486
77	0xbd090cc8	-0.033459455
78	0x3c49b2b0	0.012310669
79	0xbdcd469a	-0.10023232
80	0x3deb3d24	0.11486271
81	0xbd829f1c	-0.06378004
82	0xbdc94d90	-0.09829247
83	0x3dd31302	0.1030636
84	0x3d97fc2c	0.07421145
85	0x3dd02500	0.10163307
86	0x3dfc7386	0.12326722
87	0xbd1fa13c	-0.038972124
88	0x3cf20cb8	0.02954708
89	0xbd6050d4	-0.054764584
90	0xbde99f8c	-0.11407384
91	0x3d22ba38	0.039728373
92	0xbd68cf60	-0.056838393
93	0x3dd82ca2	0.10555388
94	0x3dddc5d6	0.1082875
95	0xbd95d978	-0.073168695
96	0x3d2751dc	0.04084955
97	0x3de99d62	0.114069715
98	0x3d35421c	0.0442525
99	0x3da4678c	0.080275625
100	0xbdae2e6c	-0.08504948
101	0x3dc23244	0.09482244
102	0xbd4209a0	-0.04737246
103	0xbd1caa88	-0.03824857
104	0x3daa6c44	0.08321431
105	0xbd617be8	-0.055049807
106	0x3df19d8a	0.11797626
107	0x3df8a09a	0.12140007
108	0x3da571f4	0.080783755
109	0xbd965824	-0.0734103
110	0xbd418488	-0.047245532
111	0xbd8f3bd6	-0.06993835
112	0xbde5175a	-0.111860946
113	0x3d73ca24	0.05951895
114	0xbc126680	-0.008935571
115	0x3dc56818	0.09638995
116	0x3ce35210	0.027749091
117	0xbd4a8010	-0.049438536
118	0xbd883d0e	-0.0665227
119	0x3df8a520	0.1214087
120	0xbdc41116	-0.095735714
121	0x3db49c2a	0.088188484
122	0xbd77f2e8	-0.060534388
123	0x3c7a7b60	0.015288204
124	0xbc81e580	-0.015856504
125	0xbdcf7082	-0.10128881
126	0xbda32798	-0.07966536
127	0xbd4ac588	-0.049504787
128	0x3dc393a4	0.095496446
129	0xbdb76d46	-0.08956389
130	0xbd9925f0	-0.07477939
131	0x3d924d9c	0.07143709
132	0x3dd38340	0.10327768
133	0xbd971b28	-0.073782265
134	0x3db7b836	0.08970682
135	0x3c01c170	0.007919654
136	0xbd6147a8	-0.054999977
137	0xbdde1d50	-0.10845435
138	0xbcc53e88	-0.024077669
139	0xbd00c238	-0.03143522
140	0x3db50552	0.088389054
141	0xbdec718c	-0.11545095
142	0xbbfc9900	-0.0077086687
143	0xbc7445a0	-0.014909178
144	0x3de1b592	0.1102096
145	0x3ba6f660	0.005095288
146	0x3c96bb00	0.018399715
147	0xbb820340	-0.0039676726
148	0xbd532dcc	-0.051557347
149	0x3dbff5d2	0.093730584
150	0xbd74f4f8	-0.059803933
151	0xbd97efd8	-0.074187934
152	0x3d50f774	0.05101724
153	0xbdb7e3e8	-0.089790165
154	0x3d627798	0.055289835
155	0x3c27dae0	0.010245055
156	0xbd2cbcc8	-0.042172223
157	0xbd1ecb28	-0.038767964
158	0xbdeca206	-0.11554341
159	0x3dc668e8	0.09687978
160	0x3df15bb2	0.117850676
161	0x3dc28b20	0.09499192
162	0xbd04a494	-0.032383516
163	0x3ca5c010	0.020233184
164	0x3da564f0	0.08075893
165	0x3db5acba	0.088708356
166	0xbc8547e8	-0.01626964
167	0xbdd6b35c	-0.10483429
168	0xbd7d7f6c	-0.061889097
169	0xbdc25c26	-0.09490232
170	0xbd34eaac	-0.044169113
171	0x3d955c6e	0.0729302
172	0x3d7128cc	0.058876798
173	0xbda67cec	-0.08129296
174	0x3c904d28	0.017614916
175	0x3df0c4f2	0.11756314
176	0xbd89c9da	-0.06727953
177	0x3dd43300	0.1036129
178	0xbc1077b0	-0.008817598
179	0x3ddc0da2	0.10744788
180	0xbdc7c7e8	-0.09754926
181	0xbdbffc2a	-0.09374268
182	0x3d360d28	0.04444614
183	0x3d8f28ca	0.06990202
184	0xbc4dac70	-0.012553319
185	0x3dd19e5a	0.10235281
186	0xbd8d36b2	-0.06895198
187	0x3c4f5760	0.012655109
188	0xbc714090	-0.014724866
189	0xbba8ab00	-0.005147338
190	0x3db17f02	0.08666803
191	0xbc501b50	-0.012701824
192	0x3d87449e	0.066048846
193	0x3dded66a	0.1088074
194	0xbdbd122e	-0.09231983
195	0xbd528010	-0.05139166
196	0xbda1fde6	-0.079097554
197	0x3da7e054	0.08197084
198	0xbd819912	-0.06328024
199	0xbdda9882	-0.1067362
200	0x3ca85990	0.02055052
201	0x3d53c4d8	0.051701397
202	0x3db65b0a	0.08904083
203	0x3d329220	0.043596387
204	0x3ce5a398	0.02803211
205	0xbdaec728	-0.0853408
206	0x3de83c40	0.11339617
207	0xbdf41182	-0.11917402
208	0x3defd4a4	0.1171048
209	0xbdb628b4	-0.08894482
210	0xbd97ec1c	-0.07418081
211	0x3d470cbc	0.04859613
212	0x3da4e5a6	0.080516145
213	0xbc7c7350	-0.015408352
214	0x3da3e30e	0.080022916
215	0x3d7080c4	0.05871655
216	0x3c790d50	0.015200928
217	0xbc8e6f70	-0.017387122
218	0xbc4c74a0	-0.012478977
219	0x3d5a4454	0.05328782
220	0x3d4d1cbc	0.05007623
221	0xbb5f3cc0	-0.003406331
222	0xbd39e940	-0.04538846
223	0x3da6ef92	0.08151163
224	0xbd91f75c	-0.07127258
225	0xbdca7506	-0.09885602
226	0x3df5f7e0	0.12010169
227	0x3cd42098	0.025894448
228	0xbddf01d2	-0.10889019
229	0xbc53c650	-0.012925699
230	0x3dacc254	0.08435503
231	0x3d9c2c70	0.07625663
232	0xbcc65d30	-0.024214357
233	0xbbbd51e0	-0.0057775825
234	0x3dd6b1f4	0.104831606
235	0x3d62b3e0	0.055347323
236	0x3dd0d678	0.10197157
237	0xbc915988	-0.017742887
238	0x3dcc8618	0.09986514
239	0x3d4ac02c	0.049499676
240	0xbc6b18c0	-0.014349163
241	0x3d9cafea	0.076507404
242	0xbdc0c2de	-0.09412168
243	0xbd824e70	-0.06362617
244	0x3d89df30	0.06732023
245	0xbdcebe66	-0.10094909
246	0x3dc99b9a	0.09844132
247	0xbdd81340	-0.10550547
248	0x3d254224	0.04034628
249	0xbd98d9ea	-0.07463439
250	0x3b11b1c0	0.0022231191
251	0x3dad3656	0.084576294
252	0x3d7c015c	0.061524734
253	0x3ce08fd0	0.027412325
254	0x3cc394b8	0.023874626
255	0xbd072d68	-0.033002287

receiver.0.bias f4 [64]
0	0xbdf2e27e	-0.11859606
1	0xbdbc48aa	-0.09193547
2	0x3d4930b8	0.049118727
3	0x3d55e64c	0.05222158
4	0x3cae07a0	0.02124387
5	0xbd6e3b84	-0.058162227
6	0xbda3f66a	-0.08005984
7	0xbd77f440	-0.06053567
8	0x3d8850b4	0.06656018
9	0xbdfa2c3e	-0.1221547
10	0xbd8d54d0	-0.06900942
11	0xbcbfda90	-0.023419648
12	0x3d5adf04	0.05343534
13	0xbda322f0	-0.07965648
14	0xbdd9c6e8	-0.106336415
15	0x3d289238	0.04115507
16	0xbda1335c	-0.07871124
17	0xbdf38f96	-0.11892621
18	0xbc9379f8	-0.018002495
19	0xbdf14cda	-0.117822364
20	0xbd9843e4	-0.07434824
21	0xbd630a1c	-0.055429563
22	0xbcacd2c0	-0.021096587
23	0x3dbd2ec4	0.092374355
24	0x3d862996	0.06550901
25	0x3d87fe22	0.06640269
26	0xbc891740	-0.01673472
27	0xbdcabfb6	-0.09899847
28	0xbd0b8ecc	-0.03407173
29	0x3d9e0cd0	0.077172875
30	0xbc79c340	-0.015244305
31	0x3cb134f0	0.021631688
32	0xbc4c92d0	-0.012486175
33	0xbdfc43fe	-0.12317656
34	0xbcea2068	-0.028579906
35	0x3ca075b8	0.019587383
36	0x3dddd264	0.108311445
37	0xbde8f8b2	-0.1137556
38	0x3d93f930	0.07225263
39	0xbd4a17bc	-0.04933904
40	0x3dea4df2	0.11440648
41	0x3d1913d4	0.037372425
42	0x3dbb36de	0.091413245
43	0x3ccb5f28	0.024825647
44	0x3dda64ee	0.10663782
45	0x3cd59480	0.026071787
46	0xbde1578e	-0.11003028
47	0x3dce40c8	0.1007095
48	0x3b28c640	0.0025752932
49	0xbde373d6	-0.11106078
50	0x3db67856	0.08909671
51	0xbdbcad52	-0.09212746
52	0x3d9c1d02	0.0762272
53	0xbd1cf874	-0.03832288
54	0x3d1c1c30	0.03811282
55	0xbd93913c	-0.07205436
56	0x3c749120	0.014927179
57	0x3debe9b0	0.11519182
58	0x3dddc3c6	0.108283564
59	0xbd8df8ba	-0.069322065
60	0x3d225cc4	0.03963925
61	0xbddf4c9c	-0.10903284
62	0xbd8f7ac8	-0.070058405
63	0xbdd5739a	-0.1042244

receiver.2.weight f4 [2, 64]
0	0xbc2d8d00	-0.010592699
1	0x3dd86876	0.10566799
2	0xbdaa4c04	-0.0831528
3	0x3ba131c0	0.0049192607
4	0x3d81dbac	0.06340727
5	0x3d81721c	0.06320593
6	0x3d3c0050	0.045898736
7	0xba3bad00	-0.0007159263
8	0x3cf426c0	0.029803634
9	0xbc3e1880	-0.011602521
10	0x3da01f94	0.07818523
11	0xbdbfacd4	-0.09359136
12	0x3d7e31a4	0.06205906
13	0x3dfced06	0.12349896
14	0x39d2e600	0.00040225685
15	0x3cce75c0	0.025202632
16	0xbd861b92	-0.06548227
17	0x3d893e9e	0.067013964
18	0xbdfaf52c	-0.12253794
19	0xbd8c9130	-0.0686363
20	0xbdb892ec	-0.09012398
21	0x3d4830c8	0.048874646
22	0x3d078494	0.03308542
23	0xbcc42c20	-0.023946822
24	0x3d87d644	0.06632665
25	0x3dbd0670	0.092297435
26	0x3debadac	0.11507735
27	0x3db77eb8	0.089597166
28	0x3d11aefc	0.03556727
29	0xbca2d4c0	-0.019876838
30	0xbdb4b0d2	-0.08822788
31	0x3d353cd8	0.04424748
32	0xbd42e2f4	-0.04757972
33	0x3d922176	0.071352884
34	0xbd23cb60	-0.039988875
35	0x3d59d53c	0.05318187
36	0x3dfc948e	0.12333022
37	0x3da86cfe	0.082239136
38	0xbde4f39c	-0.11179277
39	0xbdfafe7c	-0.1225557
40	0x3cf627b0	0.030048221
41	0xbc2a91a0	-0.010410696
42	0xbbed4360	-0.0072406977
43	0xbd815f22	-0.06316973
44	0x3da52e4e	0.080654725
45	0xbd29b50c	-0.041432425
46	0xbc3f3710	-0.011670843
47	0xbccd6460	-0.025072277
48	0x3d929c3a	0.07158704
49	0xbdef7ce8	-0.11693746
50	0x3d808d4c	0.0627695
51	0xbced96e8	-0.029002622
52	0x3c612520	0.013741761
53	0x3d1028a8	0.035195023
54	0xbdbea13c	-0.09308097
55	0xbd8dceaa	-0.06924184
56	0x3dd6c238	0.10486263
57	0x3d2722e8	0.040804774
58	0xbd5069cc	-0.050882146
59	0xbce37770	-0.027766913
60	0x3df790d8	0.12088174
61	0x3ddf0b50	0.108908296
62	0x3b15c6c0	0.002285406
63	0xbdbadfb4	-0.09124699
64	0xbcef07c8	-0.029178515
65	0xbdf4ec1c	-0.11959097
66	0x3db79d98	0.089656055
67	0x3c6eb290	0.01456894
68	0xbd406178	-0.046967953
69	0x3d5e8a94	0.054331377
70	0xbd9bccf4	-0.07607451
71	0xbd4a99bc	-0.04946302
72	0xbd1a5018	-0.03767404
73	0x3cd87ed0	0.026427656
74	0x3daa8eb8	0.08328003
75	0x3d4587a0	0.048225045
76	0x3cfef0a0	0.031120598
77	0x3dc8d566	0.098063275
78	0xbd0bff18	-0.034178823
79	0x3de148ec	0.11000237
80	0x3d456234	0.048189357
81	0xbc6a3500	-0.014294863
82	0x3da64fec	0.08120713
83	0xbdc14d80	-0.0943861
84	0xbd3de7e0	-0.04636371
85	0xbdad5f52	-0.084654465
86	0x3c585130	0.01320295
87	0x3d9ed0aa	0.07754643
88	0x3c7dbbd0	0.0154866725
89	0x3d904296	0.0704395
90	0xbda4d300	-0.080480576
91	0x3d8fdb3a	0.07024236
92	0x3d464964	0.048409835
93	0xbddc7872	-0.107651606
94	0x3dc64fb4	0.09683171
95	0xbd5ea97c	-0.05436085
96	0xbdf6e2d2	-0.12054981
97	0xbca7cd10	-0.020483524
98	0xbde2c8f8	-0.11073488
99	0x3d0d8094	0.03454645
100	0xbca5e5b0	-0.020251125
101	0xbd1d03d0	-0.038333714
102	0x3daa4204	0.08313373
103	0x3c9e5540	0.01932776
104	0x3d39d244	0.04536654
105	0xbdde90aa	-0.10867436
106	0xbd83aae0	-0.06429076
107	0x3d95badc	0.07311031
108	0xbca78e28	-0.020453528
109	0x3dabf380	0.08396053
110	0x3db8f234	0.090305716
111	0x3bd1da40	0.0064041913
112	0xbdc6d4ae	-0.09708534
113	0xbd04744c	-0.03233747
114	0x3d2a5348	0.04158333
115	0xbda4d4c6	-0.08048396
116	0x3d37b7f0	0.04485315
117	0xbc077a60	-0.008268923
118	0x3dd8469a	0.10560341
119	0xbd1c20c0	-0.03811717
120	0xbde94848	-0.1139074
121	0x3dc06828	0.09394866
122	0xbdad908e	-0.08474837
123	0x3d1de69c	0.038550004
124	0xbddfa17c	-0.109194726
125	0xbdf80c96	-0.121117756
126	0x3d51f540	0.05125928
127	0x3d09ee68	0.033674628

receiver.2.bias f4 [2]
0	0xbde6e5fa	-0.11274333
1	0x3d844618	0.06458682
