checkpoint.pt (torch, 37639 bytes, 8 tensors)

transmitter.0.weight f4 [64, 2]
0.41035283 -0.09024584 0.21686348 -0.5461268 -0.42592424 0.4100986 -0.65439403 0.66399646
0.55169356 0.13794772 -0.10576751 -0.18449943 0.59986645 -0.15937729 -0.47182167 0.3349752
0.1811904 -0.24946062 0.4864987 0.6053823 -0.6944088 -0.6536282 -0.65545005 0.15304844
0.5091352 0.13409753 0.13667363 0.109470956 -0.055619087 -0.607835 0.1288054 0.20941328
-0.14107284 0.046747092 0.65137583 0.11226774 0.07735093 -0.27766344 -0.34521598 0.61498624
0.087959796 0.32620102 0.0996107 -0.26002303 -0.43015486 -0.099683195 0.6225757 0.0028960784
0.11446806 0.23321815 -0.68776333 -0.52830726 0.051811457 0.6778943 0.6609916 -0.56765884
-0.66563207 0.40688753 -0.07062522 0.011616262 -0.28518724 0.32236007 -0.49523845 0.099585585
0.095657244 0.06590654 -0.28243816 0.2860332 0.059034582 0.44793257 0.49843976 -0.6880721
-0.23177959 -0.17432518 0.28972408 -0.27605182 -0.25661293 -0.33125493 -0.08252867 -0.10244862
0.11109656 0.47076967 0.31210306 0.37969995 -0.53954184 0.5858295 -0.62765926 0.6319138
0.4730263 0.4079936 -0.64208347 -0.042083964 0.24445745 -0.15939179 0.23567869 -0.27712303
-0.038598422 -0.25611022 0.5764226 0.6394605 -0.46123224 -0.14679343 -0.19669917 -0.029928898
0.39468163 0.59360826 0.12855901 0.5045497 -0.1547961 0.33330798 0.39513513 -0.40240207
-0.5695947 -0.2967954 -0.59733725 0.24625602 0.19584309 0.67057437 0.11490335 0.631553
0.35606828 -0.27706444 0.072240874 -0.054356538 -0.30592027 0.06607218 -0.00421401 0.045201737
00000000: c419 d23e d0d2 b8bd 7611 5e3e f7ce 0bbf
00000010: be12 dabe 72f8 d13e 5e86 27bf acfb 293f
00000020: ca3b 0d3f 2b42 0d3e a39c d8bd 6bed 3cbe
00000030: d990 193f cd33 23be 9c92 f1be df81 ab3e
00000040: fa89 393e 9b72 7fbe 5c16 f93e 56fa 1a3f
00000050: c6c4 31bf 2d54 27bf 93cb 27bf bbb8 1c3e
00000060: af56 023f dd50 093e 2cf4 0b3e 4f32 e03d
00000070: d7d0 63bd 139b 1bbf 90e5 033e 6f70 563e
00000080: 6675 10be e179 3f3d 91c0 263f a1ec e53d
00000090: 2a6a 9e3d e729 8ebe 26c0 b0be bd6f 1d3f
000000a0: 4424 b43d d203 a73e b200 cc3d bd21 85be
000000b0: 423d dcbe b426 ccbd 1f61 1f3f 22cc 3d3b
000000c0: 3b6e ea3d bdd0 6e3e 4211 30bf 253f 07bf
000000d0: 4038 543d 7b8a 2d3f bf36 293f 1752 11bf
000000e0: dd66 2abf 9053 d03e f5a3 90bd 2252 3e3c
000000f0: 1004 92be 610c a53e e58f fdbe 87f3 cb3d
00000100: f2e7 c33d 02fa 863d bc9b 90be f272 923e
00000110: 3fce 713d 6b57 e53e 7f33 ff3e 7e25 30bf
00000120: a157 6dbe 4d82 32be b756 943e aa56 8dbe
00000130: c562 83be 3f9a a9be cb04 a9bd 95d0 d1bd
00000140: 9886 e33d b908 f13e f9cb 9f3e 0868 c23e
00000150: 6a1f 0abf ecf8 153f 47ae 20bf 1ac5 213f
00000160: 8130 f23e 8ae4 d03e 955f 24bf 3c60 2cbd
00000170: 0e53 7a3e 9a37 23be c155 713e 12e3 8dbe
00000180: 6119 1ebd e120 83be 6e90 133f afb3 233f
00000190: a226 ecbe 0451 16be 826b 49be 732d f5bc
000001a0: b613 ca3e b6f6 173f f9a4 033e 2b2a 013f
000001b0: de82 1ebe 58a7 aa3e 274f ca3e a507 cebe
000001c0: f5d0 11bf 91f5 97be 18eb 18bf 8a2a 7c3e
000001d0: 178b 483e c3aa 2b3f 7352 eb3d 75ad 213f
000001e0: 954e b63e 64db 8dbe 06f3 933d f6a4 5ebd
000001f0: 95a1 9cbe da50 873d ae15 8abb 7525 393d

transmitter.0.bias f4 [64]
0.7065891 -0.16830517 0.41581312 0.5115437 -0.62851757 -0.6427679 -0.025039611 -0.4016034
0.63009447 0.38792565 -0.4621401 0.20247918 -0.070585266 -0.023940422 0.47026315 -0.51593184
-0.41393617 -0.45341823 0.48514816 -0.32155508 0.6028741 0.65944105 -0.5658464 0.61391664
-0.3360159 -0.4664192 0.19905813 -0.65874 0.60579664 -0.12627524 -0.67346895 -0.16183226
-0.13863708 0.5504187 -0.22916345 -0.6858948 -0.22086887 0.690806 0.37563345 0.48891026
-0.28628686 0.45155922 -0.25692296 -0.128594 0.5871061 0.3112961 -0.4917481 0.2182298
-0.20194586 0.3043241 0.015633868 0.38496247 -0.29669148 0.2586236 0.20000146 -0.35945386
-0.64649504 -0.6253519 -0.65276235 0.68559 0.21381687 -0.057293836 0.60949326 -0.02336402
00000000: 06e3 343f 3158 2cbe 75e5 d43e 87f4 023f
00000010: 87e6 20bf 708c 24bf df1f cdbc f69e cdbe
00000020: df4d 213f 319e c63e a19d ecbe b456 4f3e
00000030: 028f 90bd b41e c4bc 55c6 f03e 1c14 04bf
00000040: 71ef d3be 6f26 e8be 5765 f83e dea2 a4be
00000050: f555 1a3f 21d1 283f 4fdb 10bf a429 1d3f
00000060: 470a acbe 7fce eebe e5d5 4b3e 2fa3 28bf
00000070: 7d15 1b3f 4c4e 01be 7668 2cbf 5bb7 25be
00000080: e1f6 0dbe 3de8 0c3f d3a9 6abe cd96 2fbf
00000090: 732b 62be a9d8 303f 0753 c03e 7252 fa3e
000000a0: 3194 92be c532 e73e 688b 83be 25ae 03be
000000b0: 964c 163f 3462 9f3e 68c6 fbbe a277 5f3e
000000c0: e5ca 4ebe 5ed0 9b3e 9912 803c cd19 c53e
000000d0: f2e7 97be 506a 843e 2fcd 4c3e 560a b8be
000000e0: b380 25bf 1017 20bf 6f1b 27bf d482 2f3f
000000f0: cff2 5a3e f1ac 6abd c007 1c3f e765 bfbc

transmitter.2.weight f4 [64, 64]
0.09585437 0.0507863 0.056509867 -0.07548815 0.060329154 0.045061454 -0.122813 0.008850947
0.11284597 0.08599441 0.047855645 0.010213062 0.11483045 0.01144211 0.024667218 -0.09149146
-0.044646204 0.060579985 -0.052245945 0.085617304 0.070152 0.030330732 0.1188229 0.013696358
-0.048751578 -0.042551473 -0.02469349 -0.11350146 -0.053166464 0.08013646 0.07994795 -0.1025525
0.033976883 0.0050762 -0.05206801 0.12332237 0.10875161 -0.022714987 -0.059669614 0.056957304
0.013558149 0.118866175 0.078045264 0.060904905 0.10188374 0.123724625 0.051945716 0.06648561
-0.055674657 0.04706888 -0.11990826 0.07019082 0.004018083 -0.08175534 0.03844841 0.05347359
0.06430122 0.04409863 -0.07868618 0.104748264 0.025627494 0.050649196 -0.08652592 -0.113183394
-0.05465874 -0.047127828 0.0020067543 -0.08974908 -0.120299414 -0.11092411 0.017351612 -0.050930917
-0.038030043 0.06968327 0.11735055 0.08542548 0.1203589 -0.12289189 -0.03707272 -0.054938406
0.048035994 -0.031826526 -0.10441008 0.11697903 -0.04281813 0.019324467 0.007684514 0.05581121
0.12317611 0.11559695 0.105377614 -0.110384256 0.041551143 0.004554406 0.04403411 0.013668105
-0.115018696 0.100500196 0.08935024 0.079439014 0.032893553 0.03344865 -0.061771765 -0.030708551
0.024140447 -0.06059508 0.121053666 -0.061768338 -0.052340746 0.0074743927 -0.06017658 -0.022845447
0.029796079 0.060080588 0.11848274 -0.099847466 0.08970694 -0.0016468316 0.057618573 -0.111293465
-0.053697705 -0.10475846 -0.00656645 0.0011379868 -0.09449504 -0.10931113 0.07917759 0.101632684
-0.023061499 0.07574342 0.03591065 0.065976545 0.01771833 0.1069071 -0.09843162 0.024503946
-0.08262518 -0.08243421 0.10317619 -0.06532946 -0.067074835 0.02875954 0.020472094 0.04868032
0.011362359 0.11112529 0.059779808 -0.018994555 -0.066729516 0.070782855 -0.025994569 -0.086361796
-0.027584106 -0.017247513 0.013258576 -0.0021534562 0.02105473 -0.0028779358 0.027697071 0.08584842
0.010278091 -0.03238435 0.081170484 0.044855565 0.048338324 -0.060665727 0.06393483 -0.062251598
-0.09167829 0.10324046 -0.078125045 -0.09868544 0.053703457 0.07728413 -0.12277341 -0.06222309
0.07061218 -0.020538926 0.034222722 -0.01761593 0.032054305 -0.02723822 -0.12284507 0.061618805
-0.060439974 0.03976503 0.043531 -0.11324389 0.10100162 -0.06486994 0.10580774 0.021058649
-0.10160902 0.12006666 0.06342742 0.057800204 0.05617383 -0.0046115816 0.096045464 0.050445765
0.007849932 0.111181065 -0.080655605 -0.071382135 0.02281402 -0.019285709 0.068940565 -0.031845108
0.05900289 -0.03275399 0.09724091 -0.101983055 0.04273434 -0.039431274 -0.0307111 -0.052731514
-0.055154502 0.067755446 0.07917391 -0.055710956 0.008384123 -0.08759415 0.11496809 0.08278224
0.088889495 0.037435547 -0.03374909 0.09043799 -0.08563268 0.0063182414 -0.048753306 0.026942924
-0.05485791 -0.011880279 -0.083314896 -0.035749555 0.03796184 -0.02272223 0.061612234 -0.08745152
0.11614649 -0.10405508 -0.007381469 -0.034612164 0.011157915 0.12074566 -0.07537843 -0.081492126
-0.043391928 -0.039623782 -0.10322003 -0.08347231 -0.08439499 0.04731731 -0.1172885 0.045535192
00000000: 4c4f c43d 4c05 503d e476 673d 8899 9abd
00000010: b41b 773d 5c92 383d 6285 fbbd 9003 113c
00000020: ca1b e73d d61d b03d 4804 443d b054 273c
00000030: 3a2c eb3d b077 3b3c e812 ca3c e05f bbbd
00000040: f0de 36bd b822 783d d8ff 55bd 2058 af3d
00000050: daab 8f3d 2878 f83c 6c59 f33d b066 603c
00000060: bcaf 47bd 744a 2ebd 004a cabc 7473 e8bd
00000070: 14c5 59bd 961e a43d c0bb a33d 0c07 d2bd
00000080: 582b 0b3d 4056 a63b 4445 55bd 7090 fc3d
00000090: 2ab9 de3d c814 babc 2068 74bd 104c 693d
000000a0: 0023 5e3c 1c70 f33d 32d6 9f3d 6c77 793d
000000b0: 6ca8 d03d 5663 fd3d 08c5 543d 9c29 883d
000000c0: 1c0b 64bd 4ccb 403d 7692 f5bd 34c0 8f3d
000000d0: 20aa 833b 586f a7bd 147c 1d3d 2007 5b3d
000000e0: 5cb0 833d c4a0 343d 3826 a1bd 4286 d63d
000000f0: c0f0 d13c 8875 4f3d 8034 b1bd b2cc e7bd
00000100: d8e1 5fbd 1c09 41bd c083 033b 5ece b7bd
00000110: 8a5f f6bd 2e2c e3bd f824 8e3c f09c 50bd
00000120: 64c5 1bbd 1ab6 8e3d 7c55 f03d 8ef3 ae3d
00000130: ba7e f63d beae fbbd 90d9 17bd 1807 61bd
00000140: 64c1 443d 885c 02bd f4d4 d5bd b492 ef3d
00000150: 1062 2fbd 584e 9e3c 60ce fb3b 4c9a 643d
00000160: c243 fc3d 18be ec3d 38d0 d73d 2411 e2bd
00000170: 8831 2a3d 203d 953b 1c5d 343d 30f0 5f3c
00000180: ec8e ebbd 0cd3 cd3d 42fd b63d ecb0 a23d
00000190: 64bb 063d 7401 093d 6404 7dbd 8090 fbbc
000001a0: 30c2 c53c 8c32 78bd fcea f73d cc00 7dbd
000001b0: 4063 56bd c0eb f43b b87b 76bd 6026 bbbc
000001c0: e816 f43c 1017 763d 14a7 f23d d47c ccbd
000001d0: 46b8 b73d 80da d7ba 7401 6c3d d4ed e3bd
000001e0: 20f2 5bbd 9a8b d6bd 602b d7bb 8028 953a
000001f0: 9e86 c1bd 84de dfbd dc27 a23d cc24 d03d
00000200: 78eb bcbc 5e1f 9b3d 0c17 133d b61e 873d
00000210: 0826 913c 1cf2 da3d 8496 c9bd 80bc c83c
00000220: 6437 a9bd 44d3 a8bd 0a4e d33d 74cb 85bd
00000230: 885e 89bd 2099 eb3c 18b5 a73c 0465 473d
00000240: 3029 3a3c a895 e33d acdb 743d 789a 9bbc
00000250: 7ca9 88bd 9af6 903d 90f2 d4bc 74de b0bd
00000260: 10f8 e1bc a84a 8dbc 803a 593c 0021 0dbb
00000270: f87a ac3c c09b 3cbb f8e4 e23c 4cd1 af3d
00000280: 7065 283c 74a5 04bd b63c a63d 78ba 373d
00000290: 68fe 453d a07c 78bd 44f0 823d 88fb 7ebd
000002a0: d4c1 bbbd bc6f d33d 0600 a0bd 981b cabd
000002b0: 28f8 5b3d 2447 9e3d a070 fbbd a4dd 7ebd
000002c0: 1e9d 903d 4041 a8bc 202d 0c3d 484f 90bc
000002d0: 604b 033d b022 dfbc 3296 fbbd 0064 7c3d
000002e0: e88f 77bd a8e0 223d 904d 323d 6aec e7bd
000002f0: f0d9 ce3d 88da 84bd bab1 d83d 3083 ac3c
00000300: 6418 d0bd 82e5 f53d 3ce6 813d e8bf 6c3d
00000310: 8816 663d c01c 97bb 7cb3 c43d 38a0 4e3d
00000320: 009d 003c e6b2 e33d c42e a5bd cc30 92bd
00000330: 78e4 ba3c 10fd 9dbc b630 8d3d 0470 02bd
00000340: 04ad 713d 0c29 06bd 3e26 c73d 7edc d0bd
00000350: 340a 2f3d b082 21bd d895 fbbc 00fd 57bd
00000360: b0e9 61bd 5ec3 8a3d ee25 a23d 2c31 64bd
00000370: 905d 093c 9064 b3bd 6474 eb3d bc89 a93d
00000380: b20b b63d 0456 193d 7c3c 0abd 8e37 b93d
00000390: 3060 afbd 4009 cf3b 8cb1 47bd 68b7 dc3c
000003a0: b0b2 60bd 80a5 42bc 00a1 aabd 206e 12bd
000003b0: e07d 1b3d f823 babc 1c5d 7c3d c819 b3bd
000003c0: 36de ed3d d41a d5bd 40e0 f1bb 7cc5 0dbd
000003d0: b0cf 363c 8049 f73d 0260 9abd 58e5 a6bd
000003e0: bcbb 31bd 8c4c 22bd 0665 d3bd 88f3 aabd
000003f0: 48d7 acbd cccf 413d f434 f0bd 1c83 3a3d

transmitter.2.bias f4 [64]
-0.10976602 -0.014272124 -0.102790505 -0.11925192 0.052053064 0.10491739 -0.087885424 0.122994706
-0.002884373 0.065253735 0.048622474 -0.030330047 -0.022299945 -0.0706906 -0.08721438 0.10164535
0.105773896 -0.029147074 -0.109486535 0.10047959 -0.09489831 -0.0059012026 0.122272015 -0.070088714
0.09031205 -0.12265821 0.109521985 -0.037032157 -0.062980235 -0.030297771 0.09027392 -0.10555701
0.117608905 0.05324252 -0.07093045 0.09401442 0.12117283 0.013911724 -0.01826325 -0.10576503
-0.015313983 0.036650985 -0.09553878 0.052761763 -0.048478886 0.004432127 0.032457456 -0.0033290535
-0.052886784 -0.06547733 0.110173956 -0.041671768 0.064780965 0.056303248 -0.019668236 0.043862656
-0.0961754 0.04849556 -0.09963122 -0.068662375 0.021694317 -0.016520038 -0.03796573 0.07558121
00000000: 02cd e0bd a0d5 69bc d483 d2bd 5a3a f4bd
00000010: 9835 553d eede d63d 46fd b3bd a6e4 fb3d
00000020: c007 3dbb c0a3 853d 5c28 473d b876 f8bc
00000030: 60ae b6bc 3cc6 90bd 749d b2bd 702b d03d
00000040: fc9f d83d d8c5 eebc 7a3a e0bd 3ec8 cd3d
00000050: 0c5a c2bd e05e c1bb c069 fa3d ac8a 8fbd
00000060: 86f5 b83d 3a34 fbbd 104d e03d 08af 17bd
00000070: c8fb 80bd 0833 f8bc 88e1 b83d 462e d8bd
00000080: f0dc f03d d414 5a3d fc43 91bd a28a c03d
00000090: 7629 f83d 00ee 633c d09c 95bc 569b d8bd
000000a0: 80e7 7abc 581f 163d d6a9 c3bd b81c 583d
000000b0: cc91 46bd 603b 913b 1cf2 043d 402c 5abb
000000c0: d09f 58bd fa18 86bd e2a2 e13d 04b0 2abd
000000d0: e2ab 843d 3c9e 663d 481f a1bc 54a9 333d
000000e0: 9cf7 c4bd 48a3 463d 740b ccbd dc9e 8cbd
000000f0: 48b8 b13c 0855 87bc f481 1bbd 52ca 9a3d

receiver.0.weight f4 [64, 64]
0.0720081 0.06398223 0.049501255 0.029025003 -0.050320253 -0.06341502 0.018744126 -0.08362177
-0.095156014 -0.04575351 0.12224409 -0.016954169 -0.12479822 -0.03839022 -0.070387766 -0.122453526
0.08722861 -0.11135821 0.045236766 -0.018243358 -0.03794396 -0.07374968 0.08281611 0.017339244
0.08500938 0.08038351 0.09017043 0.018567711 0.050693393 0.08769296 0.079512954 0.1092248
-0.03441827 -0.03473565 -0.011416063 0.06616813 -0.05199048 0.11485234 -0.071893334 0.08537434
-0.12363319 -0.0270973 -0.061793834 -0.018124133 0.037361562 0.104625314 0.053953514 -0.008606538
-0.06502202 0.07245359 0.0802408 -0.07355355 -0.048100278 -0.047250196 -0.09491418 -0.054986
-0.09857339 0.088051334 0.07482244 -0.06476247 -0.018054217 0.018341944 -0.030900925 0.09480487
-0.0077022016 -0.12023011 -0.012891993 -0.0106855035 -0.070414394 -0.023919106 0.103235215 0.10548511
-0.1186969 -0.032708645 -0.09798984 0.032292724 -0.015322074 0.08580181 0.006008476 0.10971539
0.10080223 -0.03703828 0.06364867 -0.09791629 -0.07224479 -0.018031895 0.06271601 0.112277806
0.107931465 -0.056480646 -0.11175108 0.03642556 -0.024308145 -0.0018073022 -0.07210076 0.11493395
0.014483437 0.041377902 -0.07236107 0.06803885 0.050319314 0.07328704 0.019001976 -0.012676507
0.0351803 0.08094105 -0.040777653 0.08016981 0.117922485 -0.029779732 -0.10688783 0.05294758
0.12318699 0.0060391724 0.038823023 0.03636329 -0.04680316 0.10158013 0.11376616 -0.08209866
0.10358946 -0.014613077 0.049180835 0.056180418 0.119904965 0.014366925 0.096714064 -0.099680334
0.008802265 -0.08708422 -0.08734459 -0.065688476 -0.09655084 0.082312346 -0.11966349 -0.05819024
-0.10846612 0.00067198277 -0.017014548 -0.060659364 0.11921354 0.012816176 -0.07492672 -0.031108692
-0.065825894 0.053570658 0.10119188 -0.10862908 0.007892072 0.016883105 -0.08969723 -0.021277443
-0.07660189 0.120968804 -0.009105369 -0.103888795 -0.10298489 -0.02532278 0.09577802 -0.09776771
0.016320243 0.039608464 0.07976386 -0.06407337 0.0035767853 -0.016756669 -0.045336217 0.021279946
-0.038559154 0.116704375 -0.05711676 0.075897545 -0.12066615 -0.006627992 0.09161879 0.044959426
-0.09889132 0.04276529 -0.056886956 -0.052589446 -0.015132591 -0.08948305 0.11662236 -0.041181237
0.06010945 0.010103643 -0.11401808 -0.12324794 0.050147265 0.08753584 0.062422097 -0.11417779
-0.05948153 -0.10002896 -0.047902644 0.08348261 -0.106054455 0.064934865 -0.033512503 0.03814301
0.03505005 0.06905782 0.061734766 -0.065715 0.115409434 -0.019513309 -0.069491625 -0.026081964
-0.0842305 0.11288786 0.100180894 0.022801086 -0.011658311 -0.03879963 -0.010713339 0.05289717
-0.019039243 0.017455801 0.009762883 0.0436562 0.11833441 0.06230764 -0.024245545 0.05638823
0.099624366 -0.08495358 -0.022914052 0.11858693 -0.067028835 -0.09325814 -0.08832131 -0.012214154
-0.08218746 0.067481846 -0.06617218 -0.0024166703 0.030562535 0.081834435 0.05207175 0.08614656
-0.068163276 -0.07622431 -0.06646651 -0.038635015 -0.01071474 0.10517982 0.011507824 -0.060909197
0.005291745 0.019665867 0.052375004 -0.078145236 -0.115064055 -0.03612551 0.09914535 0.02143149
00000000: fc78 933d 1e09 833d d4c1 4a3d d8c5 ed3c
00000010: 9c1c 4ebd bcdf 81bd 488d 993c e441 abbd
00000020: 28e1 c2bd 0868 3bbd 1c5b fa3d 78e3 8abc
00000030: 3696 ffbd 103f 1dbd 7627 90bd eac8 fabd
00000040: eaa4 b23d c60f e4bd 304a 393d 1873 95bc
00000050: 206b 1bbd 120a 97bd 7e9b a93d 080b 8e3c
00000060: 6619 ae3d 1ca0 a43d 46ab b83d 501b 983c
00000070: e0a3 4f3d 5e98 b33d b0d7 a23d 40b1 df3d
00000080: 2cfa 0cbd f846 0ebd 700a 3bbc 2883 873d
00000090: f8f3 54bd b437 eb3d d03c 93bd bed8 ae3d
000000a0: 6633 fdbd 28fb ddbc 881b 7dbd 1079 94bc
000000b0: 7008 193d cc45 d63d 5cfe 5c3d 7002 0dbc
000000c0: 442a 85bd 8c62 943d 4a55 a43d 3ea3 96bd
000000d0: cc04 45bd 6c89 41bd 5e62 c2bd 0039 61bd
000000e0: d8e0 c9bd 4254 b43d 823c 993d 30a2 84bd
000000f0: 70e6 93bc d841 963c f023 fdbc 0e29 c23d
00000100: c062 fcbb 343b f6bd f038 53bc 4012 2fbc
00000110: 6c35 90bd 00f2 c3bc fc6c d33d 9408 d83d
00000120: 5c17 f3bd 80f9 05bd e6ae c8bd 6045 043d
00000130: 7009 7bbc dcb8 af3d c0e2 c43b 76b2 e03d
00000140: 6671 ce3d 74b5 17bd 3c5a 823d 5688 c8bd
00000150: 14f5 93bd a0b7 93bc 4071 803d e8f1 e53d
00000160: 2c0b dd3d 4058 67bd c0dd e4bd f832 153d
00000170: e021 c7bc 00e3 ecba 90a9 93bd 7e62 eb3d
00000180: f04b 6d3c e07b 293d 0a32 94bd f457 8b3d
00000190: a01b 4e3d 8417 963d 08aa 9b3c 20b1 4fbc
000001a0: 3819 103d 6cc4 a53d 7806 27bd 1230 a43d
000001b0: 5881 f13d a0f4 f3bc 02e8 dabd 90df 583d
000001c0: 7649 fc3d 40e4 c53b e404 1f3d acf1 143d
000001d0: acb4 3fbd 3e09 d03d 3cfe e83d 5823 a8bd
000001e0: b626 d43d b06b 6fbc d871 493d 701d 663d
000001f0: bc90 f53d 4063 6b3c 0612 c63d 3425 ccbd
00000200: 6037 103c 3659 b2bd b8e1 b2bd ae87 86bd
00000210: 72bc c5bd 6093 a83d 2212 f5bd e458 6ebd
00000220: 7c23 debd 0028 303a 1862 8bbc f475 78bd
00000230: 3a26 f43d f0fa 513c 2e73 99bd a8d7 febc
00000240: bacf 86bd e86c 5b3d b03d cf3d ec78 debd
00000250: c04d 013c 704e 8a3c 2eb3 b7bd 084e aebc
00000260: 74e1 9cbd 7ebe f73d b02e 15bc a6c3 d4bd
00000270: bee9 d2bd b871 cfbc 4427 c43d 703a c8bd
00000280: 08b2 853c 7c3c 223d 3c5b a33d e638 83bd
00000290: 8068 6a3b 4845 89bc 78b2 39bd 4853 ae3c
000002a0: 34f0 1dbd b402 ef3d 44f3 69bd 2c70 9b3d
000002b0: d01f f7bd a02f d9bb a2a2 bb3d 6027 383d
000002c0: 8887 cabd a82a 2f3d 4c02 69bd 0868 57bd
000002d0: b0ee 77bc e442 b7bd b4d7 ee3d a8ad 28bd
000002e0: 5435 763d c089 253c 5082 e9bd 6a69 fcbd
000002f0: 3867 4d3d fe45 b33d 50ae 7f3d 0cd6 e9bd
00000300: e8a2 73bd fcdb ccbd 9035 44bd eef8 aa3d
00000310: 1433 d9bd 92fc 843d 6844 09bd d83b 1c3d
00000320: a490 0f3d 306e 8d3d 98dd 7c3d 9695 86bd
00000330: c85b ec3d 60da 9fbc a051 8ebd d8a9 d5bc
00000340: 0a81 acbd c031 e73d a42b cd3d 58c9 ba3c
00000350: 8002 3fbc 5cec 1ebd 0087 2fbc b4aa 583d
00000360: 30f8 9bbc 78ff 8e3c 80f4 1f3c d8d0 323d
00000370: 5059 f23d 4c36 7f3d 989e c6bc 58f7 663d
00000380: dc07 cc3d 24fc adbd 40b6 bbbc b4dd f23d
00000390: 6a46 89bd 20fe bebd cee1 b4bd e01d 48bc
000003a0: e651 a8bd ec33 8a3d 4885 87bd 0061 1ebb
000003b0: 485e fa3c d098 a73d 3049 553d 9c6d b03d
000003c0: 3099 8bbd 7e1b 9cbd 981f 88bd c03f 1ebd
000003d0: e08c 2fbc 8468 d73d 508b 3c3c ec7b 79bd
000003e0: 6066 ad3b 501a a13c 2c87 563d 9c0a a0bd
000003f0: b4a6 ebbd 58f8 13bd b80c cb3d 1891 af3c

receiver.0.bias f4 [64]
-0.12435278 0.12234527 0.08722907 0.091911554 0.0074722916 -0.07451944 0.07762864 -0.11916302
0.08423433 -0.028111681 -0.10337748 -0.04392779 -0.011030763 0.11754042 -0.033679947 0.037487417
0.0351073 -0.013890654 -0.08448696 -0.03760986 0.09016724 0.10937844 -0.058802888 0.082693756
0.059194192 -0.05076188 0.039569274 0.041938752 0.020911619 -0.11887857 -0.027980283 -0.03684631
0.074346006 -0.091386795 0.028942183 0.110257074 0.054422483 -0.12389241 0.10196532 -0.10577899
0.04630734 -0.032268435 0.07683474 0.09272371 0.07702921 0.075543195 0.11417864 -0.06810509
-0.055794016 0.017226428 0.029975325 -0.056533232 0.06429958 -0.014689818 0.06449017 0.003937334
0.10811967 -0.036340103 -0.0014524907 0.059028953 0.05184163 0.038976207 0.0020378977 -0.02948226
00000000: acac febd 2890 fa3d 28a5 b23d 203c bc3d
00000010: 20da f43b a69d 98bd c4fb 9e3d be0b f4bd
00000020: 0c83 ac3d 784a e6bc 92b7 d3bd a0ed 33bd
00000030: 60ba 34bc 08b9 f03d fcf3 09bd 688c 193d
00000040: accc 0f3d a095 63bc 8007 adbd cc0c 1abd
00000050: 9aa9 b83d ce01 e03d 4cdb 70bd 585b a93d
00000060: 9c75 723d b0eb 4fbd 6413 223d f8c7 2b3d
00000070: d84e ab3c 9c76 f3bd e836 e5bc 28ec 16bd
00000080: b842 983d 0029 bbbd 2818 ed3c 76ce e13d
00000090: 1cea 5e3d 4ebb fdbd 32d3 d03d a8a2 d8bd
000000a0: c4ac 3d3d e82b 04bd 885b 9d3d eee5 bd3d
000000b0: 7ec1 9d3d 64b6 9a3d 7ed6 e93d ae7a 8bbd
000000c0: 4488 64bd 701e 8d3c d08e f53c 648f 67bd
000000d0: 80af 833d 90ad 70bc 6c13 843d c004 813b
000000e0: d86d dd3d 5cd9 14bd 8061 beba 58c8 713d
000000f0: e457 543d 84a5 1f3d 408e 053b c884 f1bc

receiver.2.weight f4 [2, 64]
0.062207073 0.038894787 0.035986617 -0.04669158 0.042766884 -0.06567831 -0.076388404 0.06933655
-0.119557366 -0.09822567 0.054020047 -0.12409441 0.054173365 -0.07945499 0.10452327 0.037733242
-0.0707576 0.04680437 0.037910923 0.0109853 -0.017059088 0.07756689 -0.050182864 0.09346439
-0.08913411 -0.018066406 0.11403209 -0.116752386 0.0828847 -0.011265799 -0.011731699 -0.03202787
-0.088013664 -0.117271036 0.053582177 -0.055982172 -0.12426834 -0.079062775 -0.044783697 0.0038632005
-0.07098895 0.119656205 0.08247545 0.12048589 0.0026968569 -0.040289134 -0.032780692 -0.07102467
-0.043844387 0.037747607 0.108064055 0.066134036 0.081661835 -0.11402084 -0.11650786 -0.10623057
0.110218436 -0.11311284 0.03758511 0.083383024 0.051161647 0.10000418 -0.07616685 -0.068173274
-0.1135302 0.052186996 -0.0395004 -0.046553 -0.08806567 0.11712742 0.047747344 0.008441582
0.11441055 0.0032697767 0.124799445 0.037711143 0.005215004 0.008819997 -0.053578615 0.07429597
-0.025946617 -0.029150575 0.06649865 -0.05682543 -0.086903125 -0.012246549 -0.087865755 0.0013744235
0.119794875 0.021389917 -0.07772626 -0.07918827 -0.11178754 -0.096467495 0.048525497 0.06440508
-0.015247539 -0.113499075 0.033318385 0.063907266 -0.123100296 0.063329786 0.117778465 -0.037522674
0.03167902 -0.04071258 -0.06780696 -0.022658035 -0.0488846 -0.0062036067 -0.06601319 0.066495374
-0.06800671 0.096280694 0.0980418 -0.113164976 0.027109459 -0.09528358 0.034925535 0.076441094
0.013419256 -0.061119035 0.010421693 -0.09544723 0.10787156 0.035148144 0.006760612 0.07500844
00000000: d8cc 7e3d 2450 1f3d b466 133d ac3f 3fbd
00000010: 542c 2f3d 5a82 86bd 8671 9cbd 5200 8e3d
00000020: 7eda f4bd 8a2a c9bd 2044 5d3d 3625 febd
00000030: e4e4 5d3d 4cb9 a2bd 4c10 d63d 2c8e 1a3d
00000040: 5ce9 90bd f0b5 3f3d 7c48 1b3d b0fb 333c
00000050: 80bf 8bbc 64db 9e3d 8c8c 4dbd 426a bf3d
00000060: f28b b6bd 0000 94bc a889 e93d e01b efbd
00000070: 74bf a93d 3094 38bc 5036 40bc a82f 03bd
00000080: 8240 b4bd cc2b f0bd fc78 5b3d 904d 65bd
00000090: 6680 febd aaeb a1bd 1c6f 37bd c02d 7d3b
000000a0: a862 91bd 500e f53d e4e8 a83d 4ec1 f63d
000000b0: c0bd 303b 3806 25bd 0c45 06bd 6275 91bd
000000c0: 2c96 33bd 3c9d 1a3d b050 dd3d 4871 873d
000000d0: 523e a73d c283 e9bd ac9b eebd 6a8f d9bd
000000e0: 34ba e13d b4a7 e7bd d8f2 193d b8c4 aa3d
000000f0: e08e 513d fece cc3d 5efd 9bbd 6e9e 8bbd
00000100: 8682 e8bd 08c2 553d 2ccb 21bd 5cae 3ebd
00000110: c65b b4bd 80e0 ef3d b892 433d 904e 0a3c
00000120: 1450 ea3d c049 563b da96 ff3d 0077 1a3d
00000130: a0e2 aa3b c081 103c 4075 5bbd 7c28 983d
00000140: 008e d4bc 30cd eebc 7230 883d c8c1 68bd
00000150: 44fa b1bd c0a5 48bc f6f2 b3bd 0026 b43a
00000160: 0457 f53d e839 af3c f22e 9fbd 762d a2bd
00000170: def0 e4bd c090 c5bd acc2 463d d0e6 833d
00000180: d0d0 79bc 3472 e8bd dc78 083d d0e1 823d
00000190: 021c fcbd 0cb3 813d d635 f13d 60b1 19bd
000001a0: dcc1 013d 3cc2 26bd 60de 8abd 589d b9bc
000001b0: 383b 48bd a047 cbbb ec31 87bd ba2e 883d
000001c0: 1a47 8bbd d02e c53d 24ca c83d 0ac3 e7bd
000001d0: a814 de3c 0a24 c3bd 140e 0f3d 268d 9c3d
000001e0: 70dc 5b3c f457 7abd c0bf 2a3c d679 c3bd
000001f0: c4eb dc3d 80f7 0f3d 2088 dd3b 069e 993d

receiver.2.bias f4 [2]
0.045009986 0.09096983
00000000: 645c 383d 644e ba3d
