checkpoint.pt (torch, 545891 bytes, 22 tensors)

ob_encoder.0.weight f4 [64, 1000]
-0.72882783 0.027621027 -0.4432764 -0.38949385 -0.08381429 -0.61954534 0.48718804 -0.51847994
0.693188 0.10285294 0.34991333 0.5065754 -0.122485295 0.6859746 -0.32335716 0.5962478
-0.7040938 -0.22172615 -0.5704628 -0.40403467 -0.008163266 -0.48069102 0.4206457 -0.38614646
0.7380539 0.17358103 0.55041915 0.43704718 -0.05950389 0.55252737 -0.5278717 0.4346913
-0.65899307 -0.04415231 -0.45565462 -0.32494563 0.08666162 -0.56048447 0.5199226 -0.38999024
0.49125877 0.24514885 0.4505992 0.50254583 -0.059474528 0.53406507 -0.46952608 0.5130841
-0.4819779 -0.08930876 -0.49518773 -0.6320418 0.07592804 -0.65618616 0.426535 -0.48323902
0.45754775 0.016828245 0.41154572 0.3832736 -0.016668368 0.710368 -0.3524485 0.5430776
-0.776582 -0.09225001 -0.4923461 -0.5524324 0.039975375 -0.53657055 0.57352865 -0.42320377
0.72113127 0.030171137 0.46044046 0.49591872 -0.1212509 0.576925 -0.37835908 0.5503519
-0.64175355 0.004217626 -0.485709 -0.44723594 0.06804529 -0.58096385 0.4178036 -0.46064997
0.70800287 -0.14087464 0.395721 0.6147369 -0.10044377 0.6568642 -0.42776102 0.4213346
-0.57863766 0.029069861 -0.35223103 -0.51695853 0.031632952 -0.62321633 0.5384449 -0.4679498
0.66320294 0.021322258 0.42694065 0.5855977 -0.1417366 0.64926684 -0.6523216 0.49320427
-0.7161061 0.047879677 -0.45244068 -0.53990453 -0.10023956 -0.6499221 0.46117583 -0.40407008
0.535531 0.22251704 0.42595622 0.45999792 -0.058468554 0.59708154 -0.579345 0.44750237
-0.039839957 -0.0421227 0.001392067 0.04296529 0.10399003 0.06764108 0.0787966 0.005430419
0.004971758 0.09332076 -0.048788227 0.067531444 0.017219353 0.0033829657 0.23195544 -0.12792122
-0.10782181 0.05438736 0.19920436 -0.12639494 -0.04439602 -0.24303003 0.06814956 0.07187806
0.030101724 0.09239734 0.20553015 -0.07575735 0.009243713 0.07702085 -0.04265899 0.11528034
0.16819932 -0.08844611 -0.10896169 -0.05515428 0.008351873 0.054086465 0.15607964 0.13612755
-0.05301558 -0.013237567 -0.12178938 -0.15303397 0.013517293 0.13904765 -0.056136362 -0.0018381572
0.014751171 0.049408562 0.019762782 -0.16978917 -0.11928024 0.13842575 -0.036089808 0.12887792
0.06582287 0.022021024 0.039886992 -0.034758035 -0.004208643 -0.06853657 -0.056047834 0.07525216
-0.104558714 -0.013147552 0.05731302 0.07572355 0.019027019 -0.058661107 0.08939351 0.009557964
-0.044844702 0.041111458 0.10104411 0.0008110618 0.045329846 0.064208545 -0.1810118 0.07338618
0.0067306175 -0.03447272 0.2774391 -0.12778854 0.08938864 0.081686586 -0.04535036 -0.102176614
-0.045812834 -0.0131046735 -0.0069396677 0.00042808053 -0.059448868 0.023363797 -0.09859813 0.052524902
-0.09292629 0.0071625826 0.024604471 -0.14362632 0.075390264 -0.087705106 -0.04196417 0.055294264
0.018223917 0.030383587 -0.07512232 -0.13943878 0.19197612 0.18397681 -0.26446113 -0.0699466
-0.007498582 0.079100035 -0.017699335 0.08766108 -0.08150998 -0.11976881 0.02008539 -0.04797599
0.039394036 0.070746735 0.0035627838 0.1225312 -0.062002476 -0.06529071 0.10720757 -0.0024237488
00000000: 7694 3abf 7e45 e23c 20f5 e2be bd6b c7be
00000010: d4a6 abbd 869a 1ebf b670 f93e 1abb 04bf
00000020: c574 313f 90a4 d23d d727 b33e edae 013f
00000030: 92d9 fabd 089c 2f3f 128f a5be b2a3 183f
00000040: 7e3f 34bf 2e0c 63be da09 12bf a2dd cebe
00000050: 38bf 05bc 221d f6be e05e d73e fdb4 c5be
00000060: 1af1 3c3f 3abf 313e 45e8 0c3f a6c4 df3e
00000070: 5aba 73bd 6f72 0d3f 9a22 07bf dc8f de3e
00000080: c5b3 28bf 0dd9 34bd 904b e9be 465f a6be
00000090: a67b b13d e97b 0fbf a619 053f cdac c7be
000000a0: 4586 fb3e 4d08 7b3e f0b4 e63e d8a6 003f
000000b0: 909b 73bd 7db8 083f b965 f0be 7b59 033f
000000c0: cfc5 f6be 83e7 b6bd 3f89 fdbe 7ecd 21bf
000000d0: 2980 9b3d d1fb 27bf cc62 da3e 1b6b f7be
000000e0: b343 ea3e 63db 893c 1fb6 d23e 703c c43e
000000f0: 1a8c 88bc adda 353f 2174 b4be 2207 0b3f
00000100: 14ce 46bf 93ed bcbd ca14 fcbe 366c 0dbf
00000110: 38bd 233d b05c 09bf c6d2 123f 2aae d8be
00000120: 0f9c 383f 7629 f73c dabe eb3e 0fe9 fd3e
00000130: 6452 f8bd 5bb1 133f 48b8 c1be dde3 0c3f
00000140: f649 24bf 0334 8a3b daae f8be 1cfc e4be
00000150: 545b 8b3d 0cba 14bf 5aea d53e 50da ebbe
00000160: ad3f 353f 7141 10be f19b ca3e 665f 1d3f
00000170: 77b5 cdbd 4128 283f 7e03 dbbe 2bb9 d73e
00000180: 9921 14bf eb23 ee3c a057 b4be 6557 04bf
00000190: 8e91 013d 1b8b 1fbf 86d7 093f 1e97 efbe
000001a0: abc7 293f 04ac ae3c f797 da3e bbe9 153f
000001b0: 6623 11be 5a36 263f 8cfe 26bf 4585 fc3e
000001c0: bb52 37bf 7b1d 443d 4ea6 e7be 2f37 0abf
000001d0: 664a cdbd 4b61 26bf 3d1f ec3e 46e2 cebe
000001e0: 8f18 093f 82db 633e ef16 da3e d984 eb3e
000001f0: b97c 6fbd 56da 183f f44f 14bf 081f e53e
00000200: 392f 23bd da88 2cbd 0476 b63a 5ffc 2f3d
00000210: baf8 d43d 6887 8a3d 1d60 a13d a8f1 b13b
00000220: 21ea a23b f41e bf3d 2ad6 47bd ed4d 8a3d
00000230: 9a0f 8d3c bfb4 5d3b ba85 6d3e c8fd 02be
00000240: aed1 dcbd 48c5 5e3d 3afc 4b3e ad6d 01be
00000250: 9ad8 35bd dddc 78be ff91 8b3d ce34 933d
00000260: e497 f63c d13a bd3d 7f76 523e ab26 9bbd
00000270: f172 173c 1bbd 9d3d 31bb 2ebd 1918 ec3d
00000280: 713c 2c3e 3c23 b5bd 4e27 dfbd 74e9 61bd
00000290: 4bd6 083c c589 5d3d 57d3 1f3e 0565 0b3e
000002a0: dd26 59bd 61e2 58bc b66c f9bd f0b4 1cbe
000002b0: a377 5d3c 8262 0e3e 3eef 65bd 52ee f0ba
000002c0: e5ae 713c a260 4a3d 8fe5 a13c 36dd 2dbe
000002d0: 3349 f4bd 7bbf 0d3e e8d2 13bd 93f8 033e
000002e0: 24ce 863d 6f65 b43c 8b60 233d 715e 0ebd
000002f0: a8e8 89bb e75c 8cbd 6a92 65bd ce1d 9a3d
00000300: e122 d6bd d468 57bc 0fc1 6a3d f314 9b3d
00000310: 8dde 9b3c a146 70bd f213 b73d 0299 1c3c
00000320: 14af 37bd 7d64 283d 37f0 ce3d 709d 543a
00000330: caab 393d c57f 833d 285b 39be 7e4b 963d
00000340: 838c dc3b 4433 0dbd 7f0c 8e3e 00db 02be
00000350: 6411 b73d 4c4b a73d 4dc1 39bd f941 d1bd
00000360: 3da6 3bbd fcb4 56bc 2766 e3bb ff6f e039
00000370: a880 73bd 6f65 bf3c d1ed c9bd 5a24 573d
00000380: 2450 bebd 19b4 ea3b 518f c93c c712 13be
00000390: 3666 9a3d bc9e b3bd 9fe2 2bbd 3d7c 623d
000003a0: 534a 953c 00e7 f83c bbd9 99bd 0ac9 0ebe
000003b0: 6395 443e 6b64 3c3e 7367 87be 2a40 8fbd
000003c0: aab6 f5bb 33ff a13d 32fe 90bc a787 b33d
000003d0: b4ee a6bd 5a49 f5bd 1e8a a43c 7982 44bd
000003e0: a45b 213d aae3 903d 987d 693b a3f1 fa3d
000003f0: 4ff6 7dbd 23b7 85bd a48f db3d c2d7 1ebb

ob_encoder.0.bias f4 [64]
0.47474667 0.4407096 0.4684053 0.425255 0.46317336 0.42081323 0.4442981 0.4398344
0.42118603 0.4203546 0.43600565 0.4432423 0.47505257 0.4605083 0.44740668 0.4375047
0.5641305 0.4271457 0.4306916 0.41577408 0.4209803 0.4525732 0.4960666 0.45891917
0.47248068 0.4488296 0.42111728 0.41735014 0.418228 0.43347827 0.43881676 0.42360172
0.4924114 0.4454208 0.41656628 0.43177298 0.47054034 0.4515276 0.52497554 0.44240296
0.43307707 0.42386198 0.4312903 0.43667206 0.4084087 0.50040096 0.49174798 0.4623169
0.41557828 0.4443453 0.4253074 0.46505624 0.42828137 0.49457887 0.45673546 0.42808443
0.42652068 0.43073836 0.436846 0.4224706 0.46749339 0.42532274 0.41266915 0.43061152
00000000: ff11 f33e b0a4 e13e d2d2 ef3e 06bb d93e
00000010: 0f25 ed3e d574 d73e 0a7b e33e f931 e13e
00000020: b2a5 d73e b838 d73e 223c df3e a8f0 e23e
00000030: 173a f33e bec7 eb3e 7d12 e53e 9e00 e03e
00000040: db6a 103f d7b2 da3e 9c83 dc3e 57e0 d43e
00000050: bb8a d73e adb7 e73e 71fc fd3e 74f7 ea3e
00000060: fde8 f13e fecc e53e af9c d73e ebae d53e
00000070: fb21 d63e ddf0 dd3e 97ac e03e 53e2 d83e
00000080: 591d fc3e 320e e43e 2d48 d53e 5911 dd3e
00000090: aaea f03e a02e e73e cc64 063f a482 e23e
000000a0: 47bc dd3e 7004 d93e 15d2 dc3e 7b93 df3e
000000b0: f21a d13e 471a 003f 64c6 fb3e cdb4 ec3e
000000c0: adc6 d43e 3a81 e33e e4c1 d93e da1b ee3e
000000d0: b247 db3e 7139 fd3e 3bd9 e93e e22d db3e
000000e0: eb60 da3e bd89 dc3e 47aa df3e 114e d83e
000000f0: 4b5b ef3e e7c3 d93e 5f49 d33e 1d79 dc3e

ob_encoder.2.weight f4 [16, 64]
0.055669457 0.06641429 -0.04047081 0.048795745 -0.07037154 0.07423648 -0.026234752 -0.08949725
-0.11353686 -0.049644053 0.10445923 -0.07426204 -0.064111374 -0.063899726 0.00085851445 -0.11068091
0.06757313 -0.025015905 0.06252946 0.045820944 -0.115386285 0.045440536 0.08046882 0.092242114
-0.0641674 0.036587086 -0.03076446 0.06885122 -0.12514126 -0.1290618 0.031080661 -9.105911e-05
0.077151775 -0.12452218 -0.027902162 -0.028286414 -0.0067276247 -0.017508822 -0.0013686696 -0.12280002
-0.0703662 0.019586617 0.018250657 -0.0003821764 -0.10749993 -0.007190685 0.05247748 0.0010976999
0.036834702 0.09740492 0.111412026 -0.11305699 0.0950393 0.074578345 -0.116967894 -0.004163457
0.08729357 0.00042312042 -0.050034598 -0.066567734 0.022914572 0.0027318771 -0.025384465 0.022310544
0.9647833 0.9109674 -0.819111 0.9901039 1.1228259 1.0717452 1.1001971 0.9399513
0.90853024 1.0247202 0.88709813 1.0273737 0.8708404 -0.8865624 0.9056359 0.9774154
0.8785783 1.0564047 1.1025696 0.9451496 0.85528934 0.9313237 -0.80379987 1.0912598
0.93511134 0.9616112 1.1128604 -0.47921988 0.99834424 1.1045597 1.0126185 0.8901481
1.1375284 -0.82202905 1.0597821 1.0479603 1.113202 0.9877464 1.1119543 0.91638166
1.0330732 0.94246864 0.90325713 0.9433291 0.9034183 0.99318194 1.0885652 1.0459628
0.9049827 1.1303067 0.9774774 -0.8667165 1.0488571 1.0434161 1.1428374 0.9316419
1.0887132 1.121081 1.0966743 0.89056236 0.93683136 1.1166494 0.89735025 1.1225848
-0.10440732 0.0026865231 -0.09561913 -0.0019717417 -0.10717626 -0.070123196 -0.1323083 -0.03801799
0.06538949 -0.13329533 0.0034467208 0.09432589 -0.071977586 -0.025458142 -0.06338126 -0.08906793
0.07665366 -0.03219096 0.0322272 0.04842864 -0.024990598 -0.11771718 0.038732987 0.036426418
0.001737552 0.012830335 0.062093653 -0.017259719 -0.08239111 0.038932387 -0.017325506 -0.056579825
-0.14040665 -0.09137279 -0.019346632 -0.07779004 0.07801665 0.05897699 -0.07787316 0.0024130838
0.0442402 0.0409068 0.06686001 -0.12536262 -0.08027661 0.096433446 -0.067651585 -0.092290476
-0.011175874 0.052872162 0.06505951 0.104162626 0.08640703 -0.106729664 0.054931533 0.022566142
-0.016873637 0.018267104 -0.12746915 -0.01297432 -0.01763109 -0.11211591 0.041957352 0.06866901
-0.121616274 -0.07774437 0.094335444 0.06595535 -0.07913019 0.041038033 -0.12818933 -0.051100746
-0.1366764 0.047201443 -0.1555117 -0.10565216 0.03394596 -0.03932361 -0.16087596 -0.15048635
0.04611377 -0.07236745 0.033683892 -0.031177524 -0.120507434 -0.16819184 -0.06559191 -0.021182936
-0.05661777 -0.13867573 -0.024331091 -0.031193184 0.081966124 0.022414042 -0.0039030416 0.10370441
-0.15897064 -0.07187099 0.027196992 0.03742611 0.058265842 0.029304665 -0.040124 0.027149335
0.11478151 -0.032828543 -0.1052553 -0.106705636 0.047516685 -0.0067758914 0.017859288 -0.018289186
-0.101516545 -0.06330241 -0.013843839 -0.04499139 -0.096520945 0.03622433 -0.006272736 -0.0065531735
-0.09847503 -0.1607335 0.024487922 -0.07941451 0.033601712 -0.14454222 0.009024593 -0.025317188
00000000: a805 643d 3704 883d b8c4 25bd 0cde 473d
00000010: f41e 90bd 4c09 983d 43ea d6bc 564a b7bd
00000020: 0386 e8bd 9057 4bbd b9ee d53d b216 98bd
00000030: d34c 83bd dcdd 82bd ee0d 613a acac e2bd
00000040: c863 8a3d 28ee ccbc 720f 803d beae 3b3d
00000050: a54f ecbd db1f 3a3d d6cc a43d 6fe9 bc3d
00000060: 336a 83bd 57dc 153d c005 fcbc de01 8d3d
00000070: 0825 00be c728 04be df9c fe3c fdf6 beb8
00000080: c001 9e3d 7c05 ffbd 1393 e4bc e9b8 e7bc
00000090: 6873 dcbb a96e 8fbc ee64 b3ba 947e fbbd
000000a0: 271c 90bd 1d74 a03c 6782 953c d95e c8b9
000000b0: ec28 dcbd d69f ebbb a0f2 563d b2e0 8f3a
000000c0: fcdf 163d 3b7c c73d fd2b e43d 6c8a e7bd
000000d0: f7a3 c23d 88bc 983d dd8c efbd 9c6d 88bb
000000e0: f9c6 b23d 43d6 dd39 14f1 4cbd aa54 88bd
000000f0: 57b7 bb3c 4b09 333b 15f3 cfbc 9ac4 b63c
00000100: 0afc 763f 2935 693f 42b1 51bf 7377 7d3f
00000110: c2b8 8f3f f22e 893f 42d3 8c3f a6a0 703f
00000120: 7095 683f 082a 833f dd18 633f fb80 833f
00000130: 65ef 5e3f c1f5 62bf c1d7 673f e537 7a3f
00000140: 82ea 603f 4538 873f 0021 8d3f 53f5 713f
00000150: 3ef4 5a3f 3b6b 6e3f d4c5 4dbf 67ae 8b3f
00000160: 7563 6f3f 272c 763f 3672 8e3f 4f5c f5be
00000170: 7d93 7f3f 3662 8d3f 7c9d 813f bfe0 633f
00000180: 889a 913f 7f70 52bf f1a6 873f 9023 863f
00000190: 677d 8e3f f3dc 7c3f 8554 8e3f fd97 6a3f
000001a0: be3b 843f a045 713f dc3b 673f 047e 713f
000001b0: 6c46 673f 2c41 7e3f 1b56 8b3f 1ce2 853f
000001c0: f2ac 673f e4ad 903f f53b 7a3f 22e1 5dbf
000001d0: f340 863f a98e 853f 7f48 923f 1580 6e3f
000001e0: f45a 8b3f 957f 8f3f d35f 8c3f e5fb 633f
000001f0: 2ed4 6f3f 5eee 8e3f bfb8 653f dcb0 8f3f
00000200: 81d3 d5bd 6110 303b f6d3 c3bd 5638 01bb
00000210: 3a7f dbbd c09c 8fbd d47b 07be c0b8 1bbd
00000220: edea 853d 927e 08be 61e2 613b ef2d c13d
00000230: fc68 93bd 988d d0bc 09ce 81bd 3f69 b6bd
00000240: 98fc 9c3d abda 03bd ab00 043d 1c5d 463d
00000250: 15b9 ccbc b415 f1bd 7ba6 1e3d de33 153d
00000260: 92be e33a 5336 523c ea55 7e3d 4164 8dbc
00000270: acbc a8bd 9177 1f3d 38ee 8dbc 3fc0 67bd
00000280: c3c6 0fbe a821 bbbd d47c 9ebc 6250 9fbd
00000290: 32c7 9f3d db91 713d f77b 9fbd d424 1e3b
000002a0: 3635 353d e48d 273d e7ed 883d 0f5f 00be
000002b0: 1068 a4bd e67e c53d ea8c 8abd ca02 bdbd
000002c0: 031b 37bc 7b90 583d ec3d 853d 3753 d53d
000002d0: 2bf6 b03d 1595 dabd e3ff 603d a1dc b83c
000002e0: 953a 8abc e5a4 953c 4687 02be 3e92 54bc
000002f0: 136f 90bc 079d e5bd 79db 2b3d 57a2 8c3d
00000300: f411 f9bd 7138 9fbd f132 c13d 9913 873d
00000310: 020f a2bd 7f17 283d 1044 03be 044f 51bd
00000320: e6f4 0bbe 4d56 413d 763e 1fbe 2960 d8bd
00000330: eb0a 0b3d cb11 21bd abbc 24be 1819 1abe
00000340: cbe1 3c3d 6335 94bd 1ff8 093d 0268 ffbc
00000350: 9acc f6bd 7b3a 2cbe 0d55 86bd d687 adbc
00000360: 09e8 67bd 0301 0ebe ff51 c7bc d988 ffbc
00000370: dbdd a73d a79d b73c 2cca 7fbb fa62 d43d
00000380: 33c9 22be 1931 93bd 3acc de3c 1f4c 193d
00000390: 2aa8 6e3d 5610 f03c 1059 24bd 4868 de3c
000003a0: 9112 eb3d 3977 06bd 1790 d7bd 7c88 dabd
000003b0: dba0 423d 4c08 debb a44d 923c 34d3 95bc
000003c0: e8e7 cfbd b2a4 81bd 45d1 62bc e448 38bd
000003d0: c6ac c5bd f75f 143d 868b cdbb 01bc d6bb
000003e0: 47ad c9bd 5397 24be e59a c83c 13a4 a2bd
000003f0: f3a1 093d e002 14be e3db 133c fe65 cfbc

ob_encoder.2.bias f4 [16]
-0.12707546 0.28405747 -0.056692284 -0.003964542 -0.046548165 -0.084627405 0.26250327 0.2957065
0.3099033 0.24527535 0.1579509 0.28029546 0.29272094 0.563632 0.5211247 -0.093567245
00000000: 1220 02be fb6f 913e 2b36 68bd fde8 81bb
00000010: 4aa9 3ebd 2251 adbd d466 863e d866 973e
00000020: a5ab 9e3e 7629 7b3e e1bd 213e e382 8f3e
00000030: 85df 953e 304a 103f 6e68 053f 2fa0 bfbd

ob_encoder.4.weight f4 [2, 16]
0.10108505 -1.2785151 0.2187119 0.03288264 -0.05770295 0.2032117 -1.0776905 -1.1551726
-1.1610347 -1.1613826 -0.7969848 -1.085621 -0.9797916 0.72683203 0.7902164 0.1774654
0.19736503 -0.5427532 -0.14031076 0.22413316 0.15760991 -0.13927954 -0.83452034 -0.62004006
-0.55426204 -0.63373464 -0.7865743 -0.7040272 -0.77489567 0.43598235 0.8046456 0.04343636
00000000: ae05 cf3d 62a6 a3bf 03f6 5f3e f2af 063d
00000010: ee59 6cbd ba16 503e c3f1 89bf b2dc 93bf
00000020: c99c 94bf 2fa8 94bf 3207 4cbf a1f5 8abf
00000030: 9fd3 7abf aa11 3a3f 9f4b 4a3f 7db9 353e
00000040: 0f1a 4a3e e0f1 0abf a0ad 0fbe 2a83 653e
00000050: 7e64 213e 4c9f 0ebe 20a3 55bf f2ba 1ebf
00000060: 1ee4 0dbf 6f3c 22bf ef5c 49bf 203b 34bf
00000070: 905f 46bf 1439 df3e 41fd 4d3f 53ea 313d

ob_encoder.4.bias f4 [2]
-0.27639338 -0.219771
00000000: 6f83 8dbe a60b 61be

ob_decoder.0.weight f4 [64, 1000]
-1.9199603 0.6424857 -1.7324399 -0.9715468 -0.7255596 -1.9585992 0.8648186 -1.7024711
1.9738466 -0.7462888 1.6250192 0.79502136 0.7734049 1.8250033 -0.96336323 1.6483111
-1.9588851 0.6563419 -1.5767205 -0.8163028 -0.6441974 -1.9761547 0.81736267 -1.651996
1.8804778 -0.7713809 1.6892403 0.906416 0.69831 1.9811797 -0.8403077 1.664839
-1.9354286 0.73870486 -1.6491299 -0.86234105 -0.6687616 -1.8619354 0.91759115 -1.7019467
2.0119896 -0.6621751 1.6726426 0.8232648 0.789808 1.9482728 -0.8616154 1.6730121
-1.9954329 0.73480797 -1.6425315 -0.9744395 -0.7115397 -1.95616 1.0159017 -1.6866192
1.974084 -0.6369472 1.6534456 0.83471495 0.6636123 1.992953 -0.8624051 1.7839017
-1.9528462 0.65936387 -1.6694807 -0.95431715 -0.76334065 -1.9125508 0.95799536 -1.6947815
1.9541708 -0.6253125 1.6374975 1.0109249 0.6635641 1.9465275 -0.9720373 1.7916399
-1.9049981 0.77236694 -1.6603462 -0.8816698 -0.68274564 -1.8682939 0.9719409 -1.6458771
1.9767747 -0.7723733 1.7427175 0.8460407 0.6887673 2.009744 -0.9039297 1.6789536
-1.9822419 0.78798705 -1.6023614 -0.7772895 -0.7066497 -1.9185821 0.8703576 -1.6396351
1.9788734 -0.7349542 1.7144904 0.8903875 0.7334658 1.9777638 -0.7179858 1.7368132
-1.9216193 0.6705243 -1.6985602 -0.8615664 -0.73647684 -1.837356 0.83122164 -1.7240225
1.92203 -0.73695993 1.6685045 0.9298817 0.6501789 2.058562 -0.81744426 1.698513
0.03433481 0.0111841895 0.094742715 -0.121007204 -0.028546274 -0.13543822 -0.032588445 -0.03678479
-0.023730027 0.013184104 -0.037113927 -0.039784715 0.08663652 -0.001612086 -0.2149272 -0.06070781
-0.093180105 0.0155525375 0.013209272 0.07296824 0.09811242 -0.101861164 -0.14262958 0.06002345
-0.16345336 -0.120414235 0.049277693 -0.12032595 -0.1343159 -0.116580166 0.06028986 0.026252378
0.010747957 0.056347776 -0.0696824 0.01828427 0.042217445 -0.035217337 -0.030317713 -0.037478957
-0.022272995 0.029837664 0.04024114 0.043118373 0.038633235 -0.016836474 0.018639544 0.11363984
-0.056897677 -0.07286748 0.041046683 0.006775769 -0.07441117 0.113115855 0.036037844 0.10898567
0.10489725 -0.10513771 -0.022644103 -0.07012652 0.013196721 0.011171208 0.018916417 0.123242564
0.1796243 -0.12658602 -0.24694325 0.1473891 -0.0042344187 0.024473099 0.1667128 -0.0007892732
0.11747909 0.085095204 -0.0006745261 -0.19959143 -0.15022889 0.012064178 -0.070052825 -0.0037009653
0.013134153 0.114988424 -0.20402919 0.093598425 0.019710794 -0.032320816 0.08148879 -0.15927151
-0.049609672 0.026025625 -0.114561185 -0.18695745 -0.0490348 0.100504 -0.022317922 -0.22135618
0.052963022 -0.019993791 -0.035604514 -0.149388 -0.028768316 -0.22460417 0.08010859 -0.035199005
-0.043253414 0.02712187 -0.061163668 -0.012708876 0.15181398 -0.16269425 -0.06788835 0.040726986
0.01552954 -0.018984776 -0.02902882 -0.04845257 -0.007416845 0.033567026 0.21376392 0.008286018
0.00923631 0.07052091 -0.08683987 0.040253926 0.104673736 -0.0127735 -0.1104234 -0.04053438
00000000: 42c1 f5bf f179 243f 97c0 ddbf 4bb7 78bf
00000010: 46be 39bf 61b3 fabf c064 5d3f 93ea d9bf
00000020: 01a7 fc3f c80c 3fbf a100 d03f 8586 4b3f
00000030: ddfd 453f b599 e93f f99e 76bf dcfb d23f
00000040: bfbc fabf 0606 283f fad1 c9bf 38f9 50bf
00000050: 1fea 24bf a3f2 fcbf ae3e 513f 9b74 d3bf
00000060: 7fb3 f03f 3879 45bf 0739 d83f e10a 683f
00000070: 72c4 323f 4c97 fd3f 681e 57bf 7219 d53f
00000080: 20bc f7bf c31b 3d3f b016 d3bf 62c2 5cbf
00000090: f633 2bbf e653 eebf 41e7 6a3f 64d9 d9bf
000000a0: 70c4 0040 4f84 29bf 2719 d63f 7bc1 523f
000000b0: db30 4a3f 0161 f93f d492 5cbf 4325 d63f
000000c0: 586a ffbf 601c 3c3f 793e d2bf de74 79bf
000000d0: 7727 36bf 7363 fabf 1109 823f 23e3 d7bf
000000e0: c9ae fc3f f90e 23bf 1ba4 d33f e1af 553f
000000f0: 7fe2 293f 1519 ff3f 95c6 5cbf e456 e43f
00000100: ddf6 f9bf 12cc 283f 8bb1 d5bf 214e 74bf
00000110: 4b6a 43bf 77ce f4bf 2f3f 753f 9aee d8bf
00000120: 4522 fa3f 7b14 20bf 8599 d13f fd65 813f
00000130: 56df 293f d027 f93f 70d7 78bf 7554 e53f
00000140: fad6 f3bf d7b9 453f 3986 d4bf 1db5 61bf
00000150: 6bc8 2ebf 4124 efbf 1ed1 783f 1aac d2bf
00000160: f406 fd3f 42ba 45bf 5e11 df3f 2096 583f
00000170: 0e53 303f a59f 0040 f067 67bf f4e7 d63f
00000180: 1aba fdbf 85b9 493f 2e1a cdbf 72fc 46bf
00000190: ffe6 34bf 1994 f5bf c1cf 5e3f 90df d1bf
000001a0: b94b fd3f f525 3cbf 6c74 db3f 6ff0 633f
000001b0: 6ac4 3b3f 5d27 fd3f ebcd 37bf e54f de3f
000001c0: 9ff7 f5bf 7ba7 2b3f 6c6a d9bf 9e8f 5cbf
000001d0: bf89 3cbf 7b2e ebbf f1ca 543f c5ac dcbf
000001e0: 1405 f63f 68a9 3cbf 8e91 d53f ba0c 6e3f
000001f0: 2072 263f 7bbf 0340 0744 51bf e068 d93f
00000200: a8a2 0c3d e43d 373c 7808 c23d a0d2 f7bd
00000210: e0d9 e9bc 51b0 0abe 767b 05bd a6ab 16bd
00000220: 7965 c2bc 2402 583c c604 18bd 4cf5 22bd
00000230: 7d6e b13d a14c d3ba e015 5cbe c1a8 78bd
00000240: 36d5 bebd 12d0 7e3c b46b 583c 5f70 953d
00000250: 2aef c83d 969c d0bd 7d0d 12be 26db 753d
00000260: 5160 27be bd9b f6bd 68d7 493d 746d f6bd
00000270: 1b8a 09be 95c1 eebd 80f2 763d 3a0f d73c
00000280: 3318 303c edcc 663d a5b5 8ebd e5c8 953c
00000290: 33ec 2c3d 0e40 10bd da5c f8bc 8983 19bd
000002a0: db75 b6bc 1e6e f43c e5d3 243d e49c 303d
000002b0: e23d 1e3d a5ec 89bc f5b1 983c 01bc e83d
000002c0: 8a0d 69bd 8c3b 95bd 9120 283d 4507 de3b
000002d0: e264 98bd 49a9 e73d 6b9c 133d e133 df3d
000002e0: 5fd4 d63d 7152 d7bd 2080 b9bc 7e9e 8fbd
000002f0: 0f37 583c 7107 373c 9af6 9a3c 9966 fc3d
00000300: 6fef 373e c49f 01be b1de 7cbe 2bed 163e
00000310: e1c0 8abb cf7b c83c c3b6 2a3e 3ae7 4eba
00000320: e198 f03d 6546 ae3d aed2 30ba b261 4cbe
00000330: 9ad5 19be d4a8 453c db77 8fbd e58b 72bb
00000340: a130 573c 0d7f eb3d 07ed 50be 88b0 bf3d
00000350: 8878 a13c d562 04bd 98e3 a63d 1218 23be
00000360: 8333 4bbd b133 d53c 0e9f eabd c671 3fbe
00000370: b7d8 48bd 0bd5 cd3d 13d4 b6bc 32ab 62be
00000380: c1ef 583d 05ca a3bc 0ad6 11bd 2bf9 18be
00000390: 88ab ebbc a3fe 65be f90f a43d d52c 10bd
000003a0: 7e2a 31bd af2e de3c c186 7abd e438 50bc
000003b0: 2075 1b3e 5299 26be 0c09 8bbd 57d1 263d
000003c0: 9d6f 7e3c f685 9bbc d9cd edbc 3476 46bd
000003d0: 0109 f3bb 947d 093d eee4 5a3e 14c2 073c
000003e0: e453 173c 446d 903d 1ad9 b1bd 4de1 243d
000003f0: 2f5f d63d f147 51bc aa25 e2bd 6107 26bd

ob_decoder.0.bias f4 [64]
1.759025 1.7432343 1.7679068 1.7582145 1.7521573 1.7615808 1.7494833 2.1104076
1.7545453 1.956274 1.737703 1.7593853 1.7251304 1.753433 1.7480794 1.7583995
1.7498417 1.7638074 1.7251601 1.7455928 1.749521 1.7288221 1.724145 1.7475305
1.7613509 1.7529727 1.7667404 1.7345297 1.7413727 1.746037 1.7361679 1.7486191
1.7401325 1.7643324 1.7544442 1.7501615 1.8888313 1.7521057 1.7364169 1.7457618
1.7615536 1.7572072 1.7504619 1.7486168 1.7498486 1.7554804 1.7644064 1.7429929
1.7588603 1.7348987 1.7446982 1.7535081 1.7557037 1.7572159 1.76403 1.771788
1.7536815 1.7530688 1.7718863 1.7501632 1.7373718 1.7451882 1.7239106 1.752328
00000000: bb27 e13f 4d22 df3f c54a e23f 2c0d e13f
00000010: b146 e03f 7b7b e13f 12ef df3f eb10 0740
00000020: f194 e03f 3067 fa3f 0d6d de3f 8a33 e13f
00000030: 13d1 dc3f 7e70 e03f 11c1 df3f 3c13 e13f
00000040: d0fa df3f 71c4 e13f 0cd2 dc3f 966f df3f
00000050: 4ef0 df3f 0b4a dd3f c9b0 dc3f 14af df3f
00000060: f273 e13f 6961 e03f 8d24 e23f 1205 de3f
00000070: 4de5 de3f 247e df3f c03a de3f c0d2 df3f
00000080: a9bc de3f a5d5 e13f a191 e03f 4b05 e03f
00000090: 39c5 f13f 0045 e03f e942 de3f 1f75 df3f
000000a0: 977a e13f 2aec e03f 230f e03f add2 df3f
000000b0: 0afb df3f 95b3 e03f 12d8 e13f 641a df3f
000000c0: 5622 e13f 2911 de3f 4552 df3f f472 e03f
000000d0: e6ba e03f 73ec e03f bccb e13f f3c9 e23f
000000e0: a378 e03f 8f64 e03f 2ccd e23f 5905 e03f
000000f0: 3362 de3f 5462 df3f 1aa9 dc3f 494c e03f

ob_decoder.2.weight f4 [16, 64]
2.7277086 2.8875608 2.7758522 2.6524062 2.6824508 2.7579908 2.738448 3.0488644
2.747229 2.694142 2.8435643 2.7431717 2.7472575 2.6402676 2.8441098 2.7130158
2.758771 2.8214896 2.8300107 2.6816814 2.6460705 2.7795749 2.6336129 2.602378
2.849263 2.6193454 2.8839498 2.8285425 2.848041 2.8273556 2.5864089 2.7587073
2.8345246 2.709891 2.6608577 2.785533 2.8415332 2.8336825 2.6401768 2.8780165
2.6923447 2.8091874 2.6097379 2.614327 2.7975981 2.612575 2.6768918 2.720618
2.7750747 2.6859314 2.709065 2.8365753 2.6430829 2.678997 2.66758 2.9241996
2.846236 2.7110915 2.6254494 2.8011966 2.6818573 2.742293 2.694599 2.7779717
0.043734796 -0.01749529 0.02033929 -0.08343021 -0.01971801 -0.016878964 0.048855342 -0.21742874
0.0726453 -0.11007025 0.09503661 0.1478962 0.22413173 -0.060495175 -0.034723915 0.23656188
0.05922345 0.20047466 0.12665664 -0.0010035109 -0.073241435 0.13106817 0.049770903 -0.10707752
0.019971175 -0.02278312 -0.0068035102 0.03219689 0.08214794 0.21534811 0.013539297 0.16647969
-0.018020073 0.04071077 -0.007504127 0.12833486 -0.16874751 0.1087185 -0.042579785 0.10259294
0.16233982 0.037357025 0.11833135 0.14071898 -0.018791951 0.05764199 0.02839196 0.05715272
0.097290576 0.030305028 -0.20040421 0.043777198 0.10549924 0.02686596 -0.03932941 0.11749945
0.0036944966 0.054490846 -4.2958673e-05 0.09249264 -0.016107053 0.15767534 -0.013714573 0.008780897
0.0137474835 -0.053498358 0.083202854 -0.046381652 -0.08027974 0.03272809 -0.11364488 0.011414766
0.048805952 -0.04360895 -0.031444892 -0.06769243 -0.09272881 -0.020201415 0.04030013 -0.121470675
0.11621891 -0.08954908 0.051484913 0.115616396 0.0031205565 -0.056566477 0.0028622001 0.080172256
-0.013436988 0.012462437 -0.06497948 -0.049601436 0.036670417 -0.004067689 -0.09427211 -0.002489984
-0.027782083 -0.11147927 -0.029337257 0.042245 -0.10679415 -0.10473932 -0.12123224 -0.05664283
-0.089410394 -0.08115284 -0.09448488 0.0029815435 0.025481448 0.08550681 -0.03559889 0.11372459
0.055881396 -0.0071462244 -0.10998194 -0.046616033 0.08868541 -0.08237013 -0.002996862 -0.011792988
-0.027035713 0.1151218 0.037843004 0.027905494 -0.06665078 -0.082236886 -0.100042894 -0.10388389
0.0062627746 0.09271403 -0.0072426754 -0.289637 -0.011034471 0.06791326 0.07908114 -0.3960236
-0.05695068 -0.292009 0.12907197 -0.07655861 0.0027504403 -0.12017115 0.008912828 0.034247175
-0.09879698 0.029736659 -0.08692651 0.01389926 -0.061481223 -0.045634188 -0.011054466 -0.042989247
-0.023457633 -0.21294113 0.04243529 -0.08475834 0.08983301 0.11117519 -0.18075213 0.069960594
0.021133617 -0.19031645 -0.046491865 -0.121333 -0.36472878 -0.058446877 -0.030185705 0.08251767
0.15851595 -0.05488681 0.016620407 0.169955 0.09493607 0.15418044 -0.23925032 -0.009951158
-0.097183265 0.06754863 -0.32018423 -0.08994137 -0.029083123 -0.04423609 -0.06112545 0.029158298
0.13161638 -0.22352618 -0.09799307 -0.20156229 -0.08311496 -0.024483752 0.0038765278 -0.074521035
00000000: c792 2e40 cccd 3840 90a7 3140 06c1 2940
00000010: 46ad 2b40 ec82 3040 bb42 2f40 9820 4340
00000020: 9ad2 2f40 d36c 2c40 f5fc 3540 2090 2f40
00000030: 11d3 2f40 25fa 2840 e505 3640 0da2 2d40
00000040: b48f 3040 4993 3440 e51e 3540 aba0 2b40
00000050: 3859 2940 8ee4 3140 1d8d 2840 5c8d 2640
00000060: 535a 3640 5ba3 2740 a292 3840 d706 3540
00000070: 4e46 3640 65f3 3440 b987 2540 a98e 3040
00000080: da68 3540 db6e 2d40 7e4b 2a40 2c46 3240
00000090: aedb 3540 0e5b 3540 a8f8 2840 6c31 3840
000000a0: 604f 2c40 bac9 3340 f205 2740 2251 2740
000000b0: d90b 3340 6e34 2740 3252 2b40 9b1e 2e40
000000c0: d39a 3140 4de6 2b40 5261 2d40 738a 3540
000000d0: 4528 2940 b074 2b40 a1b9 2a40 1626 3b40
000000e0: bb28 3640 8682 2d40 5d07 2840 ce46 3340
000000f0: 8da3 2b40 ba81 2f40 4f74 2c40 4aca 3140
00000100: 4223 333d 4852 8fbc 959e a63c 75dd aabd
00000110: aa87 a1bc c145 8abc 8a1c 483d a4a5 5ebe
00000120: 0fc7 943d 836c e1bd 8ea2 c23d 1a72 173e
00000130: ca82 653e cac9 77bd aa3a 0ebd 473d 723e
00000140: 4a94 723d 3b49 4d3e 47b2 013e 3d88 83ba
00000150: 9bff 95bd bc36 063e 93dc 4b3d 754b dbbd
00000160: 979a a33c aaa3 babc fbef debb e3e0 033d
00000170: 2e3d a83d 3784 5c3e edd3 5d3c a779 2a3e
00000180: d59e 93bc 56c0 263d 2ee5 f5bb 376a 033e
00000190: 26cc 2cbe cea7 de3d 2468 2ebd 3f1c d23d
000001a0: 693c 263e ae03 193d b557 f23d a318 103e
000001b0: 94f1 99bc 021a 6c3d 4196 e83c f818 6a3d
000001c0: 4840 c73d 4042 f83c c336 4dbe b84f 333d
000001d0: fc0f d83d 0016 dc3c e017 21bd 8da3 f03d
000001e0: 5e1f 723b cb31 5f3d 862e 34b8 c86c bd3d
000001f0: f0f2 83bc a575 213e 17b3 60bc c0dd 0f3c
00000200: 203d 613c 1821 5bbd 4266 aa3d b0fa 3dbd
00000210: b469 a4bd e40d 063d a6be e8bd 0005 3b3c
00000220: c0e8 473d 4c9f 32bd 5ccc 00bd 54a2 8abd
00000230: 9ae8 bdbd 707d a5bc c011 253d 9ec5 f8bd
00000240: 2e04 ee3d 8265 b7bd d8e1 523d 4ac8 ec3d
00000250: 4082 4c3b 40b2 67bd c093 3b3b 5a31 a43d
00000260: d026 5cbc 402f 4c3c f613 85bd e02a 4bbd
00000270: b833 163d 404a 85bb bc11 c1bd 002f 23bb
00000280: 4097 e3bc 3e4f e4bd b054 f0bc 1809 2d3d
00000290: e4b6 dabd 9281 d6bd 9c48 f8bd 5002 68bd
000002a0: cc1c b7bd 7633 a6bd 4a81 c1bd 0066 433b
000002b0: 78be d03c 321e af3d 24d0 11bd 70e8 e83d
000002c0: e4e3 643d e02a eabb 363e e1bd 74f0 3ebd
000002d0: b2a0 b53d acb1 a8bd 0067 44bb 6037 41bc
000002e0: 007a ddbc fac4 eb3d 4401 1b3d 109a e43c
000002f0: 3480 88bd d06b a8bd 4ae3 ccbd 14c1 d4bd
00000300: f637 cd3b dae0 bd3d f753 edbb 4d4b 94be
00000310: edc9 34bc 1b16 8b3d 4bf5 a13d 9bc3 cabe
00000320: 1e45 69bd 3482 95be 712b 043e c3ca 9cbd
00000330: bb40 343b 4b1c f6bd 1c07 123c c446 0c3d
00000340: 1256 cabd 4b9a f33c 8706 b2bd b9b9 633c
00000350: bcd3 7bbd eaea 3abd ca1d 35bc 7e15 30bd
00000360: 392a c0bc 3d0d 5abe a0d0 2d3d c895 adbd
00000370: 5ffa b73d d1af e33d 1617 39be 8047 8f3d
00000380: 6820 ad3c 51e2 42be 416e 3ebd 707d f8bd
00000390: bbbd babe fe65 6fbd 0348 f7bc 06ff a83d
000003a0: 0152 223e fed0 60bd 8527 883c af08 2e3e
000003b0: d86d c23d 7ae1 1d3e 09fe 74be 2f0a 23bc
000003c0: 0508 c7bd f056 8a3d 30ef a3be 2e33 b8bd
000003d0: bb3f eebc e730 35bd ae5e 7abd 62dd ee3c
000003e0: 72c6 063e 0ce4 64be 97b0 c8bd 5866 4ebe
000003f0: 2d38 aabd 2692 c8bc 580d 7e3b 7c9e 98bd

ob_decoder.2.bias f4 [16]
0.57462066 2.2882266 -0.12057136 2.5032115 0.40085942 -0.113267556 0.5381387 -0.011054596
-0.088544175 0.50025094 0.58690906 0.49319276 -0.07129663 0.11216277 -0.078090936 -0.0631804
00000000: 571a 133f 4e72 1240 1eee f6bd 9e34 2040
00000010: 723d cd3e d2f8 e7bd 75c3 093f 561e 35bc
00000020: a656 b5bd 7210 003f ac3f 163f c383 fc3e
00000030: f803 92bd 98b5 e53d 24ee 9fbd ba64 81bd

ob_decoder.4.weight f4 [2, 16]
2.7453506 -2.4653676 -0.03910926 -2.4291463 2.7772915 -0.0066866577 2.7408445 -0.08754701
-0.06960341 2.4290922 2.509048 2.738766 0.11761731 3.5155413 -0.11978939 -0.023132026
1.6399207 -1.2639642 0.166935 -1.1496893 1.6168672 -0.24366578 1.5755786 -0.10996401
0.15373182 1.7009605 1.5108448 1.586152 0.087712854 1.3004863 0.088838086 0.025966555
00000000: d3b3 2f40 95c8 1dc0 0831 20bd 2277 1bc0
00000010: 25bf 3140 c01b dbbb ff69 2f40 d94b b3bd
00000020: 3c8c 8ebd 3f76 1b40 3e94 2040 f147 2f40
00000030: 58e1 f03d a1fe 6040 2454 f5bd 607f bdbc
00000040: ece8 d13f 94c9 a1bf 02f1 2a3e 0529 93bf
00000050: 81f5 ce3f 8683 79be 8fac c93f d034 e1bd
00000060: e06b 1d3e 13b9 d93f 5d63 c13f 0707 cb3f
00000070: cca2 b33d 5676 a63f bef0 b53d d0b7 d43c

ob_decoder.4.bias f4 [2]
0.13657866 0.5668397
00000000: 47db 0b3e 681c 113f

encoder.0.weight f4 [8, 4]
0.27959195 -0.1963945 0.14510348 -0.18940747 0.10028616 0.196451 0.360932 0.31194106
-0.16271807 -0.018124308 0.29556555 0.39880902 -0.2681914 -0.44818324 -0.07457412 0.08244968
0.22668111 0.42885956 0.52049553 0.012983967 0.07800215 -0.05073893 -0.5157165 0.3309591
0.391478 0.383622 -0.34277564 0.08647156 0.34942564 0.47729468 -0.60586596 -0.21810178
00000000: ad26 8f3e a41b 49be 0296 143e 08f4 41be
00000010: d562 cd3d 732a 493e 14cc b83e bdb6 9f3e
00000020: 919f 26be 6e79 94bc 5e54 973e b230 cc3e
00000030: 6250 89be 4678 e5be 51ba 98bd 61db a83d
00000040: 181f 683e 7b93 db3e 323f 053f b4ba 543c
00000050: 97bf 9f3d a0d3 4fbd ff05 04bf 7973 a93e
00000060: ce6f c83e 1a6a c43e 4a80 afbe 0018 b13d
00000070: ebe7 b23e f85f f43e 081a 1bbf 1356 5fbe

encoder.0.bias f4 [8]
-0.4297357 0.1479332 0.41005382 0.5540051 0.4371086 0.4245554 -0.07106973 0.10243012
00000000: 5106 dcbe cd7b 173e 93f2 d13e 47d3 0d3f
00000010: b3cc df3e 535f d93e 028d 91bd e2c6 d13d

encoder.2.weight f4 [2, 8]
-0.22869137 -0.10653391 -0.24626358 0.06369075 0.1572537 -0.37962514 0.15699296 -0.097486906
0.13976869 -0.124871805 -0.29630128 0.17017645 -0.034696873 0.109250925 0.26224542 0.12718408
00000000: 122e 6abe 732e dabd 852c 7cbe 4c70 823d
00000010: 1d07 213e 3a5e c2be c3c2 203e 37a7 c7bd
00000020: 861f 0f3e cabc ffbd cdb4 97be bc42 2e3e
00000030: 4f1e 0ebd f3be df3d 0845 863e 8b3c 023e

encoder.2.bias f4 [2]
0.20538414 0.17995496
00000000: 3850 523e 1d46 383e

decoder.0.weight f4 [32, 130]
-0.078234784 -0.14687288 -0.1509951 -0.075913504 0.1544071 0.13823605 0.03631091 0.090458095
-0.12279041 -0.06302263 -0.05610283 -0.11856381 0.13652003 0.1591065 0.112765215 0.056846883
-0.16382122 -0.092869416 -0.038252056 -0.015823947 0.07683425 0.06461449 0.1016529 -0.03769948
-0.09816177 -0.17310968 -0.045319915 -0.07628414 0.09337892 0.20120192 0.07353639 -0.030321283
-0.06683025 -0.15980692 -0.0327634 -0.09793715 0.11733886 0.13884868 0.18338989 0.071344234
-0.033742204 -0.057552885 -0.084448434 -0.0698328 0.054036777 0.11538572 0.12217795 0.032838583
-0.08853128 -0.18108995 -0.025083244 -0.09097973 0.08930018 0.19586022 0.17255525 -0.019454656
-0.07763713 -0.17041925 -0.13611172 -0.0031729406 0.034642704 0.11543509 0.16164699 -0.027523967
0.061884955 -0.012912553 -0.120944396 -0.08554615 -0.061563034 -0.033717103 0.14595035 0.14944047
0.124607 -0.015325482 -0.06783515 -0.056345936 -0.180783 0.011272513 0.03497008 0.19166468
0.15248299 0.096459456 -0.091900975 -0.17125385 -0.16092184 -0.031431723 0.075040944 0.16304058
0.11689503 0.089191936 -0.17727394 -0.056633387 -0.082987875 -0.016268004 0.14201662 0.07727346
0.12559307 0.03423573 -0.012846337 -0.16980779 -0.16740753 -0.10978091 0.056057166 0.11712834
0.09643317 0.0485639 -0.1232203 -0.11014129 -0.049226902 0.017514687 0.15165012 0.16588448
0.18397631 0.13935038 0.0068719652 -0.15336701 -0.063265406 -0.009102217 0.04525216 0.1505363
0.13136677 -0.046537988 -0.070774026 -0.20319983 -0.07990298 -0.001085303 0.11205433 0.16822386
-0.11173354 0.1593094 0.10219421 0.2038766 0.10340771 0.094347276 -0.19102316 -0.18028703
-0.18379973 0.020205515 0.06475881 0.22237791 0.13414085 0.081784956 -0.20948271 -0.16815834
-0.14961044 -0.010773864 0.085755035 0.13013475 0.20717514 0.0037183543 -0.22182474 -0.14247076
-0.18820429 -0.050293583 0.1222943 0.17335021 0.16312248 -0.05826209 -0.16577868 -0.18890442
-0.18661569 0.042043228 0.021723714 0.14545527 0.11402687 -0.025026387 -0.09296335 -0.2771926
-0.18661495 -0.099306814 0.13206223 0.28579628 0.053725537 0.08083519 -0.029387096 -0.14056447
-0.11878272 -0.07961228 0.06340743 0.2303829 0.07936651 -0.05780989 -0.04383691 -0.22063641
-0.16977872 0.04221513 0.07942413 0.24161512 0.08721243 -0.019092655 -0.107726604 -0.13623221
-0.0930631 0.019423356 -0.1863264 -0.040916745 0.20458415 0.20406246 0.15411015 0.06914612
-0.11079734 -0.21368878 -0.08731939 0.0064705 0.0925676 0.18082239 0.10694319 -0.03749815
-0.089498766 -0.10156884 -0.10737917 -0.08632287 0.11266615 0.13176729 0.19402379 0.029906202
-0.15697955 -0.26031685 -0.17242067 -0.10300479 0.119070336 0.09510019 0.18309247 0.106217556
-0.05291078 -0.1773516 -0.109845236 0.08179652 0.17939794 0.30795494 0.15491764 -0.060373317
-0.1417463 -0.16409376 -0.13658275 0.067626014 0.073025174 0.13473487 0.048342183 0.04176616
-0.11708221 -0.2073796 -0.1870171 0.014469899 0.11315061 0.21119806 0.1199806 0.10315593
-0.083812326 -0.19069466 -0.12908582 0.06037444 0.092479244 0.17187528 0.09015517 -0.016541075
00000000: 8f39 a0bd d865 16be 769e 1abe 8a78 9bbd
00000010: e51c 1e3e c08d 0d3e c0ba 143d 1842 b93d
00000020: 8a79 fbbd 0212 81bd 15cc 65bd 95d1 f2bd
00000030: e8cb 0b3e d0ec 223e 73f1 e63d 47d8 683d
00000040: c0c0 27be 5232 bebd 30ae 1cbd 39a1 81bc
00000050: 465b 9d3d 9a54 843d 652f d03d c56a 1abd
00000060: 0a09 c9bd aa43 31be 60a1 39bd dc3a 9cbd
00000070: 723d bf3d e007 4e3e 3f9a 963d 5764 f8bc
00000080: 4cde 88bd 6da4 23be ea32 06bd 4693 c8bd
00000090: 5b4f f03d 592e 0e3e 8fca 3b3e ed1c 923d
000000a0: 4435 0abd 93bc 6bbd 4df3 acbd 8004 8fbd
000000b0: ab55 5d3d 594f ec3d 6f38 fa3d c081 063d
000000c0: e34f b5bd a56f 39be 607b cdbc 9553 babd
000000d0: 03e3 b63d 958f 483e 53b2 303e 5f5f 9fbc
000000e0: 3700 9fbd 6282 2ebe df60 0bbe 1cf1 4fbb
000000f0: 82e5 0d3d 3c69 ec3d ca86 253e f179 e1bc
00000100: 147b 7d3d 2c8f 53bc b2b1 f7bd d232 afbd
00000110: 8529 7cbd f21a 0abd 0274 153e ec06 193e
00000120: f431 ff3d bb17 7bbc 28ed 8abd ffca 66bd
00000130: 2e1f 39be 59b0 383c c93c 0f3d bf43 443e
00000140: 8024 1c3e 898c c53d 9436 bcbd 2b5d 2fbe
00000150: b2c8 24be 8dbe 00bd 11af 993d 1cf4 263e
00000160: a966 ef3d 43aa b63d 4d87 35be 69f8 67bd
00000170: 8cf5 a9bd 7a44 85bc ce6c 113e 8c41 9e3d
00000180: 789b 003e c43a 0c3d 7179 52bc 18e2 2dbe
00000190: e16c 2bbe d0d4 e0bd 339c 653d fce0 ef3d
000001a0: c17e c53d f1ea 463d ed5a fcbd c291 e1bd
000001b0: 26a2 49bd f67a 8f3c 2b4a 1b3e 9fdd 293e
000001c0: 4964 3c3e deb1 0e3e 392e e13b 3e0c 1dbe
000001d0: 4b91 81bd 7721 15bc 545a 393d 3026 1a3e
000001e0: 0385 063e 9e9e 3ebd f9f1 90bd 9e13 50be
000001f0: 2ca4 a3bd ba40 8eba be7c e53d e042 2c3e
00000200: 8ed4 e4bd 0122 233e 334b d13d 07c5 503e
00000210: 6cc7 d33d 2539 c13d 939b 43be 2a9d 38be
00000220: ff35 3cbe 0986 a53c 44a0 843d 09b7 633e
00000230: 385c 093e df7e a73d a382 56be b331 2cbe
00000240: 7b33 19be dc84 30bc 56a0 af3d 0b42 053e
00000250: b825 543e a2af 733b 0626 63be dbe3 11be
00000260: a0b8 40be a500 4ebd 6f75 fa3d b882 313e
00000270: 9409 273e 3ba4 6ebd e3c1 29be 2970 41be
00000280: 2f18 3fbe 8535 2c3d eef5 b13c 3af2 143e
00000290: eb86 e93d 2304 cdbc 9263 bebd 30ec 8dbe
000002a0: fd17 3fbe 5f61 cbbd 523b 073e e453 923e
000002b0: 4f0f 5c3d ec8c a53d 35bd f0bc 22f0 0fbe
000002c0: 5b44 f3bd c30b a3bd c1db 813d 7fe9 6b3e
000002d0: e98a a23d 10ca 6cbd 558e 33bd 83ee 61be
000002e0: 79da 2dbe c6e9 2c3d 1ea9 a23d f469 773e
000002f0: 6e9c b23d 3368 9cbc c49f dcbd 7580 0bbe
00000300: de97 bebd bb1d 9f3c 59cc 3ebe 5198 27bd
00000310: 827e 513e c0f5 503e 0dcf 1d3e 7b9c 8d3d
00000320: b7e9 e2bd 3bd1 5abe 82d4 b2bd 7d06 d43b
00000330: 1594 bd3d 8129 393e 0805 db3d a997 19bd
00000340: 214b b7bd 5303 d0bd 9ce9 dbbd 0bca b0bd
00000350: 83bd e63d 01ee 063e 2cae 463e dafd f43c
00000360: 3fbf 20be 4048 85be 0b8f 30be 2df4 d2bd
00000370: 26db f33d e3c3 c23d 987c 3b3e 9788 d93d
00000380: f9b8 58bd a89b 35be 8af6 e0bd ef84 a73d
00000390: 18b4 373e 45ac 9d3e bba2 1e3e 034a 77bd
000003a0: f125 11be 3208 28be 59dc 0bbe 827f 8a3d
000003b0: 398e 953d f0f7 093e 7402 463d fe12 2b3d
000003c0: ccc8 efbd 515b 54be 6981 3fbe 2813 6d3c
000003d0: 82bb e73d 4e44 583e 64b8 f53d 6b43 d33d
000003e0: cca5 abbd 7645 43be 132f 04be 304b 773d
000003f0: c265 bd3d 1300 303e 46a3 b83d 2681 87bc

decoder.0.bias f4 [32]
0.20465785 0.16718149 0.15588823 -0.15052912 -0.12674506 0.19570504 0.25113824 0.2520713
-0.1329421 0.09263802 -0.03908763 0.07733763 0.13609158 0.14288883 -0.12875697 -0.051183105
0.117472805 0.18338086 0.085855246 -0.11284693 -0.17670694 0.21111871 -0.114504 0.18645418
0.18078992 0.17406388 0.15253744 0.1878717 -0.08694456 0.2701598 -0.06951172 0.13107923
00000000: d491 513e a031 2b3e 2aa1 1f3e 4e24 1abe
00000010: 75c9 01be e766 483e 3195 803e 7d0f 813e
00000020: f921 08be 01b9 bd3d 5a1a 20bd 3163 9e3d
00000030: 975b 0b3e 7351 123e ded8 03be 60a5 51bd
00000040: 9595 f03d 31c8 3b3e e0d4 af3d 4b1c e7bd
00000050: aaf2 34be 812f 583e 1381 eabd d8ed 3e3e
00000060: fe20 393e cd3d 323e c632 1c3e 7061 403e
00000070: fd0f b2bd 6352 8a3e 295c 8ebd a239 063e

decoder.2.weight f4 [8, 32]
0.039641306 -0.0017746674 0.08877681 -0.49089992 0.056964215 0.09953364 0.054420132 -0.10708592
-0.07319364 -0.06852717 0.011909374 0.053257678 0.21763468 0.043810364 0.34079707 0.07929162
-0.09417011 0.00042340078 -0.10330392 0.13074538 -0.20595759 0.21881865 -0.019067615 0.17378688
-0.0694371 0.12679091 0.059883036 -0.07398026 -0.031735424 0.16185851 0.09664898 0.16677573
-0.3013477 0.21038292 0.27762622 1.1431862 0.02603426 -0.080334 -0.01388116 -0.11540532
0.4026161 0.18766844 0.041207053 0.14991443 -0.23791291 0.37458768 -1.2737992 -0.0508622
0.2677901 0.31804264 0.2655028 0.061500005 0.5754087 -0.18916664 -0.028629955 0.26015502
0.23292285 0.36231166 -0.2723046 0.42176005 -0.08890416 -0.04867382 0.050018888 -0.35979518
-0.14458719 0.12730554 -0.16701688 -0.13858147 0.17152992 0.07597176 0.020055873 0.15648724
0.07715406 0.04790272 0.0005348435 0.012876662 0.11213028 0.0021008728 -0.122332156 0.08281584
0.1726416 -0.12799554 0.10920075 -0.14829308 -0.17619422 0.035228465 0.07692502 0.026237845
-0.14512911 0.12624098 -0.028909387 -0.1664328 -0.108945996 -0.027187668 -0.16108589 -0.14126404
-0.6431539 0.21758965 0.17509165 0.6318426 -0.057504155 0.000332832 -0.20693316 -1.092448
0.24324997 -0.11397426 0.026969222 -0.039049886 -0.35785404 0.17872123 -0.2005789 -0.12809786
0.14514342 0.08041156 0.2532815 0.10745683 0.1559999 -0.6028065 0.04236765 0.23416
-0.10394873 0.07141957 -0.4031338 -0.0067529464 -0.085669495 -0.30747408 0.119651444 -0.3423841
-0.088116296 0.05177301 0.09548604 -0.03756516 0.0758825 0.08978496 -0.16803318 -0.011345827
-0.0718267 0.013452152 -0.07002825 -0.13427053 0.13244586 0.0073006204 -0.10075266 0.09948753
-0.029099317 0.022071052 0.08846393 -0.14042152 0.10974605 -0.14018151 -0.013583993 -0.28823942
-0.20692833 0.09074411 0.0057888147 -0.056224637 -0.07874197 -0.06711722 0.11110646 -0.16100094
0.0932062 -0.06816268 -0.23462151 0.48431328 -0.18389736 0.13339362 0.010513567 0.11298341
-0.058449417 -0.025005005 0.110935986 0.032205585 0.17628418 0.02562255 0.34725994 0.0365838
-0.031701025 -0.089769885 -0.17496206 -0.0935486 0.069171645 0.0042020013 0.04327512 0.21336511
-0.20562391 -0.06893705 0.19622236 -0.2585565 0.09273107 -0.010653068 -0.1703288 0.066610366
0.26112917 0.21159692 0.1459916 -0.7029844 -0.07259888 0.4229778 0.33249214 0.15122657
-0.44714066 0.16799596 -0.08813891 0.16435619 0.24973224 0.096170455 0.8887277 -0.07416164
0.14580125 0.16232444 0.17339092 0.01885485 -0.5434693 0.34399587 -0.028916348 0.23086219
0.36999273 0.15656655 0.17844868 0.21400188 -0.04846372 0.3265547 0.081153184 0.1699237
0.12779318 -0.044403672 0.032559168 0.0763709 0.13397996 -0.1411935 -0.07636718 -0.1378363
-0.059689123 0.03056803 -0.016986882 0.01681036 -0.086199865 -0.041168068 0.099520095 -0.13822457
-0.022481944 0.032467 -0.09282678 0.111819915 -0.07882074 -0.002881493 0.012437683 -0.03324109
0.07403975 -0.009325111 -0.13691415 -0.14290783 0.17648304 -0.118444294 -0.13405888 -0.054648742
00000000: ec5e 223d f59b e8ba 9ed0 b53d 3c57 fbbe
00000010: 4f53 693d 4bd8 cb3d a5e7 5e3d dd4f dbbd
00000020: 8ce6 95bd f957 8cbd 891f 433c b924 5a3d
00000030: a0db 5e3e 7f72 333d f47c ae3e a563 a23d
00000040: 42dc c0bd e4fb dd39 0191 d3bd 1ee2 053e
00000050: 8ce6 52be ff11 603e b033 9cbc 30f5 313e
00000060: 0a35 8ebd 7ad5 013e ea47 753d f682 97bd
00000070: 01fd 01bd 3dbe 253e e7ef c53d 42c7 2a3e
00000080: 3f4a 9abe 9f6e 573e 0625 8e3e ed53 923f
00000090: cd45 d53c 2786 a4bd ce6d 63bc a059 ecbd
000000a0: b323 ce3e 282c 403e bac8 283d 2b83 193e
000000b0: 719f 73be f5c9 bf3e da0b a3bf e254 50bd
000000c0: c91b 893e 7cd6 a23e fcef 873e 6ee7 7b3d
000000d0: fc4d 133f e6b4 41be 5e89 eabc 0a33 853e
000000e0: 5483 6e3e ea80 b93e 826b 8bbe eff0 d73e
000000f0: 6213 b6bd 335e 47bd 9be0 4c3d 1337 b8be
00000100: aa0e 14be 625c 023e 7906 2bbe 4de8 0dbe
00000110: 8aa5 2f3e 1597 9b3d 374c a43c 313e 203e
00000120: f302 9e3d a435 443d bd34 0c3a a3f8 523c
00000130: 8fa4 e53d ccae 093b 4889 fabd 5a9b a93d
00000140: f6c8 303e 4311 03be a5a4 df3d 24da 17be
00000150: 426c 34be b94b 103d dd8a 9d3d c0f0 d63c
00000160: ba9c 14be 5145 013e 61d3 ecbc 5c6d 2abe
00000170: 141f dfbd acb8 debc b3f3 24be 85a7 10be
00000180: bca5 24bf d2cf 5e3e 3a4b 333e 70c0 213f
00000190: 7a89 6bbd f47f ae39 49e6 53be 56d5 8bbf
000001a0: 8516 793e 566b e9bd 8fee dc3c c6f2 1fbd
000001b0: a538 b7be b302 373e 8e64 4dbe 162c 03be
000001c0: 7aa0 143e d1ae a43d 1dae 813e 5412 dc3d
000001d0: 70be 1f3e 8751 1abf b389 2d3d a4c7 6f3e
000001e0: 12e3 d4bd 6c44 923d 8e67 cebe d247 ddbb
000001f0: 7d73 afbd 3e6d 9dbe d10b f53d f84c afbe
00000200: 5176 b4bd f00f 543d 2f8e c33d eddd 19bd
00000210: 4968 9b3d 2de1 b73d e410 2cbe d9e3 39bc
00000220: e019 93bd 6a66 5c3c f96a 8fbd 377e 09be
00000230: e39f 073e 0b3a ef3b 6957 cebd 1ec0 cb3d
00000240: b161 eebc 5ace b43c 942c b53d a9ca 0fbe
00000250: 89c2 e03d be8b 0fbe 658f 5ebc 1e94 93be
00000260: 05e5 53be 0cd8 b93d 19b0 bd3b ce4b 66bd
00000270: 7843 a1bd c174 89bd c98b e33d 6edd 24be
00000280: e4e2 be3d e098 8bbd 9f40 70be e9f7 f73e
00000290: 974f 3cbe 5698 083e 1941 2c3c d963 e73d
000002a0: a868 6fbd 4cd7 ccbc 6832 e33d 01ea 033d
000002b0: d783 343e 62e6 d13c 0ecc b13e e5d8 153d
000002c0: efd8 01bd 46d9 b7bd 4129 33be 6996 bfbd
000002d0: dda9 8d3d f1b0 893b 4141 313d 627c 5a3e
000002e0: 138f 52be de2e 8dbd 84ee 483e 8461 84be
000002f0: cae9 bd3d 358a 2ebc ac6a 2ebe 046b 883d
00000300: b9b2 853e ddac 583e d27e 153e c9f6 33bf
00000310: b9ae 94bd 8c90 d83e 693c aa3e 23db 1a3e
00000320: 9fef e4be 2207 2c3e 2c82 b4bd fd4c 283e
00000330: cfb9 7f3e 04f5 c43d a983 633f 0fe2 97bd
00000340: ec4c 153e 6138 263e 648d 313e 7d75 9a3c
00000350: ce20 0bbf 3a20 b03e fae1 ecbc 2367 6c3e
00000360: b06f bd3e fb52 203e 40bb 363e 4f23 5b3e
00000370: e581 46bd 2d32 a73e a433 a63d 7a00 2e3e
00000380: 37dc 023e a0e0 35bd c35c 053d 5968 9c3d
00000390: 0b32 093e 0795 10be 6566 9cbd f624 0dbe
000003a0: 957c 74bd ce69 fa3c 1328 8bbc e1b5 893c
000003b0: 8e89 b0bd d99f 28bd 31d1 cb3d be8a 0dbe
000003c0: 0e2c b8bc 1efc 043d f81b bebd d701 e53d
000003d0: c56c a1bd 6ed7 3cbb 6cc7 4b3c cf27 08bd
000003e0: 27a2 973d 5ac8 18bc 3933 0cbe 6e56 12be
000003f0: f8b7 343e ec92 f2bd bb46 09be 5cd7 5fbd

decoder.2.bias f4 [8]
0.015341567 0.1367886 -0.12102984 -0.2816649 -0.01941214 -0.022654014 0.24430247 -0.13014436
00000000: 325b 7b3c 5012 0c3e 7ede f7bd 6236 90be
00000010: 3506 9fbc e994 b9bc 6d2a 7a3e 9044 05be

decoder.4.weight f4 [2, 8]
-0.14462122 0.43460497 0.015837226 -0.5768033 -0.10548049 0.06843785 -0.14372194 0.29227534
0.31765646 -0.3935407 0.10676581 0.53960526 0.20778254 -0.23480743 0.41715443 -0.18778576
00000000: 9617 14be 8b84 de3e 12bd 813c 62a9 13bf
00000010: 2806 d8bd 2529 8c3d d82b 13be 1da5 953e
00000020: dea3 a23e 2b7e c9be 08a8 da3d 9223 0a3f
00000030: f2c4 543e 5c71 70be 4495 d53e e94a 40be

decoder.4.bias f4 [2]
0.24554834 0.2825549
00000000: 0671 7b3e 09ab 903e
